outputs/mlp_shape_2classes.onnx (onnx, 141938 bytes, 8 tensors)

hidden1.weight f4 [150, 22]
0	0x3d5439bc	0.051812872
1	0xbdc867f5	-0.09785453
2	0xbd3a495c	-0.045480117
3	0x3dc3985d	0.09550545
4	0xbe501ae3	-0.20322756
5	0x3e000566	0.1250206
6	0xbd3dc349	-0.046328817
7	0x3dd5b71c	0.10435316
8	0x3cf1f987	0.02953793
9	0xbcaa9b6b	-0.020826062
10	0x3d331a85	0.043726463
11	0x3c234799	0.009965801
12	0x3d96de98	0.07366675
13	0xbdadbf9e	-0.08483814
14	0xbc799754	-0.015233833
15	0xbd286bcc	-0.041118428
16	0x3c850b06	0.016240608
17	0xbb770789	-0.00376937
18	0x3e2d2015	0.1690677
19	0x3d4516df	0.048117515
20	0xbdd77d17	-0.10521906
21	0xbe200405	-0.15626533
22	0xbdaaa79c	-0.0833275
23	0xbdbe0132	-0.09277572
24	0xbd8fbc22	-0.07018305
25	0x3c1992dd	0.009373394
26	0x3e014de5	0.1262737
27	0x3deb8c0f	0.115013234
28	0xbe562fe3	-0.20916705
29	0x3e0439a8	0.12912619
30	0x3d9794b3	0.07401409
31	0x3e50e4b3	0.20399742
32	0x3e206773	0.15664463
33	0xbe36ad6a	-0.1783959
34	0xbe40a2fd	-0.18812175
35	0xbdb67cde	-0.08910535
36	0x3e42549b	0.18977587
37	0xbd403289	-0.046923194
38	0x3d7c6076	0.06161543
39	0xbda713d4	-0.08158079
40	0x3e50795a	0.20358792
41	0xbdca4f17	-0.098783664
42	0x3e113172	0.14179018
43	0xbc9de3ff	-0.019273756
44	0xbd0552ad	-0.03254955
45	0x3e1462db	0.14490835
46	0xbdb12216	-0.086490795
47	0x3db3c192	0.08777155
48	0xbd0a404c	-0.033752725
49	0x3c1c51eb	0.009541015
50	0xbe2919a0	-0.16513681
51	0xbda81532	-0.08207168
52	0x3e2d7be7	0.16941796
53	0xbcae21b4	-0.021256305
54	0x3e84a259	0.2590511
55	0x3e653d23	0.22386603
56	0x3d3e9012	0.046524115
57	0xbda3d771	-0.080000766
58	0x3e26331f	0.16230439
59	0x3e408eda	0.18804494
60	0xbe176e2d	-0.14788122
61	0x3e87d9e3	0.26533422
62	0x3e839f35	0.25707403
63	0x3e9e3436	0.3089921
64	0xbae02736	-0.001710153
65	0x3da7e8c7	0.08198696
66	0xbba5285d	-0.005040212
67	0x3cd6bf52	0.026214276
68	0xbe1679c0	-0.14694881
69	0xbe1ffbb2	-0.15623358
70	0x3de36d4e	0.111048326
71	0xbd60f6a3	-0.05492271
72	0x3dcb36f6	0.09922592
73	0x3bed9e98	0.007251572
74	0x3d40c6f0	0.04706472
75	0x3d86bfda	0.065795615
76	0x3d5e8612	0.05432708
77	0x3da93bc3	0.08263352
78	0xbe61b371	-0.22041108
79	0x3dad153a	0.08451314
80	0xbe30b97f	-0.17258261
81	0xbe2d637e	-0.16932485
82	0x3cc91480	0.024545908
83	0xbd3a4ab1	-0.045481388
84	0x3deebc93	0.116570614
85	0xbe070843	-0.13186745
86	0xbe4a856e	-0.19777462
87	0x3e16b770	0.14718413
88	0xbd88d855	-0.06681887
89	0x3e05e588	0.1307584
90	0x3daa7d68	0.083247006
91	0xbd2cdce8	-0.04220286
92	0x3d298ff0	0.041397035
93	0x3d55d9f2	0.052209802
94	0xbe0ea3b2	-0.13929632
95	0xbda66f6b	-0.0812672
96	0x3e19eddd	0.15032144
97	0x3dc6ce79	0.0970735
98	0x3d5a39bf	0.053277727
99	0xbab50a42	-0.0013812261
100	0x3e825a97	0.2545974
101	0x3cbd777f	0.02312827
102	0x3e1c17e4	0.15243489
103	0x3e6250c8	0.22101128
104	0xbd2e12ca	-0.042498387
105	0xbd88a486	-0.06672005
106	0x3eacc4af	0.33743808
107	0x3e0e5479	0.13899411
108	0x3e8b9c3e	0.2726764
109	0x3e3198d1	0.17343451
110	0x3caba124	0.020950861
111	0x3e201698	0.15633619
112	0x3e49eda3	0.19719557
113	0xbe12cd4d	-0.14336129
114	0x3cc77dee	0.02435204
115	0x3e2004cf	0.15626834
116	0x3e1b56ce	0.15169832
117	0x3e039a23	0.12851767
118	0xbe130b79	-0.14359845
119	0xbe1b6f02	-0.15179065
120	0xbdea42f6	-0.11438553
121	0x3d27b087	0.040939834
122	0x3e64d44d	0.22346611
123	0xbdffd096	-0.124909565
124	0x3ded462b	0.11585649
125	0xbe1e8890	-0.15481782
126	0xbe7c1717	-0.24618183
127	0xbd5a4c7d	-0.0532956
128	0x3dbac069	0.091187306
129	0x3e28d12f	0.16486047
130	0xbe32f884	-0.17477614
131	0xbac3f1f1	-0.0014949423
132	0x3e303135	0.17206271
133	0x3e0e49e8	0.1389538
134	0x3ddf97a0	0.10917592
135	0x3e18c3d2	0.1491845
136	0x3e07b5c8	0.13252938
137	0x3d580b4f	0.05274516
138	0xbe17abb0	-0.14811587
139	0xbe39b751	-0.18136336
140	0xbdabd7c5	-0.08390764
141	0xbd41b06c	-0.04728739
142	0xbdef57bf	-0.11686658
143	0x3dbc0357	0.091803245
144	0x3da35fd8	0.07977265
145	0xbd0d52a0	-0.034502625
146	0x3dc3f3c1	0.09567977
147	0x3d94123f	0.07230043
148	0x3e00e1f0	0.12586188
149	0x3e17f056	0.14837775
150	0xbd8c7f94	-0.06860271
151	0x3e5899f3	0.21152477
152	0xbcb0f328	-0.021600321
153	0xbb905dfa	-0.004405734
154	0xbde4cb00	-0.11171532
155	0xbe06a397	-0.13148342
156	0xbdf9ade3	-0.121913694
157	0xbd4538e2	-0.04814995
158	0x3e397e35	0.1811455
159	0xbceaf039	-0.028679
160	0xbe082c47	-0.1329814
161	0x3da6c5c2	0.08143188
162	0x3db1ffbe	0.08691357
163	0x3e0cc607	0.13747416
164	0xbd9686f1	-0.07349957
165	0x3daa3e5d	0.08312676
166	0xbce05af8	-0.027387127
167	0x3b0aff31	0.0021209235
168	0xbe2ff1bd	-0.1718206
169	0xbd666a08	-0.056253463
170	0xbcbb7636	-0.022883516
171	0x3db11604	0.08646777
172	0x3d98d9d6	0.07463424
173	0x3db76f33	0.089567564
174	0x3e83f761	0.25774673
175	0x3e81ce9a	0.25352937
176	0x3e23b70d	0.15987797
177	0xbc897f30	-0.01678428
178	0xbe1c4d1c	-0.1526379
179	0x3deacef4	0.114652544
180	0xbdd1be5d	-0.10241387
181	0xbd7fb3cd	-0.06242733
182	0xbe62bd85	-0.22142608
183	0xbd0354be	-0.03206324
184	0xbe31b8d9	-0.1735567
185	0x3e35b718	0.17745626
186	0xbe7237cb	-0.23654096
187	0xbe5f2f75	-0.21795447
188	0xbd710101	-0.058838848
189	0xbe2af849	-0.16696276
190	0x3da1e0ee	0.0790423
191	0xbe133a22	-0.14377645
192	0xbe3b8476	-0.18312249
193	0xbd263e21	-0.040586594
194	0x3db33567	0.0875042
195	0xbe56ea21	-0.2098775
196	0x3d314439	0.043277953
197	0x3d9aabb8	0.07552284
198	0x3e8e6769	0.2781327
199	0xbe30416a	-0.17212453
200	0x3d0607db	0.032722335
201	0xbe03310f	-0.12811683
202	0x3e2b93be	0.16755578
203	0xbdc6f821	-0.097152956
204	0x3de5dc15	0.11223618
205	0x3bf8df15	0.007594953
206	0xbcc6c63b	-0.024264446
207	0xbc64daf2	-0.013968216
208	0x3d7848ab	0.060616177
209	0x3dc84ced	0.097802974
210	0x3d017b15	0.03161152
211	0x3d78c1a3	0.06073154
212	0xbe38dd05	-0.18053062
213	0x3e4dffbe	0.20117089
214	0x3e73874c	0.2378208
215	0x3e4b09a9	0.19827904
216	0x3e4fb05e	0.20282122
217	0xbddfa754	-0.10920587
218	0xbd097677	-0.033560243
219	0x3e6ffe2e	0.23436806
220	0xbe83bdaa	-0.2573064
221	0x3e397bce	0.18113634
222	0xbe3a0c20	-0.18168688
223	0xbe23a486	-0.1598073
224	0x3dc070c3	0.093965076
225	0xbe277c0c	-0.16355914
226	0xbd79bddd	-0.060972083
227	0x3e05da0e	0.13071463
228	0x3e176837	0.14785849
229	0x3e419027	0.18902646
230	0xbd840d00	-0.06447792
231	0xbe3ef707	-0.18648921
232	0x3e42c27e	0.19019505
233	0xbd845858	-0.06462163
234	0xbdf21d2e	-0.11821972
235	0x3d375b44	0.044764772
236	0xbdfaef76	-0.12252705
237	0x3df1ad38	0.11800617
238	0x3e05762f	0.13033365
239	0xbe3547ab	-0.1770312
240	0xbe38f3ea	-0.18061796
241	0xbca7be91	-0.020476611
242	0x3e0a3dc7	0.13500129
243	0xbbeac4f3	-0.0071645915
244	0xbde22853	-0.110428475
245	0x3d3dbdc2	0.046323545
246	0xbe557c0c	-0.20848101
247	0xbe154e41	-0.14580633
248	0xbe141628	-0.14461577
249	0x3e302999	0.17203368
250	0x3e43bffc	0.19116205
251	0xbda62d0c	-0.08114061
252	0x3d6490de	0.05580222
253	0x3de1c748	0.11024338
254	0x3d4b28ad	0.04959934
255	0xbdd0d887	-0.10197549

hidden1.bias f4 [150]
0	0xbe081e15	-0.13292725
1	0x3e00cdb7	0.12578474
2	0x3c998ff1	0.018745394
3	0x3e3026fc	0.17202371
4	0x3e0d03e2	0.13771012
5	0xbe30c570	-0.17262816
6	0xbc1525ae	-0.009103222
7	0xbce0dd56	-0.027449291
8	0x3ad8d361	0.0016542488
9	0x3e093673	0.13399677
10	0xbe4835fd	-0.19551845
11	0x3d8f8296	0.07007329
12	0x3db6590c	0.08903703
13	0xbd66e5f8	-0.05637166
14	0x3d8ed321	0.069738634
15	0x3e3121ef	0.17298101
16	0xbe417ffc	-0.18896478
17	0x3e2994df	0.16560696
18	0xbe28f8fe	-0.16501233
19	0xbc99003e	-0.018676873
20	0x3ce83205	0.028344164
21	0xbb093906	-0.002093853
22	0xbe45b7f6	-0.19308457
23	0xbddeb7db	-0.108749114
24	0x3d8084d4	0.06275335
25	0xbd12b50d	-0.035817195
26	0xbd1aca8d	-0.037790824
27	0x3e226acd	0.15861054
28	0xbdf3333d	-0.11875007
29	0x3d3c3001	0.045944218
30	0xbe30edea	-0.17278257
31	0xbcdd39fc	-0.027005188
32	0x3e358e8a	0.17730156
33	0x3d994a93	0.07484927
34	0x3cfcdce3	0.030867046
35	0xbde623c8	-0.112372935
36	0xbe0c30df	-0.13690518
37	0x3e01462b	0.12624423
38	0xbce5cf56	-0.028052967
39	0xbd53dc5f	-0.051723834
40	0xbe22bf23	-0.15893225
41	0xbdcf9b7e	-0.1013708
42	0x3d4f3503	0.050587665
43	0xbcfcb9fc	-0.030850403
44	0x3d3c0bf8	0.04590985
45	0xbd731a1c	-0.05935107
46	0x3e14aff2	0.14520243
47	0x3daa2087	0.08306985
48	0x3e62bf85	0.22143371
49	0x3d2dacbd	0.042401064
50	0xbe2092c5	-0.15680988
51	0xbccb920f	-0.02484992
52	0x3e6b40fa	0.22974005
53	0xbda90e66	-0.082546994
54	0xbd0abe56	-0.033872925
55	0x3aba10aa	0.001419564
56	0xbdeaeaf1	-0.11470593
57	0x3e2b3163	0.16718058
58	0xbc967235	-0.018365005
59	0xbe1d30c6	-0.15350637
60	0xbd9a3249	-0.075291224
61	0xbded156d	-0.11576352
62	0xbe39396b	-0.1808831
63	0x3df82a66	0.12117462
64	0x3e434424	0.19068962
65	0xbe25019d	-0.16113897
66	0xbd503148	-0.05082825
67	0x3e029911	0.12753703
68	0xbd697fc0	-0.057006598
69	0x3e8c5b8c	0.27413595
70	0xbd43ce4f	-0.047804173
71	0xbdd4d40a	-0.10392006
72	0xbe3cedd1	-0.18450095
73	0xbd9bcb89	-0.076071806
74	0x3e439a35	0.19101794
75	0xbd0bfec2	-0.034178503
76	0xbe528c6f	-0.20561384
77	0x3e33d95a	0.17563382
78	0xbdd30812	-0.10304274
79	0x3d62495a	0.055245735
80	0x3e757408	0.23970044
81	0x3dc222f2	0.094793215
82	0x3e5018f1	0.20322014
83	0xbe11c7e8	-0.14236414
84	0xbdff09b9	-0.12453026
85	0xbe882fe2	-0.26599032
86	0x3e1b599e	0.15170905
87	0x3cd0dca8	0.025495842
88	0x3d506fc2	0.05088783
89	0xbe38cfc0	-0.18048
90	0x3bf68ac5	0.007523867
91	0x3df9b0a1	0.121918924
92	0xbd097b39	-0.03356478
93	0x3e3151cc	0.1731636
94	0xbe426bc0	-0.18986416
95	0x3c9fd5bc	0.019511096
96	0x3bce9d65	0.006305384
97	0xbe725f09	-0.23669066
98	0xbde945f4	-0.113902956
99	0x3c30dead	0.010795278
100	0xbe18ce5d	-0.14922471
101	0x3e5f3dc2	0.21800902
102	0xbe3747ba	-0.17898455
103	0xbd6ac484	-0.05731632
104	0xbc2512f5	-0.0100753205
105	0xbe41d565	-0.1892906
106	0xbdf21516	-0.11820428
107	0xbc1a2550	-0.00940831
108	0xbd0ef138	-0.034898013
109	0x3e08d58f	0.13362716
110	0x3dfa7ecf	0.12231218
111	0x3e00d770	0.12582183
112	0x3e39d1c9	0.18146433
113	0x3d4c883a	0.049934603
114	0xbdfd00e1	-0.12353683
115	0x3e1bcbe7	0.15214501
116	0xbdb820b6	-0.08990614
117	0x3db59bc5	0.08867601
118	0x3dd18b6b	0.1023167
119	0x3d1441d3	0.036195587
120	0x3e3c07a7	0.18362294
121	0x3e12bf83	0.14330868
122	0xbdeb6869	-0.11494524
123	0xbdb1ff51	-0.08691276
124	0x3e1fe5f7	0.15615068
125	0xbd09b600	-0.033620834
126	0x3d27907a	0.040909268
127	0xbe373110	-0.1788981
128	0xbd9c0099	-0.076173015
129	0x3d569dbf	0.052396532
130	0x3e7221f6	0.23645768
131	0xbe0f7952	-0.14011124
132	0x3da7dec1	0.08196784
133	0x3dd41454	0.1035544
134	0xbd833996	-0.06407468
135	0x3e1bc32f	0.15211175
136	0x3e496640	0.19667912
137	0x3e7c0bce	0.24613878
138	0xbe00985d	-0.12558122
139	0x3cfc6157	0.030808134
140	0x3ccd569d	0.025065714
141	0x3db537de	0.088485464
142	0xbd5963f5	-0.053073842
143	0x3cb13d8b	0.021635791
144	0x3e20643e	0.1566324
145	0x3e23968e	0.15975401
146	0xbd189d72	-0.037259527
147	0x3dce360f	0.100689046
148	0xbe3f99e9	-0.18711056
149	0xbd07a76b	-0.033118647

hidden2.weight f4 [150, 150]
0	0x3d86c7cd	0.06581078
1	0xbd1b6015	-0.037933428
2	0x3b4719a3	0.003038027
3	0x3d9e0805	0.07716373
4	0x3c22fc5d	0.009947863
5	0xba029e7a	-0.00049827213
6	0x3ca243db	0.019807747
7	0xbd6e1288	-0.05812314
8	0xbda4dae1	-0.0804956
9	0x3d1e1fb5	0.038604457
10	0xbc0f7805	-0.008756642
11	0x3d17be32	0.03704662
12	0xbb88c250	-0.0041735545
13	0x3d723c8f	0.059139784
14	0xbd6c4ece	-0.05769234
15	0xbd2b6ba9	-0.04185072
16	0xbd93fc69	-0.07225878
17	0xbd8a08f9	-0.06739993
18	0x3d815a62	0.06316067
19	0xbc8f0c5d	-0.01746195
20	0xbd28547a	-0.041096188
21	0xbcd4dba8	-0.025983647
22	0xbbdebc0a	-0.0067973183
23	0xbccb1e23	-0.024794644
24	0xbd9f0000	-0.07763672
25	0x3d64295f	0.055703517
26	0xbb967f0c	-0.004592782
27	0xbd70c63d	-0.058782805
28	0x3cbf4d87	0.023352398
29	0xbcd178f7	-0.025570376
30	0xbcb49f92	-0.022048745
31	0xbd84dde7	-0.06487637
32	0xbda3763d	-0.079815365
33	0x3cc8161e	0.024424609
34	0xbd953ce8	-0.072870076
35	0x3d58f197	0.052964773
36	0xbd97953f	-0.07401513
37	0xbc2b56cf	-0.0104577085
38	0xbd81ca9c	-0.06337473
39	0xbd68ee74	-0.05686803
40	0xbd8afea2	-0.067868486
41	0xbd3d0b97	-0.04615363
42	0x3ba9374f	0.005164064
43	0x3c1bde11	0.009513394
44	0xbd18efdc	-0.037338123
45	0x3d4853be	0.048907988
46	0xbcfd32e9	-0.030908065
47	0xbbef5902	-0.0073043117
48	0x3d2f8ee7	0.04286089
49	0x3d99a2e4	0.07501772
50	0x3d8e01fe	0.06933974
51	0xbd9d3188	-0.07675463
52	0xbd6a6a4e	-0.057230286
53	0x3c6456d4	0.013936717
54	0xba6da81a	-0.00090658816
55	0x3d7f441d	0.062320817
56	0x3d373c84	0.044735447
57	0xbd73d2a0	-0.05952704
58	0x3d9a7705	0.075422324
59	0x3cc76d3f	0.024344085
60	0x3d2b0feb	0.041763227
61	0xbc763f80	-0.015029788
62	0x3d74479c	0.059638605
63	0xbd63c420	-0.05560696
64	0x3d1397ca	0.03603343
65	0x3da5ae42	0.08089878
66	0x3cc29b95	0.023755828
67	0xbce910db	-0.02845042
68	0x3b3072e1	0.0026923942
69	0x3d72c246	0.059267305
70	0xbd422902	-0.04740239
71	0xbd26f2dd	-0.040758956
72	0x3c559a0b	0.013037215
73	0xbd113e22	-0.035459645
74	0xbcb66c91	-0.022268565
75	0xbcf00635	-0.029299835
76	0x3d36fad4	0.044672802
77	0xbd8fec64	-0.0702751
78	0xbd8f7004	-0.07003787
79	0x3d82511c	0.06363127
80	0xbc3b22cc	-0.01142187
81	0xbd92e71f	-0.07172989
82	0x3d1fdcff	0.039029118
83	0xbd555a63	-0.052088153
84	0xbb956036	-0.0045585884
85	0x3d4b17e9	0.04958335
86	0xbd3c6afd	-0.04600047
87	0xbd809415	-0.062782444
88	0x3c3b39d2	0.01142736
89	0xbd242427	-0.04007354
90	0xbc9c64a5	-0.01909096
91	0x3d73afea	0.059493937
92	0x3c8c8d6f	0.017157285
93	0x3cbf5e25	0.023360321
94	0xbd96fed3	-0.073728226
95	0xbd4ec2a1	-0.05047858
96	0xbd6787fd	-0.056526173
97	0x3da31173	0.079623125
98	0xbcfb59d5	-0.030682484
99	0x3da119b3	0.0786623
100	0x3da4b07e	0.08041476
101	0xbd4c9088	-0.049942523
102	0x3d0e8e6e	0.0348038
103	0xbd046880	-0.03232622
104	0x3da0ca39	0.07851071
105	0x3d715293	0.05891664
106	0x3cbcbb89	0.023038642
107	0x3d2e17db	0.04250322
108	0xbc378737	-0.011201671
109	0xbc2c3fc2	-0.010513248
110	0xbc343568	-0.010999061
111	0xbd199a65	-0.037500758
112	0xbd8c8808	-0.068618834
113	0xbc308226	-0.010773217
114	0xbccaa8ee	-0.024738755
115	0x3d889b2a	0.0667022
116	0x3d98bfb4	0.074584395
117	0xbd9521d7	-0.07281845
118	0xbd84a428	-0.06476623
119	0xbd2468c2	-0.040138967
120	0xbda34ea0	-0.07973981
121	0xbbc30613	-0.005951652
122	0x3cafa4c1	0.021440865
123	0xbc0e1b9e	-0.008673577
124	0x3ca22309	0.019792097
125	0xbc61f107	-0.013790376
126	0xbda1e001	-0.079040535
127	0xbd3d1595	-0.04616316
128	0xbda21e3e	-0.079159245
129	0xbd3dfb97	-0.046382513
130	0xbd42f5cb	-0.047597688
131	0x3d745d08	0.059659034
132	0xbce85b79	-0.02836393
133	0xbc87bbf9	-0.016569125
134	0xbd819298	-0.06326789
135	0xbcdc6039	-0.026901351
136	0x3c33cd04	0.0109741725
137	0x3c92cc42	0.017919663
138	0x3d979a4a	0.07402475
139	0x3d0a7250	0.033800423
140	0xbbe4269e	-0.0069626113
141	0x3d76f682	0.060293682
142	0xbd3d84fc	-0.046269402
143	0xbc00ef34	-0.0078695305
144	0x3c866a06	0.016407978
145	0x3cbda60d	0.023150468
146	0xbcdf7924	-0.027279444
147	0x3c162694	0.009164471
148	0x3d077ff8	0.033081025
149	0xbba108ab	-0.0049143634
150	0xbcf7a306	-0.030229103
151	0xbda4dbc0	-0.080497265
152	0xbd0baed2	-0.03410227
153	0xbdacc34c	-0.084356874
154	0xbd276914	-0.040871695
155	0xbd8f42d2	-0.06995167
156	0xbd2e3381	-0.042529587
157	0x3d839b60	0.0642612
158	0xbd0ca71a	-0.034339048
159	0x3d4b91b9	0.04969952
160	0xbb81b487	-0.003958288
161	0xbd3a762c	-0.045522854
162	0x3d96538a	0.073401526
163	0x3d7f00fd	0.062256802
164	0x3c6ef348	0.01458437
165	0x3d52151a	0.051289655
166	0xbd2342b3	-0.03985853
167	0xbda5a23b	-0.08087584
168	0x3d06f7b6	0.03295108
169	0x3d1da43a	0.038486697
170	0x3d83cd77	0.06435674
171	0xbd4777e7	-0.048698332
172	0xbcd9144c	-0.026498936
173	0x3d25a463	0.040439975
174	0x3ca572f5	0.020196417
175	0x3d8a7dde	0.067622885
176	0x3adba7cc	0.0016758381
177	0x3c12677e	0.008935807
178	0x3cd1767d	0.025569195
179	0x3d2d5445	0.042316694
180	0x3c694bc9	0.01423926
181	0xbab5b170	-0.0013862085
182	0x3d929b88	0.071585715
183	0xbd296aa4	-0.041361466
184	0x3bd4bb57	0.006492059
185	0xbdb29cf6	-0.08721344
186	0xbd172da5	-0.036908764
187	0x3d5ce44a	0.05392865
188	0x3d64727e	0.05577325
189	0x3b753127	0.003741333
190	0xbd130724	-0.03589548
191	0xbd89fc94	-0.067376286
192	0x3d780a59	0.060556743
193	0xbd7a2ce3	-0.061077964
194	0x3dc75c01	0.09734345
195	0xbd4d03df	-0.05005252
196	0x3de8ada5	0.11361245
197	0x38dd52d8	0.00010553532
198	0xbd934f42	-0.071928516
199	0x3d9878e6	0.074449345
200	0x3d76c2b4	0.060244277
201	0xbd3b585e	-0.04573857
202	0xbb13d1dd	-0.0022555508
203	0xbcbb429e	-0.022858914
204	0xbba8e01d	-0.0051536695
205	0x3d4eee91	0.050520483
206	0xba72c387	-0.0009260703
207	0x3d0bbad0	0.034113705
208	0x3d93a96c	0.07210049
209	0x3cb505fa	0.022097576
210	0x3d30b326	0.0431396
211	0x3d9e0420	0.077156305
212	0xbca76c22	-0.020437304
213	0x3c232f5f	0.009960025
214	0xbd6789bc	-0.056527838
215	0x3cdd5b01	0.027020933
216	0xbce2a315	-0.027665654
217	0x3ce1069c	0.027468972
218	0xbd7258a1	-0.059166554
219	0xbda0e60a	-0.078563765
220	0x3cdf1e85	0.027236233
221	0x3d623238	0.055223674
222	0x3d059aaa	0.032618202
223	0xbd903486	-0.07041268
224	0x3d2aa9fe	0.041666023
225	0xbcd58ae6	-0.026067208
226	0xbd2f7e1c	-0.042844877
227	0xbcce9111	-0.025215657
228	0xbd3f4f85	-0.046706695
229	0x3dd48e63	0.103787206
230	0xbcf1f104	-0.02953387
231	0x3d5d42c2	0.054018743
232	0xbd07333b	-0.03300784
233	0xbda0d355	-0.078528084
234	0xbd58bea6	-0.05291619
235	0x3cc073c9	0.02349271
236	0x3d0db70a	0.034598388
237	0x3d834ab3	0.06410732
238	0x3ca0b46a	0.019617278
239	0xbd00ce4e	-0.031446747
240	0xbbb2fc1d	-0.005462183
241	0x3c78921a	0.015171552
242	0xbc4d89a6	-0.012545025
243	0x3d7b992a	0.061425366
244	0x3d8b92c7	0.06815105
245	0x3df2d46e	0.11856924
246	0x3d55be9c	0.052183732
247	0xbda58828	-0.0808261
248	0xbcef89b6	-0.02924047
249	0x3d432913	0.047646593
250	0x3d8e601e	0.06951927
251	0xbb0e045e	-0.0021670084
252	0x3cbec0c6	0.02328528
253	0x3c21dcba	0.0098792855
254	0x3c4403d9	0.011963808
255	0xbd05b177	-0.032639947

hidden2.bias f4 [150]
0	0x3d7da235	0.06192227
1	0x3bef2a41	0.007298738
2	0x3cb212c5	0.021737466
3	0xbd4ad7eb	-0.04952232
4	0x3ba26827	0.0049562636
5	0xbd405dec	-0.04696457
6	0x3cbdab11	0.02315286
7	0x3d9aa778	0.075514734
8	0x3d7b1077	0.061295
9	0xbd14cce9	-0.03632823
10	0x3d3a2995	0.045449812
11	0xbd47cea8	-0.048781067
12	0xbdb159c8	-0.086597025
13	0x3d38a0af	0.045075115
14	0x3d3dba91	0.0463205
15	0x3db000e4	0.0859392
16	0xbb50c567	-0.0031855942
17	0x3d4dbee9	0.050230894
18	0xbd80101d	-0.06253073
19	0x3be65d24	0.007030146
20	0xbdb56315	-0.08856789
21	0xbdf0d541	-0.11759425
22	0xbc242a4a	-0.010019848
23	0x3bbf3454	0.0058350954
24	0x3c442547	0.011971778
25	0x3c43a5e4	0.011941407
26	0x3c40e89d	0.011774209
27	0x3d137658	0.036001533
28	0x3d53d0b9	0.051712725
29	0x3daf40dc	0.08557293
30	0x3c93ec3c	0.018056981
31	0x3c19d8de	0.009390084
32	0xbcdd2262	-0.026993934
33	0xbd16d310	-0.03682238
34	0xbc53d259	-0.012928569
35	0xbde04939	-0.10951466
36	0x3d0cb122	0.034348615
37	0xbc93c50c	-0.018038295
38	0xbd4ced27	-0.050030854
39	0x3db08214	0.086185604
40	0xbd5e87e2	-0.054328807
41	0x3cff1fb6	0.03114305
42	0x3cfce6be	0.030871745
43	0xbbbd86a1	-0.0057838713
44	0xbd9b25b3	-0.0757555
45	0x3b74e2e0	0.0037366673
46	0x3be068c5	0.006848427
47	0xbd7247cf	-0.059150513
48	0xbd9224f3	-0.07135954
49	0xbbfb3a51	-0.007666864
50	0x3e25a1aa	0.16174951
51	0x3d173fbd	0.03692602
52	0xbb398b9a	-0.0028311969
53	0xbc29baa8	-0.010359444
54	0x3d5649e7	0.052316573
55	0xbde76dc9	-0.11300237
56	0xbdd4bf38	-0.103880346
57	0x3d56e155	0.052460987
58	0xbd2d8e87	-0.042372253
59	0x3cca7ca3	0.024717635
60	0xbd0ab8de	-0.03386771
61	0x3d8b4002	0.06799318
62	0xbce7455d	-0.028231317
63	0x3da3fd68	0.08007318
64	0x3d43c897	0.04779872
65	0x3cd826ce	0.026385691
66	0x3c702d6b	0.014659266
67	0x3d477851	0.048698727
68	0xbd36faf6	-0.04467293
69	0x3d9ec117	0.07751673
70	0x3d20be2f	0.039243873
71	0xbdeb633e	-0.11493538
72	0xbd6201a5	-0.05517735
73	0xbd58fcc0	-0.052975416
74	0xbd92499f	-0.07142948
75	0xbd0db55a	-0.03459678
76	0x3d690800	0.056892395
77	0x3d904c6a	0.07045825
78	0x3c03d03e	0.008045254
79	0x3d8fde94	0.07024875
80	0x3d8096b4	0.06278744
81	0x3db47e96	0.08813207
82	0x3d8651c5	0.06558565
83	0x3d0b45d0	0.034002125
84	0xbd906eb2	-0.070523635
85	0x3d9eed07	0.07760053
86	0x3c3aece6	0.01140902
87	0x3d33954d	0.043843556
88	0x3da9a0d6	0.0828263
89	0x3be4f78f	0.006987519
90	0xbdabd06d	-0.083893634
91	0xbd406ef1	-0.046980802
92	0x3b9d3c2e	0.0047984337
93	0x3d0b12d3	0.0339535
94	0xbd3a18e2	-0.045433886
95	0x3be3cb7e	0.0069517484
96	0x3ba7a538	0.005116131
97	0x3a8fa96a	0.0010960524
98	0xbd4b3b51	-0.049617115
99	0x39750693	0.0002336747
100	0x3b106975	0.0022035514
101	0x3d634c66	0.05549278
102	0x3d13130c	0.035906836
103	0xbd81bb78	-0.06334585
104	0xbdfc5f02	-0.12322809
105	0xbceead27	-0.0291353
106	0xbbd08250	-0.0063631907
107	0xbc17c627	-0.009263552
108	0x3ca7728e	0.020440366
109	0x3b5c6199	0.0033627509
110	0xbc1adcab	-0.009452025
111	0xbd251a7b	-0.040308457
112	0x3db5a32f	0.088690154
113	0x3cdf4725	0.027255604
114	0x3d80d8cf	0.06291353
115	0x3d1b3212	0.037889548
116	0x3dac73e2	0.084205404
117	0xbd2e3fa9	-0.04254118
118	0x3d9518a6	0.07280092
119	0x3dae44b6	0.08509199
120	0x3cabc273	0.020966744
121	0x3d33fa97	0.043940153
122	0xbd81907b	-0.063263856
123	0x3da7c745	0.081923045
124	0x3e27f257	0.16401039
125	0xbac64814	-0.0015127682
126	0xbde55cb5	-0.11199323
127	0xbcc162a0	-0.023606598
128	0x3ce8b4c5	0.02840651
129	0xbda36b97	-0.079795055
130	0xbc45420e	-0.012039674
131	0x3cf092de	0.029366907
132	0x3d95cebb	0.07314821
133	0xbd596a29	-0.053079758
134	0xbd20cb0e	-0.039256148
135	0xbd619ac8	-0.05507925
136	0xbd95959d	-0.07303927
137	0x3ca87177	0.020561917
138	0xbd2e5359	-0.042559955
139	0xbca36cf6	-0.019949418
140	0xbdce705f	-0.10080027
141	0x3c1be0bc	0.00951403
142	0x3b1f3096	0.0024290434
143	0x3d95c799	0.07313461
144	0x3d2e4850	0.04254943
145	0x3ca151a7	0.019692255
146	0x3d29e496	0.041477762
147	0xbdb412ff	-0.08792686
148	0xbd4bbcdd	-0.04974066
149	0xbd692373	-0.056918573

hidden3.weight f4 [50, 150]
0	0x3c7b4f47	0.015338725
1	0x3d371939	0.04470179
2	0x3d79ce72	0.060987897
3	0xbc658091	-0.014007703
4	0xbdad3234	-0.08456841
5	0x3b3ab72e	0.0028490531
6	0xbd9ffd25	-0.07811955
7	0xbd610e3c	-0.054945216
8	0x3d5a175e	0.05324494
9	0xbd956d22	-0.07296206
10	0x3d439a77	0.04775473
11	0x3ce6fcd1	0.028196724
12	0x3cf919b5	0.030407766
13	0x3d53e9d5	0.05173667
14	0x3c550e66	0.013003921
15	0x3d0077c9	0.031364236
16	0xbd2eb3c6	-0.042651914
17	0x3d85adf1	0.06527317
18	0x3da3cbed	0.0799788
19	0xbd82b961	-0.063830145
20	0x3d52adbe	0.051435225
21	0xbda5364d	-0.08066998
22	0xbd379e27	-0.04482856
23	0xbd37304c	-0.044723794
24	0xbd99df92	-0.07513346
25	0x3cc9e037	0.024643047
26	0xbdb344d8	-0.08753365
27	0xbd9282f2	-0.07153882
28	0x3bb2891e	0.0054484745
29	0x3da867dd	0.08222935
30	0x3da6d797	0.08146589
31	0x3cb9363e	0.022608873
32	0x3d4fc922	0.050728925
33	0x3d12a035	0.035797317
34	0x3d40695c	0.04697548
35	0x3b927d97	0.004470538
36	0xbd19229e	-0.03738653
37	0xbc601c33	-0.013678598
38	0xbcebf414	-0.028802909
39	0x3d6d32d4	0.0579098
40	0xbcb3a9dd	-0.021931583
41	0x3d4e7c37	0.05041143
42	0x3d84f6f2	0.064924136
43	0xbd83b0c0	-0.06430197
44	0x3d1f9cdd	0.038967956
45	0x3c99955b	0.018747976
46	0xbd8d660a	-0.06904228
47	0xbd30dcbd	-0.043179262
48	0xbcb60e32	-0.022223566
49	0x3d73f250	0.05955726
50	0x3b0f00f9	0.0021820648
51	0xbd6ec64d	-0.058294583
52	0x3af1119a	0.0018392086
53	0x3d7190cb	0.058975976
54	0xbcd7afbf	-0.02632892
55	0xbd5f024f	-0.05444556
56	0xbcf7cc4b	-0.030248782
57	0x3d299052	0.0413974
58	0x3c9cf247	0.019158496
59	0x3d05be45	0.03265216
60	0x3c2ff610	0.010739818
61	0x3d9a965a	0.075482085
62	0x3d3debfe	0.046367638
63	0x3cf63aca	0.03005733
64	0x3d2f5849	0.042808805
65	0x3b007994	0.0019603716
66	0xbc59da18	-0.0132966265
67	0xbd5bfd66	-0.053708456
68	0x3d6c46d5	0.05768474
69	0x3c601040	0.013675749
70	0x3d6f7ebe	0.05847048
71	0x3c9b65fc	0.018969528
72	0xbc97a112	-0.018509421
73	0x3ca55e0f	0.020186452
74	0xbd5735c6	-0.052541517
75	0xbd65faa8	-0.056147248
76	0xbd93d90e	-0.07219134
77	0x3d9259bf	0.07146024
78	0xbd72f5ed	-0.059316564
79	0xbda3eb4b	-0.08003863
80	0x3d09db3a	0.033656336
81	0xbc98b105	-0.018639097
82	0x3d45d07c	0.04829453
83	0xbd8e9874	-0.06962672
84	0xbd81f465	-0.06345443
85	0x3d8d5085	0.069001235
86	0xbd1eb3ef	-0.038745817
87	0xbd567348	-0.052356035
88	0x3b9aa1c9	0.0047189933
89	0xbd69893c	-0.057015643
90	0xbd81a4ac	-0.06330237
91	0x3d94d09e	0.07266353
92	0x3d622857	0.055214252
93	0x3d895a53	0.06706681
94	0x3d56fdb2	0.052488036
95	0xbd821354	-0.06351343
96	0xbd1a4e89	-0.037672553
97	0xbd9b85e4	-0.07593897
98	0x3d627940	0.055291414
99	0xbd9c6a57	-0.0763747
100	0x3d1b777a	0.03795574
101	0x3cddcddb	0.027075699
102	0xbceae287	-0.02867247
103	0x3c988208	0.018616691
104	0x3d0a8d0c	0.03382592
105	0x3c833a9e	0.016019162
106	0x3d38be01	0.045103077
107	0xbbe8ebf7	-0.0071082073
108	0x3d274178	0.04083392
109	0xbd903e1d	-0.07043097
110	0xbadeb74e	-0.0016991885
111	0xbd6773c8	-0.056506902
112	0xbda051e3	-0.07828119
113	0x3b870bc4	0.0041212756
114	0xbda24d94	-0.07924953
115	0xbc95acf6	-0.01827095
116	0xbd3a4030	-0.04547137
117	0xbd96f0f9	-0.07370181
118	0xbcbafa4f	-0.022824435
119	0x3d81da32	0.063404456
120	0xbd8fb597	-0.070170574
121	0xbd8a258c	-0.06745443
122	0xbcf4a684	-0.029864557
123	0xbd23085e	-0.0398029
124	0xbda4c810	-0.080459714
125	0x3d699c7b	0.057033997
126	0xbd1df8df	-0.03856742
127	0x3d1983c6	0.037479185
128	0xbd83f2c7	-0.064427905
129	0x3d55721d	0.05211078
130	0xbcd46b2f	-0.025930015
131	0xbd6883c3	-0.056766283
132	0xbc62a41d	-0.013833073
133	0x3d3e12c1	0.046404604
134	0xbce7eebe	-0.028312083
135	0x3d02b82f	0.031913932
136	0xbc904b72	-0.0176141
137	0xbd85dcdc	-0.06536266
138	0xbd87bb5e	-0.06627534
139	0xbbab6362	-0.005230353
140	0x3d9377dc	0.07200596
141	0x3d4d6612	0.05014617
142	0xbd93a808	-0.07209784
143	0x3c22c83b	0.009935434
144	0x3d087bb0	0.033321083
145	0x3d447654	0.04796441
146	0xbd6dc415	-0.058048327
147	0xbd090318	-0.033450216
148	0xbae50da4	-0.0017475379
149	0x3d5b2864	0.053505316
150	0xbd2174e3	-0.039418112
151	0x3d78b45b	0.060718875
152	0xbd72aff2	-0.059249826
153	0xbd93d02e	-0.072174415
154	0x3c55d482	0.013051154
155	0xbd635bcc	-0.055507466
156	0xbd7f6afc	-0.062357888
157	0x3ba7fd4e	0.005126632
158	0x3d21c977	0.039498772
159	0xbcc6cb3c	-0.024266832
160	0xbc41dd91	-0.011832611
161	0xbceb0bf7	-0.028692229
162	0xbd9a6b28	-0.0753997
163	0x3d6aaf7c	0.05729626
164	0x3d98e642	0.07465793
165	0x3d98d02f	0.07461583
166	0x3cd95f18	0.026534602
167	0x3d1f83a3	0.038943898
168	0xbd912ffc	-0.070892304
169	0xbd5eadee	-0.05436509
170	0xbd8f71ef	-0.07004153
171	0x3d3ed287	0.046587493
172	0x3caa5cb6	0.020796161
173	0x3d6c73b3	0.057727527
174	0xbcc2c248	-0.023774281
175	0x3c80014d	0.01562562
176	0xbd31488a	-0.04328207
177	0xbd07c39e	-0.03314554
178	0x3c804664	0.015658565
179	0x3d283796	0.041068636
180	0x3d3fd80f	0.04683691
181	0x3d8eb822	0.06968714
182	0x3d0477ce	0.032340817
183	0x3c2ed08c	0.010669839
184	0x3d8fb485	0.07016853
185	0x3d9e0ea9	0.0771764
186	0x3ce42bc6	0.027852904
187	0x3d5e87a4	0.054328576
188	0x3b72edb6	0.0037067956
189	0xbc475c5f	-0.012168019
190	0x3d9c7b20	0.07640672
191	0xbc8e2772	-0.017352793
192	0x3d5a3b12	0.05327899
193	0x3d95aa18	0.073078334
194	0x3d0a463b	0.033758383
195	0x3d258f2c	0.040419742
196	0xbd76704e	-0.060165696
197	0x3d952e88	0.07284266
198	0xbd50a7d3	-0.0509413
199	0x3d4091a1	0.047013883
200	0x3d11997c	0.035546765
201	0x3da8e69c	0.0824711
202	0x3d1179b6	0.035516463
203	0x3da060e9	0.07830984
204	0x3ca2f9b8	0.019894466
205	0xbd6c62a5	-0.057711262
206	0x3d9c48ff	0.076311104
207	0xbb83f20f	-0.0040266584
208	0x3c58ba7f	0.013228058
209	0x3d8e70b0	0.06955087
210	0xbc5f89f1	-0.013643728
211	0xbd75d169	-0.060014162
212	0x3c7d9c04	0.015479092
213	0x3c8ff46b	0.017572602
214	0xbd9982fe	-0.07495688
215	0xbda73ce1	-0.081659086
216	0x3cb5a5bb	0.022173753
217	0x3d7aa386	0.061191104
218	0xbd9365c1	-0.071971424
219	0xbb835d62	-0.004008935
220	0x3d621911	0.055199686
221	0xbd72879b	-0.059211355
222	0xbd40c5ee	-0.04706376
223	0xbd26c573	-0.040715646
224	0xbd14c905	-0.03632452
225	0x3c360801	0.011110307
226	0x3ce94382	0.028474573
227	0x3d6bf59e	0.057607286
228	0xbd7225ed	-0.0591182
229	0xbd3a1332	-0.045428462
230	0xbcccb49f	-0.02498847
231	0x3d21bdf2	0.039487787
232	0xbc069d4e	-0.008216215
233	0xbd2a6255	-0.041597683
234	0xbda78b7b	-0.08180901
235	0xbb719776	-0.003686396
236	0xbba5e7a3	-0.0050630136
237	0xbcf473b0	-0.02984032
238	0xbc92ddb8	-0.01792799
239	0xbc38160a	-0.011235723
240	0xbc653d71	-0.0139917
241	0xbd73bf80	-0.0595088
242	0xbd7a8d0a	-0.06116966
243	0x3d560545	0.05225112
244	0x3bd2261f	0.006413236
245	0xbda14cf6	-0.07876007
246	0x3c3c18f7	0.011480561
247	0xbd47e208	-0.048799545
248	0x3d255906	0.040368102
249	0xbcebb98b	-0.028774997
250	0x3da42088	0.08014017
251	0xbd8a71cc	-0.06759986
252	0x3ca6a129	0.020340519
253	0xbc2734c0	-0.010205448
254	0x3d912916	0.07087915
255	0x3d4ba80b	0.049720805

hidden3.bias f4 [50]
0	0xbdd8f701	-0.10593987
1	0x3cc2c8ba	0.023777355
2	0xbcbe3a05	-0.023221025
3	0xbd52109e	-0.05128538
4	0xbc0006aa	-0.007814089
5	0x3d529b4b	0.05141763
6	0x3cc12681	0.02357793
7	0xbbbf79b9	-0.005843368
8	0xbd9173fa	-0.07102199
9	0x3dc72dfd	0.097255684
10	0x3d9ae8fa	0.07563968
11	0x3b773d10	0.0037725605
12	0xbd82fe21	-0.063961275
13	0x3c796137	0.015220932
14	0x3ba4b062	0.0050259093
15	0x3d9fa5ce	0.077952966
16	0xbd4cf691	-0.05003983
17	0x3db3948f	0.0876857
18	0xbc9ff153	-0.019524252
19	0xbdc4da62	-0.09611966
20	0xbcd8e12d	-0.02647456
21	0x3da9941e	0.08280204
22	0xbd59b76d	-0.053153444
23	0xbd1580ae	-0.03649967
24	0x3c8033b9	0.015649663
25	0x3d8b7cb4	0.068108946
26	0x3c88fb0c	0.016721271
27	0x3c2ff763	0.010740134
28	0x3c1074d6	0.008816918
29	0x3dbceafb	0.092245065
30	0x3cec3b3d	0.02883684
31	0xbd4ddba2	-0.050258286
32	0xbc8cbfe3	-0.017181342
33	0xbd892eec	-0.06698403
34	0x3d1bf151	0.038071934
35	0xbbe78355	-0.0070652165
36	0x3d512e09	0.051069293
37	0x3cca71d2	0.024712477
38	0x3cc76dd6	0.024344366
39	0x3d01710f	0.03160196
40	0xbd3132c8	-0.04326132
41	0xbd09f547	-0.03368118
42	0xbd9b21af	-0.07574784
43	0xbd3bcf21	-0.04585183
44	0xbdba680f	-0.09101879
45	0xbdaaaba0	-0.08333516
46	0x3cb49774	0.022044875
47	0xbd46d5fd	-0.04854392
48	0x3b0dd314	0.0021640705
49	0x3d9834df	0.07431959

output.weight f4 [2, 50]
0	0xbdbc4f0e	-0.09194766
1	0xbc467a30	-0.012114093
2	0xbc74cd6f	-0.014941557
3	0x3d2e0687	0.042486694
4	0xbbfbc179	-0.007682976
5	0x3db9cd82	0.09072401
6	0x3c7f5f6d	0.015586716
7	0xbd188749	-0.037238393
8	0x3dc25b18	0.09490031
9	0xbda80efc	-0.08205983
10	0x3df10124	0.11767796
11	0xbd8176ea	-0.06321509
12	0xbdce24b2	-0.10065593
13	0x3d51c1e8	0.051210314
14	0xbde8cede	-0.11367582
15	0xbdfa7aec	-0.12230477
16	0x3d4941f2	0.049135156
17	0xbc652b71	-0.013987408
18	0x3c8159ea	0.015789945
19	0xbcc87eb3	-0.024474477
20	0xbdb97dc2	-0.090571895
21	0x3c66a4c2	0.014077367
22	0x3df7a444	0.12091878
23	0xbe27dd6c	-0.1639306
24	0x3d377bd3	0.044795822
25	0x3dcbfc35	0.09960214
26	0x3de49896	0.11161916
27	0xbd6997f2	-0.057029672
28	0xbb40e81b	-0.002943522
29	0xbd49493d	-0.04914211
30	0x3dfd0d65	0.123560704
31	0x3de9061e	0.1137812
32	0x3e0685fe	0.13137051
33	0xbbc0c8a3	-0.0058832928
34	0xbcaadda5	-0.020857641
35	0xbdee5622	-0.11637522
36	0x3cd120b2	0.025528286
37	0xba95d744	-0.0011431952
38	0xbc61faee	-0.013792736
39	0xbd9aff72	-0.075682536
40	0xbdf7f0b3	-0.121064566
41	0x3d3723b7	0.044711795
42	0x3d8ca4eb	0.06867393
43	0xbd884fb5	-0.06655828
44	0x3dedf43a	0.11618848
45	0xbcb83777	-0.022487385
46	0x3c272e5b	0.010203923
47	0x3d368c45	0.044567365
48	0xbd9a93d9	-0.07547731
49	0xbbcff76f	-0.006346635
50	0xbd670dcb	-0.05640964
51	0xbd4aea82	-0.04954005
52	0xbdfcee35	-0.12350122
53	0x3d308cb0	0.04310292
54	0x3c4c8e3f	0.012485086
55	0xbdd054f0	-0.101724505
56	0x3dde02b6	0.10840361
57	0xbdcbaa1d	-0.09944556
58	0xbc00487d	-0.007829783
59	0xbe007832	-0.12545851
60	0xbdf5c728	-0.12000877
61	0x3d5aac30	0.053386867
62	0x3d037a36	0.03209897
63	0x3dc1144a	0.09427698
64	0x3ce94a35	0.028477767
65	0xbdfb0842	-0.122574344
66	0x3dc41454	0.0957419
67	0xbd0995db	-0.03359018
68	0xbcbf0067	-0.023315622
69	0x3d3fbdc5	0.046811838
70	0x3ccd6367	0.025071813
71	0xbd12ada4	-0.035810128
72	0xbd07c380	-0.033145428
73	0xbc8b50b5	-0.017006258
74	0x3dc07e5c	0.09399101
75	0xbd31e012	-0.04342658
76	0xbdae2230	-0.085026145
77	0xbd9d2414	-0.07672897
78	0x3b396995	0.0028291692
79	0xbdedb01d	-0.116058566
80	0xbde30797	-0.11085432
81	0x3d889124	0.066683084
82	0xbdb10779	-0.086440034
83	0x3d66e56f	0.05637115
84	0x3c3f90ff	0.011692285
85	0x3d0b0974	0.033944562
86	0x3dcf4cc4	0.10122064
87	0x3d027999	0.031854246
88	0x3ca876d4	0.020564474
89	0x3da24566	0.07923393
90	0x3df25cc4	0.118341
91	0x3de28e27	0.1106227
92	0x3db72739	0.08943028
93	0x3cce4c89	0.02518298
94	0x3df01704	0.1172314
95	0x3de2acf3	0.11068144
96	0xbde6672e	-0.11250149
97	0x3dd3b03d	0.10336349
98	0xbde5f4f0	-0.11228359
99	0xbd8751b5	-0.06607381

output.bias f4 [2]
0	0x3e123240	0.14276981
1	0x3db32bb8	0.08748573
