outputs/mlp_lbp_3classes.pt (torch, 140716 bytes, 8 tensors)

hidden1.weight f4 [150, 26]
0.11893199 -0.083493814 -0.012993296 0.14824255 -0.1673561 0.117007285 -0.047115084 0.08726548
0.009777138 -0.045572042 0.027414333 -0.016009605 0.052334227 -0.10451428 -0.03205323 -0.029797535
0.01236774 -0.02631219 0.15936533 0.0475562 -0.08192446 -0.13731784 -0.05620177 -0.08980094
-0.10660679 0.021332527 0.14719994 0.14614667 -0.15768889 0.16007714 0.06560566 0.19003147
0.12583324 -0.18233472 -0.19774799 -0.1079155 0.15130812 -0.04761619 0.07632315 -0.10616491
0.18569218 -0.08498106 0.13982709 -0.013936983 -0.107355736 0.09057265 -0.119344845 0.022323292
-0.09893021 -0.008736836 -0.22935621 -0.08322003 0.09344752 -0.04374357 0.16386572 0.1476655
-0.005465815 -0.11930012 0.13493647 0.08093604 -0.12121216 0.14103876 0.12713629 0.20669554
-0.08534342 -0.018645056 0.011530719 0.039954074 -0.14014794 -0.14476143 0.102139264 -0.047026787
0.100290306 0.003170998 0.06316954 0.06277699 0.08597093 0.07996574 -0.19569579 0.045579515
-0.18540207 -0.17094117 -0.013503343 -0.05748284 0.096126154 -0.13572402 -0.18847968 0.13060655
-0.036210034 0.09819395 0.041774046 -0.15892713 0.020126173 0.026544975 -0.14703123 -0.09634064
0.052014727 0.03165519 -0.07642599 -0.024105761 0.22424623 -0.04050341 0.13293192 0.092402786
-0.115484536 -0.16732283 0.23020123 0.06799149 0.1619868 0.046206597 0.061778884 0.13262784
0.16212252 -0.15999082 -0.012235878 0.11319551 0.11365165 0.08313948 -0.17023113 -0.16801535
-0.1501862 -0.023678873 0.16390851 -0.15930511 0.07140265 -0.14386596 -0.19983555 0.001460851
0.065787435 0.20423333 -0.116532035 0.05861321 0.19313428 0.19093607 0.13624421 0.13615802
0.11959857 0.04163658 -0.14761704 -0.18498424 -0.11732064 -0.04610918 -0.13669308 0.048674174
0.042904902 -0.06055849 0.051715657 0.025380155 0.091720656 0.099363394 -0.1023652 0.13596338
-0.085177444 -0.018547164 -0.2483233 -0.10371714 -0.101446845 -0.10749584 0.11184867 -0.062109027
-0.16460152 0.048210178 0.02769129 0.086968124 -0.13772057 0.00880402 -0.10196913 -0.07912774
-0.19693398 -0.117807075 -0.09632523 0.04623354 0.0046389643 0.025560318 0.17182639 0.18487921
0.1430644 0.046604663 -0.08302234 0.17311507 -0.0018186285 0.0033906272 -0.19643474 -0.08149685
-0.18375441 0.14212467 -0.20814243 -0.18940601 -0.039650783 -0.14233863 0.041098826 -0.10034233
-0.11310879 -0.013180802 0.108863026 -0.16111092 0.059785433 0.09019829 0.1607292 -0.1581162
0.016837977 -0.16150546 0.16660714 -0.043375004 0.16035 0.005471884 0.0075172726 0.016955892
0.076132946 0.10698039 0.04447045 0.048082724 -0.21859615 0.09958922 0.10656255 0.094557695
0.08909011 -0.19184233 -0.11138141 0.12803078 -0.18948475 0.15482879 -0.18816292 -0.17086639
0.065695114 -0.157153 -0.060971178 0.12973683 0.15577312 0.21700484 -0.0059168264 -0.16127585
0.20092571 -0.007630128 -0.04785357 0.07664935 -0.1375867 0.16255385 0.14889137 -0.13696912
-0.15004168 -0.009811467 0.086963296 0.002396054 -0.09625092 0.008770616 -0.1775728 -0.13235907
-0.120074235 0.1813986 0.18655358 -0.06033212 0.019426078 0.09474068 0.030315118 -0.09904203
00000000: 9d92 f33d cefe aabd d5e1 54bc e5cc 173e
00000010: 665f 2bbe 84a1 ef3d bffb 40bd 3eb8 b23d
00000020: 4a30 203c c0a9 3abd 0694 e03c 9326 83bc
00000030: 6a5c 563d 950b d6bd 3f4a 03bd f619 f4bc
00000040: 10a2 4a3c a98c d7bc aa30 233e 4aca 423d
00000050: 03c8 a7bd 0c9d 0cbe d433 66bd 8ee9 b7bd
00000060: a954 dabd 8dc1 ae3c 95bb 163e 79a7 153e
00000070: 3279 21be 43eb 233e 435c 863d 9c97 423e
00000080: 6eda 003e f4b5 3abe 737e 4abe cd02 ddbd
00000090: 84f0 1a3e 3209 43bd 504f 9c3d fd6c d9bd
000000a0: 1726 3e3e 8d0a aebd d52e 0f3e f257 64bc
000000b0: 53dd dbbd 277e b93d 126b f4bd 56df b63c
000000c0: ec9b cabd f224 0fbc 5bdc 6abe 436f aabd
000000d0: 6a61 bf3d 752c 33bd 6acc 273e a035 173e
000000e0: 941a b3bb 9f53 f4bd c92c 0a3e cbc1 a53d
000000f0: 153e f8bd 776c 103e 0430 023e ffa7 533e
00000100: 88c8 aebd 84bd 98bc 57eb 3c3c e2a6 233d
00000110: f182 0fbe 573c 14be 642e d13d 299f 40bd
00000120: 0165 cd3d 85d0 4f3b 085f 813d 3991 803d
00000130: 8711 b03d 14c5 a33d 7a64 48be 96b1 3a3d
00000140: 0ada 3dbe 340b 2fbe 203d 5dbc 2073 6bbd
00000150: cadd c43d 3dfb 0abe d100 41be b9bd 053e
00000160: f950 14bd e919 c93d 431b 2b3d cbbd 22be
00000170: a5df a43c d974 d93c 5b8f 16be 3e4e c5bd
00000180: 650d 553d dfa8 013d 3b85 9cbd 7279 c5bc
00000190: cea0 653e e7e6 25bd 4e1f 083e ac3d bd3d
000001a0: 2883 ecbd ad56 2bbe dfb9 6b3e 1f3f 8b3d
000001b0: dedf 253e 2143 3d3d db0b 7d3d 98cf 073e
000001c0: 7203 263e a2d4 23be fe78 48bc 0cd3 e73d
000001d0: 32c2 e83d 0845 aa3d 1251 2ebe 370c 2cbe
000001e0: 69ca 19be 32fa c1bc a2d7 273e e120 23be
000001f0: 8d3b 923d 9951 13be b1a1 4cbe 077a bf3a
00000200: 90bb 863d 8b22 513e 59a8 eebd 6814 703d
00000210: fec4 453e bf84 433e 9a83 0b3e 026d 0b3e
00000220: 18f0 f43d 1e8b 2a3d ec28 17be 826c 3dbe
00000230: ce45 f0bd fbdc 3cbd 45f9 0bbe 925e 473d
00000240: 0dbd 2f3d 2e0c 78bd ccd3 533d 0bea cf3c
00000250: 0ad8 bb3d 097f cb3d d9a4 d1bd fc39 0b3e
00000260: 8371 aebd 39f0 97bc 7748 7ebe a769 d4bd
00000270: 5dc3 cfbd c726 dcbd ea10 e53d 0966 7ebd
00000280: 4d8d 28be 0978 453d d8d8 e23c 581c b23d
00000290: 9f06 0dbe bc3e 103c 31d5 d0bd b90d a2bd
000002a0: 10a9 49be d644 f1bd 2a46 c5bd 615f 3d3d
000002b0: 7402 983b df63 d13c 42f3 2f3e fa50 3d3e
000002c0: 797f 123e 88e4 3e3d 9e07 aabd 1445 313e
000002d0: 0c5f eeba 4935 5e3b 3026 49be d2e7 a6bd
000002e0: 1e2a 3cbe 2189 113e 4a23 55be a6f3 41be
000002f0: dc68 22bd 38c1 11be 3e57 283d 4880 cdbd
00000300: 95a5 e7bd 4af4 57bc 94f3 de3d 43fa 24be
00000310: 92e1 743d e2b9 b83d 3296 243e 37e9 21be
00000320: ccef 893c b061 25be 109b 2a3e fda9 31bd
00000330: ca32 243e 7d4d b33b 7453 f63b 15e7 8a3c
00000340: 97eb 9b3d 8918 db3d a626 363d 64f2 443d
00000350: abd7 5fbe 6ff5 cb3d 773d da3d 77a7 c13d
00000360: e074 b63d 5172 44be f01b e4bd 801a 033e
00000370: 4a08 42be 708b 1e3e c8ad 40be 99f7 2ebe
00000380: 298b 863d b7ec 20be eabc 79bd bbd9 043e
00000390: fd82 1f3e 8436 5e3e f0e1 c1bb 7f25 25be
000003a0: 78bf 4d3e 2706 fabb 1b02 44bd 56fa 9c3d
000003b0: 87e3 0cbe 8474 263e fb76 183e a241 0cbe
000003c0: 87a4 19be 46c0 20bc d019 b23d 1e07 1d3b
000003d0: 341f c5bd a1b2 0f3c a5d5 35be 2389 07be
000003e0: 7be9 f5bd 8ec0 393e e707 3f3e d01e 77bd
000003f0: 7023 9f3c 6707 c23d 6957 f83c 8cd6 cabd

hidden1.bias f4 [150]
0.1793633 0.03520284 -0.027695712 0.14570424 0.08858022 0.007210482 0.02498171 -0.06190798
-0.007270296 0.11674906 0.20594418 0.20074815 -0.13108638 0.010968588 0.11006093 0.15643567
-0.086280584 -0.14710052 0.08414666 -0.11875874 0.18773301 -0.10715248 0.13954763 -0.04792497
-0.15496017 -0.1612898 0.08929849 -0.026324442 -0.100108735 0.22686194 0.14720352 0.13774298
-0.084500894 -0.0109112905 0.052905064 0.011327139 0.13058236 -0.018507859 -0.007577058 -0.013910021
-0.05681213 -0.12131787 -0.004468332 -0.054624043 -0.0649203 -0.07704713 0.12916629 -0.01839387
0.16987368 0.080653 -0.04404536 0.21097293 -0.02201953 -0.14837834 0.14748114 -0.10526541
0.13855585 0.16423051 -0.047854077 -0.050273806 0.10117869 0.1345953 0.15416078 0.061688077
0.050310686 0.1914379 0.06637123 -0.15469077 -0.06128371 0.005361185 0.106452204 -0.149651
-0.18879287 -0.098982766 0.042040717 0.17781644 -0.17559937 0.07917179 0.03430298 0.20069705
-0.11997291 -0.030074192 0.09481213 -0.18778254 0.1485312 -0.048426006 0.057045612 -0.11019252
0.15379512 0.08071159 0.027309082 -0.09501194 -0.101890236 0.020355046 -0.1257434 0.020691678
0.212385 0.068948835 -0.048960283 -0.048146036 0.0726945 -0.13370919 -0.13497122 0.0056320024
0.16031323 -0.09758077 -0.036406144 -0.07304217 0.13453212 -0.04856681 0.004164809 0.13268945
-0.06577967 0.221922 -0.11794058 -0.031408437 0.0092036035 -0.08668252 -0.1922897 -0.14869559
-0.15893766 0.19541043 0.014682149 -0.093484096 0.070613675 0.014836939 -0.07074804 0.13024072
-0.105889216 -0.14107512 0.16233464 0.12504871 0.10520955 0.048176777 -0.040381696 -0.1723301
0.046546016 0.13182682 0.1669091 -0.020459129 -0.035036962 0.022420537 0.16157803 0.0024918648
0.16948813 -0.061464522 0.060541507 -0.11730967 0.02661859 0.17958221
00000000: 03ab 373e da30 103d 1ee2 e2bc 7e33 153e
00000010: 8c69 b53d e845 ec3b 71a6 cc3c 3993 7dbd
00000020: aa3b eebb 221a ef3d 08e3 523e ec90 4d3e
00000030: 823b 06be 98b5 333c a067 e13d ac30 203e
00000040: e0b3 b0bd 85a1 16be 1655 ac3d c837 f3bd
00000050: 153d 403e c272 dbbd 93e5 0e3e f94c 44bd
00000060: e1ad 1ebe 2729 25be 20e2 b63d 5ba6 d7bc
00000070: cf05 cdbd 7f4e 683e 85bc 163e 7f0c 0d3e
00000080: ce0e adbd 45c5 32bc fbb2 583d 7795 393c
00000090: 62b7 053e cb9d 97bc f848 f8bb dbe6 63bc
000000a0: d6b3 68bd 8175 f8bd 166b 92bb 76bd 5fbd
000000b0: eff4 84bd e3ca 9dbd 2b44 043e beae 96bc
000000c0: 5ef3 2d3e 662d a53d e868 34bd 4a09 583e
000000d0: 4d62 b4bc 7ef0 17be 4c05 173e 6495 d7bd
000000e0: 96e1 0d3e 0b2c 283e a302 44bd e8eb 4dbd
000000f0: c636 cf3d 5ad3 093e 53dc 1d3e a3ac 7c3d
00000100: 9412 4e3d 4c08 443e a4ed 873d 4267 1ebe
00000110: a104 7bbd e1ac af3b 9d03 da3d 1d3e 19be
00000120: eb52 41be 7ab7 cabd e332 2c3d 8315 363e
00000130: 52d0 33be d224 a23d 4881 0c3d 8783 4d3e
00000140: 5bb4 f5bd 275e f6bc dd2c c23d 114a 40be
00000150: 9018 183e 595a 46bd a9a8 693d 9eac e1bd
00000160: 787c 1d3e 1e4c a53d 4cb7 df3c 9f95 c2bd
00000170: d4ab d0bd a0bf a63c e1c2 00be 9881 a93c
00000180: 747b 593e 0c35 8d3d 948a 48bd c734 45bd
00000190: dbe0 943d 10eb 08be e535 0abe a98c b83b
000001a0: 2729 243e 6dd8 c7bd 9c1e 15bd 2297 95bd
000001b0: cac2 093e feed 46bd f378 883b bedf 073e
000001c0: 7eb7 86bd 853f 633e d58a f1bd 22a6 00bd
000001d0: b6ca 163c 9b86 b1bd 97e7 44be a843 18be
000001e0: 8ec0 22be ac19 483e 658d 703c 9774 bfbd
000001f0: e79d 903d a216 733c 59e4 90bd d35d 053e
00000200: 72dc d8bd ff75 10be 0d3b 263e c50c 003e
00000210: 1b78 d73d 0355 453d 4767 25bd 4d77 30be
00000220: 09a7 3e3d 9cfd 063e 38ea 2a3e e799 a7bc
00000230: eb82 0fbd 46ab b73c b674 253e 8e4e 233b
00000240: 4c8e 2d3e 39c2 7bbd 5ffa 773d 0d40 f0bd
00000250: 3b0f da3c 66e4 373e

hidden2.weight f4 [150, 150]
-0.07306057 0.07095595 0.049405362 0.08395078 -0.07217833 0.03761614 0.024814328 -0.0377175
0.103431016 -0.07849962 0.08180861 0.02373239 0.02564111 0.010731059 -0.045845263 0.03645683
-0.0568961 -0.028299047 -0.014907815 -0.05541915 -0.020475956 0.060856566 0.052098088 -0.05350072
0.009045989 0.020707922 2.0522886e-05 -0.017624835 -0.0065363734 -0.06224712 0.037571155 0.098812066
-0.08600887 0.06195352 0.020766523 -0.0021633883 0.06766569 0.049106184 0.010086152 -0.042793505
-0.06490617 -0.024376616 -0.018838018 0.049947012 0.026192741 -0.050154112 0.068737894 -0.055464327
-0.0754027 0.08151886 -0.0046025813 0.076485984 -0.008861455 0.057745926 0.00073946465 -0.05880997
0.029423587 0.013004225 -0.034894165 -0.024003997 0.04826487 0.07345274 -0.07866264 -0.05265229
0.103070214 0.07475778 -0.02965869 -0.02289599 0.027697064 0.035181493 -0.04724956 -0.0020316294
0.023532346 0.0145611465 0.102107085 -0.07267615 0.024555555 -0.0081595555 -0.038765527 0.03415535
-0.043322638 0.063145265 -0.0076800697 -0.0037454148 -0.020183397 0.0051792134 0.085068844 0.020090412
-0.0010559609 -0.053083386 0.007869626 -0.046054643 0.033102877 -0.00810274 -0.07643411 -0.04193078
-0.033366103 -0.06713406 -0.05584701 -0.076201655 -0.0030838985 -0.026445435 -0.064618744 -0.0017325237
0.02770303 -0.08190962 0.013465566 -0.02872848 -0.083682604 0.0704047 -0.03591487 -0.023510009
-0.0023542182 0.028118517 0.02906294 0.00024170968 -0.07747946 -0.0658951 0.06898777 -0.067866534
-0.0038192454 0.059410635 0.035420794 0.036929324 -0.025614968 0.03512214 0.0067645907 -0.060587846
-0.00096229947 0.000723106 0.07216801 -0.040644396 0.027838536 0.056687206 0.08324391 0.0029361998
-0.024877068 0.0465968 -0.07424374 0.0010643897 0.01258915 0.0058001424 0.08363671 -0.039040543
-0.05956195 0.059819028 -0.041951664 0.020308092 0.013361553 0.07070216 0.0011027064 -0.02472543
-0.0304698 -0.026272165 -0.057036486 0.02870971 -0.005081301 -0.051692743 -0.022120997 -0.017192228
0.02733768 -0.056164112 0.07911173 -0.0753148 0.07936708 0.0006947505 0.03097099 0.027637243
-0.07002204 -0.07339658 0.012915071 -0.01834182 -0.036564153 -0.035475645 -0.05454634 0.035036292
-0.066224754 -0.04094977 0.04299396 0.03447155 -0.029720327 -0.07810752 0.039472688 0.06713401
-0.039358437 0.07161696 -0.04080042 0.056622602 0.035962403 -0.065189816 0.021062704 -0.04197202
-0.022379506 0.0026214279 -0.058877725 0.031133043 0.05738458 -0.017297212 0.037446894 -0.0718641
0.007942287 -0.042646397 0.0024368633 -0.026885398 -0.04436475 -0.020363543 -0.07511299 -0.036614534
-0.037468474 0.07915609 -0.040847372 -0.0021113881 -0.023346888 -0.06427148 0.023177937 -0.060095567
0.031077154 -0.033129733 0.036069434 0.053669762 0.0627595 0.07681102 -0.017468423 -0.08093403
-0.02657245 -0.07878095 0.013557504 -0.07374821 -0.013296883 0.067258716 -0.002852966 0.0013986893
0.07575403 -0.04047293 -0.07569712 0.043320786 0.05549895 -0.0068443795 -0.06456803 0.017594792
0.025000224 -0.056641806 -0.036914 0.0004618692 0.04836975 -0.00040317682 0.07722483 0.076671086
0.020641258 -0.049901195 -0.03952586 -0.021480326 0.0071634306 -0.050155394 -0.077750936 -0.024363551
00000000: c8a0 95bd 5a51 913d 475d 4a3d 63ee ab3d
00000010: 3bd2 93bd 6213 1a3d 6b47 cb3c aa7d 1abd
00000020: a4d3 d33d 69c4 a0bd 468b a73d 6e6a c23c
00000030: 4e0d d23c 53d1 2f3c 3ec8 3bbd c253 153d
00000040: e30b 69bd 67d3 e7bc e83f 74bc 31ff 62bd
00000050: 31bd a7bc bc44 793d ce64 553d 9223 5bbd
00000060: a135 143c a9a3 a93c 9028 ac37 f561 90bc
00000070: 132f d6bb d6f6 7ebd 36e4 193d fb5d ca3d
00000080: 6b25 b0bd f9c2 7d3d 8e1e aa3c a2c7 0dbb
00000090: 4f94 8a3d 9123 493d 6340 253c 3e48 2fbd
000000a0: 87ed 84bd 78b1 c7bc 3052 9abc 3d95 4c3d
000000b0: 2992 d63c 666e 4dbd 74c6 8c3d 902e 63bd
000000c0: bb6c 9abd 5cf3 a63d 40d1 96bb afa4 9c3d
000000d0: a32f 11bc fe86 6c3d a2d8 413a b9e2 70bd
000000e0: bc09 f13c ac0f 553c 2fed 0ebd 08a4 c4bc
000000f0: 62b1 453d 646e 963d e119 a1bd eda9 57bd
00000100: 7a16 d33d 9b1a 993d c8f6 f2bc 5f90 bbbc
00000110: f4e4 e23c 781a 103d c188 41bd 1625 05bb
00000120: e8c6 c03c e091 6e3c 851d d13d 3cd7 94bd
00000130: bb28 c93c a8af 05bc 9ac8 1ebd 7be6 0b3d
00000140: 1473 31bd 4e52 813d 18a9 fbbb a275 75bb
00000150: a757 a5bc 64b6 a93b 9338 ae3d a694 a43c
00000160: 2b68 8aba f76d 59bd 9bef 003c cba3 3cbd
00000170: e296 073d 5bc1 04bc 7d89 9cbd 9cbf 2bbd
00000180: e5aa 08bd 957d 89bd d6bf 64bd 9d0f 9cbd
00000190: 3b1b 4abb 19a4 d8bc d556 84bd d915 e3ba
000001a0: 77f1 e23c 3bc0 a7bd ad9e 5c3c fd57 ebbc
000001b0: c961 abbd 5730 903d 791b 13bd 1098 c0bc
000001c0: 3a49 1abb ce58 e63c 6715 ee3c 7373 7d39
000001d0: 8dad 9ebd 03f4 86bd 7649 8d3d 9cfd 8abd
000001e0: 4e4c 7abb 9158 733d 6515 113d 3443 173d
000001f0: 7bd6 d1bc 3cdc 0f3d 80a9 dd3b f62a 78bd
00000200: d342 7cba d28e 3d3a d2cc 933d bd7a 26bd
00000210: a40d e43c d830 683d c87b aa3d 426d 403b
00000220: feca cbbc 49dc 3e3d 1a0d 98bd fe82 8b3a
00000230: b942 4e3c 1f0f be3b b949 ab3d fae8 1fbd
00000240: 3bf7 73bd cc04 753d 82d5 2bbd 285d a63c
00000250: 6aea 5a3c 4bcc 903d b088 903a fc8c cabc
00000260: cd9b f9bc b938 d7bc 179f 69bd a030 eb3c
00000270: 0b81 a6bb c5bb 53bd 1837 b5bc b7d6 8cbc
00000280: 45f3 df3c 570c 66bd 5505 a23d a53e 9abd
00000290: 358b a23d eb1f 363a e0b6 fd3c 8067 e23c
000002a0: b767 8fbd f250 96bd bc99 533c 9641 96bc
000002b0: 4bc4 15bd e94e 11bd fc6b 5fbd 3782 0f3d
000002c0: d8a0 87bd f2ba 27bd 6f1a 303d 0a32 0d3d
000002d0: 0b78 f3bc d6f6 9fbd 1dae 213d 8e7d 893d
000002e0: 5036 21bd eaab 923d 571e 27bd 1aed 673d
000002f0: 504d 133d 3d82 85bd b18b ac3c daea 2bbd
00000300: 3a55 b7bc 43cc 2b3b c529 71bd b90a ff3c
00000310: 180c 6b3d e2b2 8dbc ea61 193d 7c2d 93bd
00000320: 5e20 023c fdad 2ebd c8b3 1f3b c43e dcbc
00000330: d0b7 35bd 72d1 a6bc d7d4 99bd 1ff9 15bd
00000340: 8b78 19bd 971c a23d 934f 27bd 375f 0abb
00000350: f941 bfbc c4a0 83bd a8df bd3c c526 76bd
00000360: 8495 fe3c 0bb3 07bd 8bbd 133d d3d4 5b3d
00000370: 0e88 803d 194f 9d3d f019 8fbc bec0 a5bd
00000380: 77ae d9bc e857 a1bd 4b20 5e3c 4d09 97bd
00000390: 2bdb 59bc f0be 893d d4f8 3abb 3a54 b73a
000003a0: ee24 9b3d f1c6 25bd 1707 9bbd 2371 313d
000003b0: de52 633d d146 e0bb 3e3c 84bd f422 903c
000003c0: 45cd cc3c 3d01 68bd 2233 17bd 0927 f239
000003d0: 5c1f 463d 7a61 d3b9 0d28 9e3d bb05 9d3d
000003e0: db17 a93c 3265 4cbd dee5 21bd 82f7 afbc
000003f0: 36bb ea3b be6f 4dbd e23b 9fbd 1296 c7bc

hidden2.bias f4 [150]
-0.0057544042 0.07705546 0.07924567 0.05604264 0.09535588 0.041849162 0.015904658 -0.03121713
0.048659675 0.020293651 0.09991089 -0.0061861 -0.0041314242 0.07782918 0.05475087 -0.040600773
-0.033067156 0.029166333 0.035180625 0.011604688 0.061443936 0.0604507 0.032366958 -0.06988439
0.036638405 -0.0034073994 -0.009420089 0.059128996 -0.046509337 -0.06474336 0.03132507 0.08295215
0.0473678 -0.04154718 0.022524366 0.021001017 0.04518498 0.06262252 -0.020923916 0.08048364
0.0046305135 -0.00797179 0.086661115 -0.05717265 -0.010181523 -0.085990176 0.054906916 -0.057277046
0.09496168 0.0021353415 -0.04811084 -0.040286656 -0.015215761 0.07008096 -0.06645849 -0.021688422
-0.037523884 0.030974803 -0.05901959 -0.014624829 0.052878466 0.09347805 0.017615141 0.08781052
-0.024871718 0.035476804 -0.07433071 0.07201603 0.050553918 0.023523444 -0.015902126 -0.02354053
-0.020198982 -0.035802614 -0.0067519466 -0.021290658 -0.08162891 -0.010377533 -0.0054191914 0.017942775
0.03326808 -0.06866074 -0.040814552 0.06328034 -0.05069323 0.062750116 -0.01356255 0.052317567
0.05520106 -0.029173153 -0.059825964 0.04338315 -0.01504133 -0.010074697 -0.015073761 0.017067129
0.07192185 -0.057178997 0.07225182 -0.009826507 -0.026328286 -0.08009563 -0.002907684 0.048949428
0.07726181 0.029545464 0.026158934 0.06734532 0.059996795 0.09493517 -0.03495278 0.04759362
0.06562566 0.06599364 0.05361656 -0.0063013625 -0.029818175 -0.07702934 0.07548198 0.043426827
0.039375834 -0.059011344 0.031621534 0.06534771 -0.04276264 0.075066246 -0.017804839 -0.03593394
-0.012803947 -0.009443954 -0.06942333 -0.040848218 0.01107861 0.029223068 0.07708356 -0.032334737
-0.055848543 -0.015554026 0.10105277 -0.0757444 0.07844017 0.022552487 0.011847493 0.08076418
0.012897681 0.07283754 0.08341925 -0.045814373 -0.036110617 0.0074472493
00000000: 718f bcbb 41cf 9d3d 8e4b a23d f88c 653d
00000010: f249 c33d 076a 2b3d 7c4a 823c 11bb ffbc
00000020: 5e4f 473d df3e a63c 159e cc3d c5b4 cabb
00000030: e660 87bb e864 9f3d 7342 603d ff4c 26bd
00000040: 6d71 07bd 3cee ee3c 8f19 103d 9721 3e3c
00000050: a3ac 7b3d 279b 773d 3793 043d 8c1f 8fbd
00000060: 2712 163d ad4e 5fbb b856 1abc 3f31 723d
00000070: 9380 3ebd 2b98 84bd b74e 003d d1e2 a93d
00000080: bd04 423d 602d 2abd 0585 b83c 530a ac3c
00000090: e313 393d 3c40 803d a268 abbc 9bd4 a43d
000000a0: 90bb 973b 1c9c 02bc 627b b13d de2d 6abd
000000b0: 67d0 26bc 9e1b b0bd 13e6 603d 569b 6abd
000000c0: 457b c23d 16f1 0b3b df0f 45bd 9f03 25bd
000000d0: 874b 79bc 9b86 8f3d 641b 88bd ebab b1bc
000000e0: a5b2 19bd dfbe fd3c 87be 71bd fb9c 6fbc
000000f0: 1797 583d 6b71 bf3d a14d 903c 00d6 b33d
00000100: c6bf cbbc 2050 113d b33a 98bd 247d 933d
00000110: a011 4f3d 3db4 c03c 2d45 82bc 12d8 c0bc
00000120: 5678 a5bc c3a5 12bd 6f3f ddbb bf69 aebc
00000130: 0f2d a7bd 8706 2abc 7993 b1bb bafc 923c
00000140: 1c44 083d 019e 8cbd 292d 27bd 1f99 813d
00000150: b4a3 4fbd 2283 803d 7535 5ebc f24a 563d
00000160: 821a 623d 89fc eebc 120c 75bd 88b2 313d
00000170: e96f 76bc 5810 25bc f0f7 76bc 5dd0 8b3c
00000180: c34b 933d 8634 6abd c3f8 933d 5cff 20bc
00000190: 6bae d7bc 2d09 a4bd d88e 3ebb 327f 483d
000001a0: 713b 9e3d 5409 f23c 434b d63c 58ec 893d
000001b0: 33bf 753d 5f6d c23d a52a 0fbd 87f1 423d
000001c0: bf66 863d ac27 873d 0a9d 5b3d a97b cebb
000001d0: 3f45 f4bc 8fc1 9dbd 4c96 9a3d 54e0 313d
000001e0: 8e48 213d e1b5 71bd 9585 013d 05d5 853d
000001f0: e127 2fbd 55bc 993d 74db 91bc 782f 13bd
00000200: a5c7 51bc d0ba 1abc d22d 8ebd 7650 27bd
00000210: 0f83 353c 3765 ef3c fcdd 9d3d 6e71 04bd
00000220: 71c1 64bd 50d6 7ebc c1f4 ce3d e11f 9bbd
00000230: 3da5 a03d febf b83c fd1b 423c b167 a53d
00000240: cc50 533c d92b 953d b6d7 aa3d daa7 3bbd
00000250: bae8 13bd 0e08 f43b

hidden3.weight f4 [50, 150]
0.041753512 0.045126263 -0.002695418 0.040661704 0.050313905 -0.04269018 0.08179902 -0.047950357
0.07387836 -0.010696435 0.02862828 -0.036140345 0.024294654 0.0866662 -0.052575935 -0.095332734
0.045252077 0.006378983 0.022353966 -0.00947937 0.06029216 0.091169216 -0.018088061 0.018946655
0.08726759 0.033558927 0.045128655 -0.0604385 0.07770178 0.034303892 -0.071095295 0.05457397
-0.027609345 0.03646772 -0.046148226 -0.09085742 0.079004355 -0.048839107 0.04574723 0.01772369
-0.06023343 0.13048129 0.03882779 0.04130147 0.03746847 -0.01492275 0.037321296 0.013211268
-0.05804465 -0.040436137 -0.033127964 -0.00015136719 0.019349404 -0.014325653 0.041730933 -0.022092082
0.058241062 0.08109978 0.09053091 -0.06609836 -0.027795868 -0.02165371 -0.08716423 -0.05710326
0.040806748 0.076754995 0.07266832 0.018672496 -0.057782814 0.05092885 -0.026868954 -0.063746996
0.051153917 -0.0052484856 -0.08434134 -0.029700983 0.003618309 0.086306855 0.0039844057 0.019329816
-0.013882934 -0.068568416 0.059252232 -0.02059512 0.03018291 -0.053392146 0.060911078 0.04018278
0.0022180947 0.0510377 0.0153570995 0.11364852 -0.04515358 -0.047067273 -0.050234966 0.030258417
-0.036133245 -0.06718612 -0.03228098 -0.07560658 -0.0168453 -0.0061858566 -0.09718376 -0.07052079
-0.08429979 -0.036501527 0.10196662 -0.013673047 0.08682899 -0.037573215 0.016880428 -0.051207203
0.034465864 0.02841459 -0.0022062836 -0.044287104 -0.093615 -0.020040356 -0.0082613975 -0.0542391
-0.09971746 -0.0062528225 -0.09151727 0.014740007 0.06757705 0.06179711 -8.059254e-06 -0.02594067
0.02304103 0.044337872 -0.061103374 -0.025925012 -0.06353455 -0.056450754 0.030686343 -0.07687641
-0.018623352 0.015754199 0.072244406 -0.05490342 -0.033920962 -0.05965481 0.07028255 -0.067771025
-0.04275872 0.05065182 0.017788826 -0.07756697 0.06704171 0.0055083483 -0.005129074 -0.07294988
-0.11928754 0.10782983 -0.08282527 0.03778008 0.061349522 0.004403593 0.10519172 0.052841097
-0.032378945 0.040778153 0.015504329 -0.0021288747 0.07716664 -0.08199077 -0.012916156 0.10689014
-0.024674369 -0.06577899 -0.03553676 0.006586013 0.069018215 0.08020123 0.041355953 -0.0012699275
-0.029823165 -0.022664657 0.08759064 0.03324985 0.05074297 0.029475221 -0.0230835 -0.059287515
-0.060259845 -0.056144387 -0.0934262 -0.098491795 0.08963384 0.07191199 -0.05974727 0.02452121
0.007147717 0.06875883 -0.06573294 -0.06404248 0.094285615 -0.0677414 -0.025022443 0.09906896
-0.014848692 -0.0614146 0.10918567 -0.09161656 -0.022324327 0.10851104 -0.08736323 0.078724936
0.012659014 0.0039080074 -0.050210264 -0.03516015 -0.08806896 -0.07247115 0.010175172 -0.021541998
-0.03790996 -0.057987962 -0.02295326 0.018856779 0.047957204 -0.015336883 -0.025281165 0.0411845
0.067030616 -0.08460094 -0.12188668 0.03414158 -0.028332029 0.080570236 0.11188741 0.055987287
0.03139908 0.11198249 -0.087389976 0.047946613 -0.04183677 -0.08535971 0.028900778 0.13339882
-0.025008768 0.11108308 -0.10988581 0.0069577894 -0.0205329 0.04365143 0.013560762 -0.040231593
0.047920834 -0.0626713 0.08123269 0.05903079 -0.10630542 -0.103950486 0.029632498 -0.06130504
00000000: bb05 2b3d 51d6 383d 9ca5 30bb e38c 263d
00000010: f415 4e3d e6db 2ebd 3f86 a73d 9867 44bd
00000020: 8a4d 973d 1a40 2fbc db85 ea3c e607 14bd
00000030: 9505 c73c 0c7e b13d dd59 57bd cf3d c3bd
00000040: 3e5a 393d ca06 d13b aa1f b73c 5c4f 1bbc
00000050: e9f4 763d edb6 ba3d 6a2d 94bc 0436 9b3c
00000060: 5ab9 b23d 1675 093d d3d8 383d 5c8e 77bd
00000070: 1c22 9f3d 3d82 0c3d 699a 91bd f588 5f3d
00000080: fe2c e2bc 2d5f 153d ec05 3dbd 7413 babd
00000090: 09cd a13d 840b 48bd 7361 3b3d 4631 913c
000000a0: 54b7 76bd e39c 053e e409 1f3d bb2b 293d
000000b0: 8a78 193d 8d7e 74bc 37de 183d 1374 583c
000000c0: 3ac0 6dbd 5da0 25bd 30b1 07bd 52b8 1eb9
000000d0: a482 9e3c 25b6 6abc 0eee 2a3d 74fa b4bc
000000e0: 2e8e 6e3d a417 a63d 4568 b93d 945e 87bd
000000f0: 29b4 e3bc 1f63 b1bc 2983 b2bd 1ce5 69bd
00000100: fa24 273d b931 9d3d 21d3 943d 10f7 983c
00000110: acad 6cbd c59a 503d 481c dcbc c98d 82bd
00000120: c586 513d 7dfb abbb 27bb acbd 7a4f f3bc
00000130: 2721 6d3b a6c1 b03d 9e8f 823b 9059 9e3c
00000140: 3f75 63bc 996d 8cbd 78b2 723d 19b7 a8bc
00000150: 2642 f73c b9b1 5abd e57d 793d b396 243d
00000160: 745d 113b e80c 513d 589c 7b3c 8ec0 e83d
00000170: f6f2 38bd 9dc9 40bd 2ec3 4dbd 80e0 f73c
00000180: 7400 14bd e098 89bd 1039 04bd 9fd7 9abd
00000190: 28ff 89bc bab2 cabb 4708 c7bd 346d 90bd
000001a0: 5ea5 acbd a082 15bd e0d3 d03d ea04 60bc
000001b0: 66d3 b13d 5fe6 19bd d348 8a3c a5be 51bd
000001c0: 142c 0d3d b7c5 e83c 4c97 10bb 6566 35bd
000001d0: 39b9 bfbd ac2b a4bc d05a 07bc d229 5ebd
000001e0: ab38 ccbd 7ae4 ccbb 686d bbbd 1280 713c
000001f0: d665 8a3d f71e 7d3d 3b36 07b7 8781 d4bc
00000200: 8bc0 bc3c a19b 353d 8847 7abd b160 d4bc
00000210: 671e 82bd e838 67bd ed61 fb3c 6171 9dbd
00000220: 0090 98bc f30e 813c e0f4 933d 69e2 60bd
00000230: b5f0 0abd 9a58 74bd 4cf0 8f3d 89cb 8abd
00000240: c523 2fbd 4878 4f3d dfb9 913c 6edb 9ebd
00000250: 2a4d 893d 607f b43b cb11 a8bb bf66 95bd
00000260: 074d f4bd e3d5 dc3d 4ca0 a9bd 49bf 1a3d
00000270: a349 7b3d 044c 903b c26e d73d e86f 583d
00000280: c99f 04bd fe06 273d df05 7e3c 9784 0bbb
00000290: 8b09 9e3d c7ea a7bd 499e 53bc 38e9 da3d
000002a0: e721 cabc 23b7 86bd fe8e 11bd 7bcf d73b
000002b0: 6c59 8d3d 8b40 a43d dc64 293d b273 a6ba
000002c0: b64f f4bc 3bab b9bc b962 b33d ff30 083d
000002d0: dcd7 4f3d 0576 f13c 9c19 bdbc 77d7 72bd
000002e0: 07d3 76bd a8f7 65bd 3c56 bfbd 11b6 c9bd
000002f0: f291 b73d 9846 933d 8eb9 74bd b4e0 c83c
00000300: 6537 ea3b 6ed1 8c3d fe9e 86bd b428 83bd
00000310: d118 c13d 01bc 8abd defb ccbc abe4 ca3d
00000320: ee47 73bc e08d 7bbd bd9c df3d 77a1 bbbd
00000330: 82e1 b6bc 093b de3d 7eeb b2bd 8a3a a13d
00000340: c167 4f3c be0e 803b 47a9 4dbd 1704 10bd
00000350: 805d b4bd c16b 94bd c4b5 263c d878 b0bc
00000360: 7947 1bbd c984 6dbd 7a08 bcbc 8879 9a3c
00000370: c66e 443d 8d47 7bbc 721a cfbc 14b1 283d
00000380: 5947 893d 4243 adbd b99f f9bd 0bd8 0b3d
00000390: 9218 e8bc 0202 a53d 3a25 e53d ed52 653d
000003a0: 529c 003d 1357 e53d 84f9 b2bd ab63 443d
000003b0: 085d 2bbd 12d1 aebd 53c1 ec3c b399 083e
000003c0: 30df ccbc 877f e33d d00b e1bd 2bfe e33b
000003d0: 9d34 a8bc d8cb 323d f52d 5e3c e2c9 24bd
000003e0: a348 443d cf59 80bd 535d a63d 45ca 713d
000003f0: a8b6 d9bd fee3 d4bd dabf f23c fe1a 7bbd

hidden3.bias f4 [50]
0.030053377 0.013424373 0.065174386 -0.022960873 0.039871242 0.07649724 -0.053055678 0.051418032
-0.0018537433 -0.020421304 -0.007048088 -0.03508305 -0.040637877 0.07544785 -0.050912593 0.041401472
-0.033063397 0.043175526 -0.058545277 -0.06030137 0.0840569 -0.012137298 0.034611937 0.0554209
0.030746749 0.023876298 0.027588334 0.030128915 -0.07538008 -0.063039884 0.050656643 0.049723428
-0.009150463 -0.0457952 0.09063417 -0.012874044 -0.03401565 -0.0011690598 -0.035249323 -0.0033556665
-0.06574841 -0.04000912 0.0073089944 0.01185918 0.0345368 0.08421376 -0.03277184 0.036645513
-0.03635724 -0.0070006847
00000000: 8032 f63c e7f1 5b3c 267a 853d 7118 bcbc
00000010: 0750 233d 96aa 9c3d e950 59bd b79b 523d
00000020: 4ef9 f2ba 944a a7bc a6f3 e6bb 3fb3 0fbd
00000030: e773 26bd 6784 9a3d b989 50bd 9794 293d
00000040: 7c6d 07bd d2d8 303d 2ccd 6fbd 92fe 76bd
00000050: 0626 ac3d 84db 46bc 3fc5 0d3d 0701 633d
00000060: 9be0 fb3c 3a98 c33c ee00 e23c ead0 f63c
00000070: df60 9abd 0e1b 81bd 577d 4f3d cbaa 4b3d
00000080: d3eb 15bc bf93 3bbd 689e b93d a7ed 52bc
00000090: ff53 0bbd 233b 99ba 9861 10bd beea 5bbb
000000a0: 1aa7 86bd 9ae0 23bd 4a80 ef3b 024d 423c
000000b0: 7676 0d3d 4478 ac3d c43b 06bd 9b19 163d
000000c0: 54eb 14bd 0066 e5bb

output.weight f4 [3, 50]
-0.04227668 -0.2012878 0.05552504 -0.13548031 -0.2055685 0.06690124 0.03832074 0.0094133625
-0.09498566 0.1354451 0.11039726 -0.11105356 0.09609765 -0.16180624 0.12111034 -0.21277532
0.09751249 0.11350251 -0.10700841 -0.031503983 0.13202342 -0.13526268 0.19651546 0.026115969
-0.068262585 0.12044747 -0.032717075 0.19132398 -0.034704484 -0.19097091 -0.11664964 0.034966107
-0.0034990478 -0.12090096 -0.06900358 0.12216594 0.02102736 -0.15233548 0.108465806 0.009408027
0.1320298 -0.1707898 -0.0827227 -0.16386187 -0.11321846 0.07241183 -0.10950401 0.100130126
0.13274276 -0.13922225 -0.113354996 -0.12374536 -0.13046843 0.04347808 -0.05022909 -0.07062041
-0.025168072 -0.100811586 0.13327323 0.08461244 -0.015376901 0.03259683 0.08765292 0.14317733
-0.020683635 -0.07515864 0.09647295 -0.08079916 0.09036511 -0.115306504 -0.065342516 0.029801397
-0.13671355 0.1002311 0.006672358 0.03340117 0.109203614 0.07288118 -0.11092146 -0.051411673
0.059513085 -0.059075095 0.14262815 0.12671797 -0.0075897984 -0.15088518 -0.15209763 -0.08454448
-0.15092948 0.13480277 -0.09479352 -0.0726394 0.13672276 -0.13118106 0.1238632 -0.036271103
-0.010455464 0.06937546 0.085261546 -0.05653014 0.17087604 0.07088319 0.12969202 0.12662783
-0.03819648 -0.057785958 -0.1348455 -0.10787878 0.073472835 -0.07673134 -0.1723892 0.016665775
-0.07504132 -0.09433114 0.03908237 0.013865971 0.041811354 -0.12144164 -0.017293988 0.094478354
-0.13923548 0.03857081 0.070165664 0.018295128 0.070839204 -0.1905272 0.1110213 -0.1832763
0.119789496 0.07002096 -0.13686942 0.0024261407 0.1767142 -0.09917088 0.05237299 0.06777756
-0.07391251 0.13781069 0.035608407 -0.03870189 0.09241197 -0.0104893 0.16726588 0.005053902
0.08647079 -0.17680365 0.076032676 -0.027657064 -0.18287833 -0.057410914
00000000: 502a 2dbd 641e 4ebe 396e 633d 5abb 0abe
00000010: 8d80 52be 8403 893d 35f6 1c3d 813a 1a3c
00000020: d787 c2bd 1fb2 0a3e f517 e23d 0d70 e3bd
00000030: d8ce c43d 89b0 25be b308 f83d c6e1 59be
00000040: a1b4 c73d 0174 e83d 3a27 dbbd 520a 01bd
00000050: 2631 073e 4d82 0abe 593b 493e 28f1 d53c
00000060: 41cd 8bbd 2aad f63d 5702 06bd 6fea 433e
00000070: 4a26 0ebd e18d 43be 02e6 eebd 9f38 0f3d
00000080: 4850 65bb ec9a f7bd c051 8dbd 2332 fa3d
00000090: 9241 ac3c d5fd 1bbe 5223 de3d 2024 1a3c
000000a0: d232 073e 85e3 2ebe 856a a9bd 68cb 27be
000000b0: 14df e7bd a74c 943d a343 e0bd 0611 cd3d
000000c0: b8ed 073e 4790 0ebe aa26 e8bd 356e fdbd
000000d0: 8499 05be 1216 323d 05bd 4dbd 6fa1 90bd
000000e0: 462d cebc 4e76 cebd c778 083e 4949 ad3d
000000f0: 66ef 7bbc 4184 053d 6083 b33d 149d 123e
00000100: ba70 a9bc c6ec 99bd 9c93 c53d 087a a5bd
00000110: 5811 b93d d125 ecbd 4cd2 85bd 0f22 f43c
00000120: a3fe 0bbe f745 cd3d cca3 da3b aacf 083d
00000130: 25a6 df3d ba42 953d ca2a e3bd 0c95 52bd
00000140: fec3 733d baf8 71bd 1d0d 123e 5bc2 013e
00000150: d8b3 f8bb a581 1abe 7bbf 1bbe a825 adbd
00000160: 428d 1abe bd09 0a3e 1b23 c2bd f7c3 94bd
00000170: 0d01 0c3e 5454 06be fdab fd3d 0291 14bd
00000180: 654d 2bbc b914 8e3d 9b9d ae3d 268c 67bd
00000190: 21fa 2e3e 352b 913d fccd 043e baaa 013e
000001a0: ea73 1cbd f8b0 6cbd f014 0abe 8def dcbd
000001b0: ed78 963d 5225 9dbd cb86 30be aa86 883c
000001c0: 43af 99bd af30 c1bd d614 203d 192e 633c
000001d0: 6242 2b3d 65b6 f8bd 1fac 8dbc de7d c13d
000001e0: bf93 0ebe 6dfc 1d3d 04b3 8f3d aadf 953c
000001f0: 2514 913d 9019 43be 235f e33d c8ac 3bbe
00000200: 3254 f53d 2667 8f3d 7f27 0cbe e3ff 1e3b
00000210: 91f4 343e 1a1a cbbd 0f85 563d f6ce 8a3d
00000220: 715f 97bd 3f1e 0d3e 1fda 113d df85 1ebd
00000230: 7d42 bd3d 50db 2bbc bf47 2b3e 349b a53b
00000240: 9917 b13d 040c 35be 05b7 9b3d 1191 e2bc
00000250: 7544 3bbe b527 6bbd

output.bias f4 [3]
0.09405538 -0.119638965 0.02433397
00000000: 1ba0 c03d 4605 f5bd 0958 c73c
