outputs/mlp_lbp_2classes.pt (torch, 140524 bytes, 8 tensors)

hidden1.weight f4 [150, 26]
0.09097473 -0.08967461 -0.0542348 0.1170135 -0.18655734 0.10815274 -0.045702767 0.08198447
0.00923456 -0.044570457 0.02612694 -0.022186207 0.04813394 -0.10967416 -0.036304533 -0.027011005
0.0135285435 -0.009267512 0.17273094 0.0571196 -0.06295427 -0.109681204 -0.022001142 -0.10110642
-0.09217785 0.021265307 0.14490475 0.11877594 -0.16287546 0.17029913 0.074808694 0.19180821
0.12994716 -0.1808156 -0.19647926 -0.10535124 0.15314098 -0.046797514 0.07610569 -0.103985004
0.18460685 -0.083029054 0.1439225 -0.0037320487 -0.09950366 0.09664491 -0.11679477 0.028523605
-0.08982943 -0.013520845 -0.22071743 -0.08872344 0.11830819 -0.033154983 0.20822255 0.1715707
0.007023422 -0.11876547 0.12837376 0.046542715 -0.15231563 0.11399907 0.10237341 0.17497325
-0.09646107 -0.031043233 -0.003026656 0.036601517 -0.1561006 -0.14701732 0.09422322 -0.048333813
0.091327034 -0.018517042 0.07222409 0.05374518 0.07901708 0.096393324 -0.20649058 0.05502339
-0.17388996 -0.16632909 -0.008414412 -0.04637472 0.10797115 -0.12610371 -0.17707197 0.14150259
-0.025848567 0.10873387 0.05239389 -0.1560412 0.029813996 0.030538198 -0.13946378 -0.09622154
0.05612767 0.038939763 -0.06647318 -0.022330834 0.22834998 -0.04451345 0.1328138 0.08586069
-0.15485889 -0.18204142 0.17141898 0.012895826 0.13526976 0.05804015 0.07503137 0.14200331
0.15686841 -0.14911456 0.008445433 0.15695915 0.15714826 0.112975076 -0.1356427 -0.14215542
-0.110695265 -0.006043241 0.20324062 -0.11466921 0.095430285 -0.13165879 -0.17302473 -0.0067761503
0.1085395 0.17703871 -0.13824867 0.042515263 0.19581339 0.17532244 0.12250693 0.12116195
0.10858754 0.031473745 -0.16516794 -0.19381022 -0.12787694 -0.057578173 -0.14510272 0.041459467
0.034272715 -0.061739948 0.04787081 0.03267001 0.09858045 0.10478891 -0.09451939 0.14601462
-0.068930596 -0.029193778 -0.23689154 -0.09991188 -0.13271487 -0.10350389 0.08607064 -0.07557803
-0.18020509 0.0530688 0.05394665 0.11478298 -0.118962586 0.026071854 -0.09041444 -0.05667755
-0.16256455 -0.10617009 -0.067752585 0.07715699 0.03091265 0.05713711 0.21165556 0.23103814
0.17367768 0.027458537 -0.13813178 0.13208455 -0.07666153 -0.015966091 -0.190666 -0.06502763
-0.16128021 0.14600906 -0.2052354 -0.18109508 -0.029837806 -0.13346052 0.050239865 -0.09256795
-0.10518361 -0.004923808 0.117669016 -0.15907916 0.06672372 0.09357513 0.16461982 -0.16138345
0.016335899 -0.16352066 0.16011436 -0.057993237 0.15291356 0.0028789167 -0.007714035 0.01388979
0.033787563 0.067655854 0.01644183 0.08197061 -0.19195683 0.10005594 0.12907279 0.11571562
0.12039005 -0.17688091 -0.099503644 0.12947273 -0.20318493 0.13604769 -0.20335877 -0.18496238
0.046581175 -0.16579638 -0.08066343 0.1140901 0.16392466 0.23010379 0.028744107 -0.17397755
0.19424102 -0.011411336 -0.07507106 0.022146925 -0.15541564 0.109419905 0.11626513 -0.15839614
-0.16136901 -0.017858423 0.08829239 0.0013796677 -0.0896462 0.010847757 -0.18341726 -0.13499424
-0.12866963 0.15841725 0.1738673 -0.06451138 0.008866009 0.093303874 0.035876226 -0.07014716
00000000: f650 ba3d 52a7 b7bd 4f25 5ebd c6a4 ef3d
00000010: e308 3fbe 2f7f dd3d d332 3bbd 79e7 a73d
00000020: 8d4c 173c 838f 36bd 2a08 d63c d9bf b5bc
00000030: 1828 453d d99c e0bd 10b4 14bd 2f46 ddbc
00000040: d3a6 5d3c c3d6 17bc 61e0 303e 3ef6 693d
00000050: 2bee 80bd 8aa0 e0bd bd3b b4bc e210 cfbd
00000060: bec7 bcbd 9534 ae3c e961 143e cd40 f33d
00000070: d3c8 26be e562 2e3e 4d35 993d 5f69 443e
00000080: de10 053e ba27 39be dc31 49be 64c2 d7bd
00000090: fdd0 1c3e c0ae 3fbd 4ddd 9b3d 17f6 d4bd
000000a0: 9409 3d3e 230b aabd 6b60 133e 6395 74bb
000000b0: 93c8 cbbd c4ed c53d 1932 efbd 56aa e93c
000000c0: 7ef8 b7bd 8986 5dbc c003 62be a3b4 b5bd
000000d0: 904b f23d 85cd 07bd 4b38 553e 3bb0 2f3e
000000e0: bc24 e63b 503b f3bd 6974 033e 93a3 3e3d
000000f0: a1f8 1bbe 5878 e93d 26a9 d13d 302c 333e
00000100: 628d c5bd 614e febc dd5a 46bb 79eb 153d
00000110: d6d8 1fbe b58b 16be 1bf8 c03d adf9 45bd
00000120: ab09 bb3d 0db1 97bc 39ea 933d e823 5c3d
00000130: b5d3 a13d dd69 c53d 4472 53be 3560 613d
00000140: 3610 32be 2c52 2abe 9adc 09bc 6bf3 3dbd
00000150: fa1f dd3d 5521 01be 5b52 35be 0ee6 103e
00000160: 60c0 d3bc ddaf de3d fa9a 563d 44c9 1fbe
00000170: 7b3c f43c 3e2b fa3c 98cf 0ebe cc0f c5bd
00000180: 21e6 653d 4d7f 1f3d 1723 88bd 27ef b6bc
00000190: 94d4 693e bc53 36bd 5700 083e bbd7 af3d
000001a0: 5493 1ebe 1169 3abe 7588 2f3e 0449 533c
000001b0: 2884 0a3e 82bb 6d3d 0caa 993d 5169 113e
000001c0: 1da2 203e 7db1 18be b75e 0a3c e6b9 203e
000001d0: 79eb 203e 7a5f e73d ece5 0abe 3191 11be
000001e0: 33b4 e2bd 6106 c6bb 4f1e 503e b1d7 eabd
000001f0: f470 c33d 90d1 06be 652d 31be 780a debb
00000200: f549 de3d a349 353e 0f91 0dbe 7c24 2e3d
00000210: 4e83 483e ba87 333e eae4 fa3d c223 f83d
00000220: 2563 de3d 9dea 003d c921 29be 3076 46be
00000230: 2cf2 02be 17d7 6bbd cf95 14be 67d1 293d
00000240: 8c61 0c3d 07e3 7cbd 2f14 443d fdd0 053d
00000250: 8ce4 c93d 919b d63d 6293 c1bd db84 153e
00000260: 7c2b 8dbd ca27 efbc b293 72be 9a9e ccbd
00000270: 68e6 07be d9f9 d3bd ce45 b03d a7c8 9abd
00000280: af87 38be ac5e 593d 2af7 5c3d 5713 eb3d
00000290: a8a2 f3bd a494 d53c 352b b9bd b826 68bd
000002a0: 5277 26be b46f d9bd dec1 8abd 7c04 9e3d
000002b0: 873c fd3c 9a08 6a3d 3cbc 583e 4395 6c3e
000002c0: 90d8 313e baf0 e03c 6b72 0dbe 2c41 073e
000002d0: b800 9dbd 52cb 82bc f33d 43be 352d 85bd
000002e0: a426 25be 6683 153e 3b29 52be fd70 39be
000002f0: 6a6e f4bc e0a9 08be 51c8 4d3d 4494 bdbd
00000300: 816a d7bd e557 a1bb 74fc f03d a6e5 22be
00000310: 72a6 883d 51a4 bf3d 1992 283e b441 25be
00000320: ddd2 853c f671 27be 05f5 233e 518a 6dbd
00000330: 5f95 1c3e 35ac 3c3b 04c6 fcbb 0092 633c
00000340: d464 0a3d 278f 8a3d 04b1 863c 35e0 a73d
00000350: 5590 44be 21ea cc3d a82b 043e 50fc ec3d
00000360: 0f8f f63d 4520 35be 91c8 cbbd 8094 043e
00000370: b60f 50be 1650 0b3e 483d 50be c766 3dbe
00000380: e7cb 3e3d 87c6 29be de32 a5bd 12a8 e93d
00000390: dedb 273e 54a0 6b3e c378 eb3c 2c27 32be
000003a0: 1ee7 463e 9df6 3abc dbbe 99bd 786d b53c
000003b0: 4725 1fbe 8b17 e03d 6a1c ee3d 9932 22be
000003c0: eb3d 25be d44b 92bc a4d2 b43d f7d5 b43a
000003d0: 6d98 b7bd caba 313c bcd1 3bbe ee3b 0abe
000003e0: f9c1 03be 2238 223e 450a 323e 8b1e 84bd
000003f0: bd42 113c 1a16 bf3d f3f2 123d 50a9 8fbd

hidden1.bias f4 [150]
0.1831249 0.041949004 -0.025091842 0.13726993 0.07129457 0.017794825 0.047245506 -0.06963436
0.013481398 0.12584336 0.20130377 0.19890022 -0.1308057 0.0070027565 0.10524076 0.15422538
-0.08064422 -0.13876021 0.08165012 -0.113217354 0.17248775 -0.0892047 0.13189928 -0.057343904
-0.1359938 -0.1683046 0.081059605 -0.065954134 -0.12675335 0.20877863 0.14183332 0.12997411
-0.086852886 -0.023606598 0.050925303 -0.014294817 0.1281031 -0.015438192 -0.026747506 -0.02043788
-0.054554354 -0.12594919 -0.020696972 -0.036732703 -0.08576981 -0.100037605 0.09994926 -0.019706529
0.1519795 0.08085398 -0.04820081 0.21144558 -0.046456672 -0.14779204 0.15959361 -0.11584349
0.12868342 0.15957686 -0.067806005 -0.05457253 0.0872321 0.10433701 0.15894528 0.06774089
0.03452212 0.18392073 0.063411005 -0.15713553 -0.023563081 0.021978946 0.081926666 -0.15277974
-0.19681245 -0.10166791 0.04806097 0.15554659 -0.12682615 0.089292906 0.02224205 0.19258328
-0.11800009 -0.042820036 0.093037255 -0.19129619 0.13361543 -0.053027138 0.04228773 -0.10510915
0.16833286 0.076321006 0.049397793 -0.09501194 -0.11264417 0.02120642 -0.12242566 0.011994874
0.20433082 0.062824 -0.029541789 -0.05012154 0.09274555 -0.13619672 -0.14941081 -0.008145449
0.13474539 -0.08314463 -0.030802721 -0.070864 0.14163165 -0.045408487 -0.03352453 0.1006055
-0.06383441 0.2280334 -0.11197877 -0.031438857 0.00998624 -0.09498958 -0.1922897 -0.14869559
-0.1463039 0.19001395 0.02389203 -0.0900162 0.08418182 0.04008424 -0.070451565 0.13947326
-0.10120912 -0.1438697 0.1457049 0.13814563 0.10141603 0.06046667 -0.049695928 -0.18184353
0.025748188 0.13725406 0.15453841 -0.018190334 -0.058551736 0.0068866443 0.13148282 0.0012828286
0.18929023 -0.061251104 0.059993487 -0.10816007 0.01370874 0.17499869
00000000: 1885 3b3e b8d2 2b3d 688d cdbc 7d90 0c3e
00000010: e302 923d 74c6 913c 8184 413d 769c 8ebd
00000020: 15e1 5c3c 15dd 003e 9322 4e3e 80ac 4b3e
00000030: eef1 05be 6177 e53b 7888 d73d 42ed 1d3e
00000040: cc28 a5bd 2817 0ebe 2e38 a73d 80de e7bd
00000050: a1a0 303e f4b0 b6bd 9b10 073e 71e1 6abd
00000060: f541 0bbe 0b58 2cbe 9402 a63d f612 87bd
00000070: a1cb 01be 11ca 553e c13c 113e ef17 053e
00000080: eddf b1bd a062 c1bc 0d97 503d cf34 6abc
00000090: 762d 033e 78f0 7cbc 961d dbbc 576d a7bc
000000a0: 6374 5fbd d3f8 00be b28c a9bc 0875 16bd
000000b0: 15a8 afbd 84e0 ccbd 33b2 cc3d 966f a1bc
000000c0: 84a0 1b3e c596 a53d 366e 45bd 3185 583e
000000d0: 5a49 3ebd cc56 17be 826c 233e 5a3f edbd
000000e0: 96c5 033e 1e68 233e e0dd 8abd 7287 5fbd
000000f0: bea6 b23d a4ae d53d 8dc2 223e bcbb 8a3d
00000100: 1167 0d3d b755 3c3e a1dd 813d 23e8 20be
00000110: 5d07 c1bc 310d b43c 2bc9 a73d 4b72 1cbe
00000120: 3489 49be 4437 d0bd 94db 443d 9b47 1f3e
00000130: b7de 01be 33df b63d f634 b63c 8d34 453e
00000140: 08aa f1bd 1064 2fbd 518a be3d 26e3 43be
00000150: 7cd2 083e fc32 59bd e635 2d3d 7743 d7bd
00000160: 735f 2c3e 304e 9c3d 5755 4a3d 9f95 c2bd
00000170: fdb1 e6bd 16b9 ad3c 4eba fabd 2686 443c
00000180: 193c 513e dfa9 803d 9f01 f2bc 3e4c 4dbd
00000190: 61f1 bd3d 2777 0bbe 26ff 18be 7d74 05bc
000001a0: b2fa 093e bb47 aabd fd55 fcbc 2521 91bd
000001b0: e307 113e 40fe 39bd 0451 09bd 420a ce3d
000001c0: 9dbb 82bd 9681 693e 2055 e5bd 08c6 00bd
000001d0: 549d 233c e689 c2bd 97e7 44be a843 18be
000001e0: b1d0 15be 0493 423e 38b9 c33c 6a5a b8bd
000001f0: 8567 ac3d 5f2f 243d e948 90bd 14d2 0e3e
00000200: ba46 cfbd 9452 13be aa33 153e 0c76 0d3e
00000210: 35b3 cf3d e6ab 773d f58d 4bbd 3135 3abe
00000220: dded d23c 548c 0c3e 513f 1e3e e503 95bc
00000230: f2d3 6fbd 5ca9 e13b 6fa3 063e 9624 a83a
00000240: 4cd5 413e 70e2 7abd bbbb 753d 0783 ddbd
00000250: 9f9a 603c db32 333e

hidden2.weight f4 [150, 150]
-0.07077072 0.044373892 0.03582995 0.08792511 -0.058176707 0.027926086 -0.034640357 -0.032577433
0.11676577 -0.08463374 0.08279845 0.025336288 0.008720847 -0.0033834008 -0.047338348 0.047127698
-0.04948836 -0.069289334 -0.01695432 -0.053856276 -0.0349781 0.057896137 0.058899414 -0.04613126
0.023184782 0.025443323 0.010069049 0.019274682 -0.008197324 -0.06556586 0.04380036 0.096053846
-0.07579538 0.08392978 0.028518992 0.004986644 0.07502249 0.04606279 0.010807948 -0.044052653
-0.10502689 -0.022895036 -0.015883572 -0.052760046 0.01029485 -0.055310443 0.07064185 -0.04229808
-0.09066492 0.07224881 -0.0005877421 0.07949444 -0.031679086 0.055484947 0.0065796934 0.009922173
0.029792557 0.018613087 -0.04375065 -0.03698105 0.050557695 0.07426394 -0.075989835 -0.07661627
0.081235535 0.08086184 -0.040809844 -0.037589103 -0.012087946 0.024141446 -0.047423657 -0.02611916
0.01754982 -0.0054820753 0.10885713 -0.08250365 0.11761302 -0.008098524 -0.031109178 0.04504637
-0.04320244 0.06720238 -0.016961547 -0.03133535 -0.024161555 0.015617146 0.0688528 0.030301644
0.005231371 -0.057488304 0.019059975 -0.046054643 0.053106483 0.01047117 -0.07214916 -0.037197996
-0.03909344 -0.06026751 -0.027587127 -0.046304177 0.0409618 -0.0025788518 -0.068080075 0.020512832
0.009598667 -0.04430737 0.030186635 -0.00767271 -0.10001982 0.07394186 -0.05442927 0.005589684
0.043138057 0.027172992 0.02397525 0.0137775475 -0.0754684 -0.08492993 0.06898777 -0.067866534
-0.00082101114 0.06871491 0.032258466 0.03448683 -0.03252393 0.037671946 0.015550577 -0.060896255
-0.037670366 -0.0041607926 0.07815423 -0.06372264 0.021335201 0.057843696 0.07622391 0.015583038
-0.041195385 0.047593404 -0.07242302 -0.020180285 0.005815433 0.005965406 0.08721226 -0.031357612
-0.07248148 0.06446866 -0.042075604 0.017354175 0.015098521 0.08243253 0.0011027064 -0.02472543
-0.0304698 -0.026272165 -0.057036486 0.02870971 -0.005081301 -0.051692743 -0.022120997 -0.017192228
0.02733768 -0.056164112 0.07911173 -0.0753148 0.07936708 0.0006947505 0.03097099 0.027637243
-0.07002204 -0.07339658 0.012915071 -0.01834182 -0.036564153 -0.035475645 -0.05454634 0.035036292
-0.066224754 -0.04094977 0.04299396 0.03447155 -0.029720327 -0.07810752 0.039472688 0.06713401
-0.039358437 0.07161696 -0.04080042 0.056622602 0.035962403 -0.065189816 0.021062704 -0.04197202
-0.022379506 0.0026214279 -0.058877725 0.031133043 0.05738458 -0.017297212 0.037446894 -0.0718641
0.007942287 -0.042646397 0.0024368633 -0.026885398 -0.04436475 -0.020363543 -0.07511299 -0.036614534
-0.037468474 0.07915609 -0.040847372 -0.0021113881 -0.023346888 -0.06427148 0.023177937 -0.060095567
0.031077154 -0.033129733 0.036069434 0.053669762 0.0627595 0.07681102 -0.017468423 -0.08093403
-0.02657245 -0.07878095 0.013557504 -0.07374821 -0.013296883 0.067258716 -0.002852966 0.0013986893
0.07575403 -0.04047293 -0.07569712 0.043320786 0.05549895 -0.0068443795 -0.06456803 0.017594792
0.025000224 -0.056641806 -0.036914 0.0004618692 0.04836975 -0.00040317682 0.07722483 0.076671086
0.020641258 -0.049901195 -0.03952586 -0.021480326 0.0071634306 -0.050155394 -0.077750936 -0.024363551
00000000: 3df0 90bd 66c1 353d 6dc2 123d 1412 b43d
00000010: b34a 6ebd 3fc5 e43c 0ce3 0dbd ea6f 05bd
00000020: e422 ef3d 7454 adbd 3c92 a93d 0c8e cf3c
00000030: e2e1 0e3c 0cbc 5dbb dbe5 41bd f908 413d
00000040: 4eb4 4abd 91e7 8dbd c9e3 8abc 6698 5cbd
00000050: 3245 0fbd 8024 6d3d 8340 713d 22f4 3cbd
00000060: 03ee bd3c 846e d03c a7f8 243c f0e5 9d3c
00000070: 124e 06bc 6547 86bd 0268 333d e1b7 c43d
00000080: 9c3a 9bbd 60e3 ab3d a9a0 e93c 0067 a33b
00000090: 64a5 993d 56ac 3c3d d213 313c 8e70 34bd
000000a0: 5718 d7bd 5f8e bbbc 441e 82bc eb1a 58bd
000000b0: bbab 283c 348d 62bd adac 903d c040 2dbd
000000c0: 88ae b9bd 2ff7 933d b412 1aba fbcd a23d
000000d0: eec1 01bd 2f44 633d 789a d73b 9c90 223c
000000e0: 850f f43c 797a 983c e233 33bd 7179 17bd
000000f0: 9615 4f3d b117 983d 8fa0 9bbd fee8 9cbd
00000100: d15e a63d e49a a53d 3928 27bd 08f7 19bd
00000110: 850c 46bc 48c4 c53c 4f3f 42bd d9f7 d5bc
00000120: a4c4 8f3c fba2 b3bb 7df0 de3d acf7 a8bd
00000130: 18df f03d acaf 04bc add8 febc 8b82 383d
00000140: 0bf5 30bd 67a1 893d f1f2 8abc 7f59 00bd
00000150: 74ee c5bc 0fdf 7f3c b202 8d3d 273b f83c
00000160: ec6b ab3b db78 6bbd aa23 9c3c cba3 3cbd
00000170: 2f86 593d 458f 2b3c f0c2 93bd ed5c 18bd
00000180: 7120 20bd 11db 76bd 66fe e1bc 73a9 3dbd
00000190: 8fc7 273d f401 29bb 916d 8bbd 870a a83c
000001a0: ba43 1d3c a57b 35bd f649 f73c 5b6b fbbb
000001b0: 31d7 ccbd d46e 973d 3af1 5ebd ab29 b73b
000001c0: 88b1 303d e599 de3c be67 c43c 39bb 613c
000001d0: 2d8f 9abd beef adbd 7649 8d3d 9cfd 8abd
000001e0: 2039 57ba 67ba 8c3d 7421 043d 1042 0d3d
000001f0: d037 05bd e64d 1a3d d9c7 7e3c 5a6e 79bd
00000200: 3e4c 1abd 4257 88bb 530f a03d 0481 82bd
00000210: 29c7 ae3c 83ed 6c3d 481b 9c3d 0050 7f3c
00000220: 7ebc 28bd 4df1 423d 8552 94bd 2051 a5bc
00000230: 638f be3b 7479 c33b 579c b23d d770 00bd
00000240: 2c71 94bd 2508 843d 7857 2cbd 582a 8e3c
00000250: c95f 773c 63d2 a83d b088 903a fc8c cabc
00000260: cd9b f9bc b938 d7bc 179f 69bd a030 eb3c
00000270: 0b81 a6bb c5bb 53bd 1837 b5bc b7d6 8cbc
00000280: 45f3 df3c 570c 66bd 5505 a23d a53e 9abd
00000290: 358b a23d eb1f 363a e0b6 fd3c 8067 e23c
000002a0: b767 8fbd f250 96bd bc99 533c 9641 96bc
000002b0: 4bc4 15bd e94e 11bd fc6b 5fbd 3782 0f3d
000002c0: d8a0 87bd f2ba 27bd 6f1a 303d 0a32 0d3d
000002d0: 0b78 f3bc d6f6 9fbd 1dae 213d 8e7d 893d
000002e0: 5036 21bd eaab 923d 571e 27bd 1aed 673d
000002f0: 504d 133d 3d82 85bd b18b ac3c daea 2bbd
00000300: 3a55 b7bc 43cc 2b3b c529 71bd b90a ff3c
00000310: 180c 6b3d e2b2 8dbc ea61 193d 7c2d 93bd
00000320: 5e20 023c fdad 2ebd c8b3 1f3b c43e dcbc
00000330: d0b7 35bd 72d1 a6bc d7d4 99bd 1ff9 15bd
00000340: 8b78 19bd 971c a23d 934f 27bd 375f 0abb
00000350: f941 bfbc c4a0 83bd a8df bd3c c526 76bd
00000360: 8495 fe3c 0bb3 07bd 8bbd 133d d3d4 5b3d
00000370: 0e88 803d 194f 9d3d f019 8fbc bec0 a5bd
00000380: 77ae d9bc e857 a1bd 4b20 5e3c 4d09 97bd
00000390: 2bdb 59bc f0be 893d d4f8 3abb 3a54 b73a
000003a0: ee24 9b3d f1c6 25bd 1707 9bbd 2371 313d
000003b0: de52 633d d146 e0bb 3e3c 84bd f422 903c
000003c0: 45cd cc3c 3d01 68bd 2233 17bd 0927 f239
000003d0: 5c1f 463d 7a61 d3b9 0d28 9e3d bb05 9d3d
000003e0: db17 a93c 3265 4cbd dee5 21bd 82f7 afbc
000003f0: 36bb ea3b be6f 4dbd e23b 9fbd 1296 c7bc

hidden2.bias f4 [150]
-0.008398188 0.07705546 0.06903623 0.06768514 0.085009955 0.039874267 0.02200062 -0.01196074
0.054334722 0.007066965 0.078810126 -0.0068895076 -0.0033293879 0.110162094 0.058698524 -0.048973378
-0.03638399 0.032820094 0.029639924 0.0015058652 0.07358391 0.024788054 0.035906002 -0.061608948
0.026255494 0.00046011512 0.0061847894 0.074141435 -0.050691478 -0.06474336 0.01652264 0.0741374
0.056496594 -0.025061764 0.018624311 0.034237973 0.03547405 0.06753295 -0.058280546 0.08071134
0.0016959863 0.0044137076 0.07937811 -0.06903964 -0.0137798935 -0.0854805 0.05156407 -0.057277046
0.08968508 -0.013661245 -0.029957516 -0.049729675 -0.010665071 0.05704178 -0.06472888 -0.019953912
-0.038361393 0.025090171 -0.06432137 -0.0094289165 0.05555048 0.09433054 0.024894899 0.08282978
-0.032967165 0.030089265 -0.07433071 0.058572613 0.032178756 0.019678088 -0.010898394 -0.042616833
-0.05614829 -0.038489606 -0.021191802 -0.029562918 -0.08434074 -0.03702891 0.002536996 0.01613475
0.033737063 -0.062241636 -0.045962576 0.06671376 -0.0568029 0.06654407 -0.016540384 0.040760946
0.04564638 -0.047086928 -0.044595975 0.039020885 -0.010026896 -0.009353266 -0.025184201 0.0050429185
0.07379671 -0.04573107 0.059913848 0.0023453368 -0.026328286 -0.08009563 -0.009268186 0.02840151
0.06415481 0.024433242 0.02443187 0.064573616 0.05848033 0.09006166 -0.03579431 0.040104847
0.042652957 0.07423482 0.058664255 -0.008617071 -0.042099383 -0.05829635 0.07470405 0.03755861
0.04183692 -0.059011344 0.04795682 0.065085836 -0.044732437 0.08134898 -0.019665826 -0.06264176
-0.0029488513 -0.0089515215 -0.08002194 -0.041052748 -0.00042736324 0.0050666807 0.073509835 -0.032334737
-0.053976275 -0.025780363 0.10312293 -0.0757444 0.06718731 0.035355553 0.008758834 0.0764365
0.0098084705 0.069942735 0.07638313 -0.03634421 -0.03549371 0.011068633
00000000: 8e98 09bc 41cf 9d3d de62 8d3d 829e 8a3d
00000010: b319 ae3d 3353 233d a53a b43c fbf6 43bc
00000020: 168e 5e3d 0092 e73b 3467 a13d 61c1 e1bb
00000030: dc31 5abb aa9c e13d dd6d 703d 4f98 48bd
00000040: 6107 15bd 5d6e 063d 6dcf f23c 7460 c53a
00000050: 29b3 963d 5110 cb3c 2c12 133d aa59 7cbd
00000060: c315 d73c 9b3b f139 c6a9 ca3b 77d7 973d
00000070: dea1 4fbd 2b98 84bd 7d5a 873c 59d5 973d
00000080: f968 673d 544e cdbc 0392 983c 1e3d 0c3d
00000090: 3d4d 113d b74e 8a3d 95b7 6ebd fd4b a53d
000000a0: db4b de3a dda0 903b fe90 a23d a864 8dbd
000000b0: 10c5 61bc 6610 afbd d934 533d 569b 6abd
000000c0: d0ac b73d 6ad3 5fbc 7769 f5bc 58b1 4bbd
000000d0: 8dbc 2ebc a4a4 693d 9390 84bd 6376 a3bc
000000e0: d620 1dbd e789 cd3c ecba 83bd be7b 1abc
000000f0: e688 633d 5f30 c13d 63f0 cb3c a9a2 a93d
00000100: 9408 07bd c37d f63c b33a 98bd d6e9 6f3d
00000110: dfcd 033d f133 a13c 2d8f 32bc fd8e 2ebd
00000120: c0fb 65bd 47a7 1dbd 6e9a adbc ef2d f2bc
00000130: d7ba acbd a0ab 17bd bb43 263b 062d 843c
00000140: e02f 0a3d 16f1 7ebd 4143 3cbd 39a1 883d
00000150: 28aa 68bd 4248 883d b37f 87bc f3f4 263d
00000160: b3f7 3a3d 39de 40bd 45aa 36bd 5dd4 1f3d
00000170: da47 24bc 713e 19bc 194f cebc 113f a53b
00000180: bb22 973d 8150 3bbd 3968 753d 39b4 193b
00000190: 6bae d7bc 2d09 a4bd 97d9 17bc 49aa e83c
000001a0: 9963 833d 3928 c83c 5825 c83c 2c3f 843d
000001b0: 1289 6f3d 3f72 b83d 0e9d 12bd fb44 243d
000001c0: deb4 2e3d 6d08 983d ee49 703d 9e2e 0dbc
000001d0: 6770 2cbd 27c8 6ebd 70fe 983d 0fd7 193d
000001e0: 315d 2b3d e1b5 71bd 5f6e 443d b94b 853d
000001f0: 5c39 37bd 4b9a a63d 3a1a a1bc 534a 80bd
00000200: 8441 41bb 67a9 12bc 8be2 a3bd ed26 28bd
00000210: b90f e0b9 6606 a63b 538c 963d 6e71 04bd
00000220: 3a16 5dbd 5731 d3bc 1d32 d33d e11f 9bbd
00000230: 8099 893d fcd0 103d 3681 0f3c bd8a 9c3d
00000240: b5b3 203c 233e 8f3d c26e 9c3d abdd 14bd
00000250: da61 11bd 3659 353c

hidden3.weight f4 [50, 150]
0.0499324 0.045126263 0.016391236 0.011567628 0.078581065 -0.017479992 0.08005727 -0.05377413
0.02833277 0.0024657503 0.02240709 -0.054606427 -0.017475829 0.09065482 -0.06803722 -0.030437449
0.08763002 -0.033366274 0.07929115 0.039706655 0.034068182 0.0673985 -0.07563815 -0.014125022
0.1688218 -0.01748772 0.07450244 -0.07249827 0.08979067 0.034303892 -0.027518783 0.103170656
0.010333924 0.08023515 -0.07206053 -0.02000057 0.11264246 -0.07301632 0.002112756 -0.037566267
-0.04709319 0.13323995 0.09188511 -0.004060913 0.081583075 -0.02004408 0.07492371 0.013211268
-0.09736147 -0.062320683 -0.075538084 0.05977024 0.04813655 0.036447685 0.043108355 -0.033012494
0.11248068 0.07388437 0.065055445 -0.0887304 -0.03066877 -0.011189662 -0.099180534 0.007867366
0.07768707 0.032592505 0.07266832 0.011949753 -0.052769125 0.101358466 -0.043082844 -0.009507647
0.032893863 0.025190283 -0.085870475 0.09688643 0.03113916 0.054767136 -0.03967684 0.013526854
-0.059720915 0.012268574 0.07544864 0.0006122253 0.093296826 -0.09329295 0.120562114 0.079986095
0.070442624 0.018628575 -0.062386077 0.11313983 0.014129173 -0.04290632 -0.031023994 0.074038774
-0.034176566 -0.09273269 -0.10498949 -0.11149672 -0.0168453 -0.0061858566 -0.036808077 -0.04313487
-0.018950205 0.03562451 0.06977435 0.061221972 0.071282364 0.02299645 0.039563548 0.0010449105
-0.028795917 -0.013119698 -0.09802338 0.021843899 -0.11641903 0.05775717 0.084777996 -0.008180632
-0.124475025 -0.0062528225 -0.0459922 -0.012860641 0.057153467 0.11911728 0.00034924917 -0.017961195
0.024418226 0.11099201 -0.05325476 -0.035481103 0.0056553935 -0.020805646 0.07273286 -0.07687641
-0.047848035 0.07364414 0.06921739 -0.05490342 0.048101265 -0.071355954 0.12920511 -0.045523327
-0.07112161 0.019735353 0.081918344 -0.09606285 0.008710443 -0.02057926 -0.019833127 -0.07294988
-0.15594856 0.10922004 -0.08288133 0.081837766 0.070123814 0.020723231 0.10518214 0.039599594
-0.018200612 0.04740092 0.017919142 -0.0107667595 0.094244555 -0.08785847 0.014610122 0.11075248
-0.022321876 -0.062278222 -0.041513786 -0.014651214 0.07846671 0.105853915 -0.080407545 -0.0038062385
-0.03964764 0.031111091 -0.0089168595 0.03324985 0.01631631 0.008487455 0.01647932 -0.09444153
-0.008377637 -0.083313584 -0.09021817 -0.13703485 0.10718366 0.074545845 -0.022143979 -0.027655074
0.027800512 0.06050453 -0.053652473 -0.069962494 0.033778425 -0.0677414 -0.053204585 0.10944992
0.021789905 -0.048576463 0.045976564 -0.0677799 -0.022324327 0.07943189 -0.077320516 0.08056635
0.01749594 0.014513459 -0.029663654 -0.02225124 -0.020158216 -0.05474978 0.02070249 0.030720197
-0.03790996 -0.034681983 -0.048554473 0.016971761 0.06684627 -0.012145831 0.0075511863 -0.031299543
0.09526481 -0.116939224 -0.014177029 0.041609596 -0.01829555 -0.018777149 0.12260744 -0.00017895777
-0.01020837 0.037010267 -0.0834838 0.052173708 -0.016661616 -0.09306728 0.049813993 0.027532946
-0.032332163 0.040238403 -0.06753479 0.059100438 -0.029468216 0.023990069 0.08036803 -0.022566956
0.06625274 -0.019311124 0.08123269 0.05903079 -0.11455627 -0.07402996 0.03359019 -0.032751746
00000000: eb85 4c3d 51d6 383d ea46 863c 2686 3d3c
00000010: 1cef a03d 3332 8fbc 11f5 a33d 4342 5cbd
00000020: 201a e83c 6d98 213b 138f b73c fdaa 5fbd
00000030: 7829 8fbc 3ca9 b93d 1957 8bbd f557 f9bc
00000040: 5e77 b33d 13ab 08bd 6663 a23d 72a3 223d
00000050: 148b 0b3d 3a08 8a3d 2de8 9abd a36c 67bc
00000060: 9fdf 2c3e 6842 8fbc bc94 983d f979 94bd
00000070: 2ce4 b73d 3d82 0c3d 126f e1bc 234b d33d
00000080: 9e4f 293c 5452 a43d 7994 93bd 3cd8 a3bc
00000090: 17b1 e63d 9589 95bd 2a76 0a3b 16df 19bd
000000a0: cae4 40bd 0e70 083e 432e bc3d 6811 85bb
000000b0: 0715 a73d 7c33 a4bc 9a71 993d 1374 583c
000000c0: 7365 c7bd f943 7fbd b6b3 9abd a4d1 743d
000000d0: d52a 453d 2b4a 153d 6392 303d 1c38 07bd
000000e0: 455c e63d b050 973d ca3b 853d 49b8 b5bd
000000f0: 133d fbbc d854 37bc 2a1f cbbd 20e6 003c
00000100: 661a 9f3d b87f 053d 21d3 943d e6c8 433c
00000110: 7024 58bd 0795 cf3d a377 30bd f6c5 1bbc
00000120: b7bb 063d da5b ce3c dcdc afbd 656c c63d
00000130: 8d17 ff3c 8153 603d 2f84 22bd bd9f 5d3c
00000140: eb9d 74bd 2102 493c d184 9a3d bf7d 203a
00000150: 6812 bf3d 6010 bfbd 45e9 f63d c0cf a33d
00000160: 3944 903d f49a 983c 8b88 7fbd dbb5 e73d
00000170: 0c7e 673c 8abe 2fbd 0826 febc a4a1 973d
00000180: bafc 0bbd a3ea bdbd bb04 d7bd 6458 e4bd
00000190: 28ff 89bc bab2 cabb 11c4 16bd 30ae 30bd
000001a0: 763d 9bbc 02eb 113d dbe5 8e3d e4c3 7a3d
000001b0: 7dfc 913d 0d63 bc3c 630d 223d 61f5 883a
000001c0: 6ae5 ebbc 00f4 56bc 7bc0 c8bd faf1 b23c
000001d0: 1a6d eebd c892 6c3d 16a0 ad3d 0f08 06bc
000001e0: c3ec febd 7ae4 ccbb 5162 3cbd 70b5 52bc
000001f0: c119 6a3d c3f3 f33d 6e1b b739 5b23 93bc
00000200: bb08 c83c c74f e33d aa21 5abd a254 11bd
00000210: e150 b93b 9a70 aabc f7f4 943d 6171 9dbd
00000220: 4dfc 43bd bdd2 963d d9c1 8d3d 69e2 60bd
00000230: d505 453d 1223 92bd 584e 043e ab76 3abd
00000240: 35a8 91bd 09ac a13c cec4 a73d 99bc c4bd
00000250: 3fb6 0e3c d695 a8bc 1579 a2bc bf66 95bd
00000260: fbb0 1fbe c2ae df3d b0bd a9bd 8f9a a73d
00000270: 139d 8f3d c4c3 a93c bc69 d73d 2f33 223d
00000280: 7319 95bc 7827 423d 2acb 923c 1067 30bc
00000290: 4a03 c13d 24ef b3bd 4b5f 6f3c 32d2 e23d
000002a0: 5edc b6bc 7317 7fbd 5c0a 2abd a50b 70bc
000002b0: 28b3 a03d f0c9 d83d b6ac a4bd 1672 79bb
000002c0: 9065 22bd b0dc fe3c 0518 12bc ff30 083d
000002d0: c8a9 853c f70e 0b3c a4ff 863c 906a c1bd
000002e0: 5b42 09bc 50a0 aabd 4ec4 b8bd dd52 0cbe
000002f0: 1b83 db3d 7eab 983d 4a67 b5bc e58c e2bc
00000300: e6bd e33c 99d3 773d b2c2 5bbd 7f48 8fbd
00000310: 3f5b 0a3d 01bc 8abd 0ded 59bd 4827 e03d
00000320: be80 b23c 1df8 46bd ec51 3c3d 30d0 8abd
00000330: 82e1 b6bc 30ad a23d 385a 9ebd f8ff a43d
00000340: a553 8f3c dcc9 6d3c 3101 f3bc 3c48 b6bc
00000350: d822 a5bc 4e41 60bd 4598 a93c eca8 fb3c
00000360: 7947 1bbd b20e 0ebd 0ee1 46bd 5d08 8b3c
00000370: b2e6 883d 4fff 46bc f16f f73b f333 00bd
00000380: 321a c33d d57d efbd c546 68bc d36e 2a3d
00000390: 8de0 95bc 89d2 99bc 9c19 fb3d 9ca6 3bb9
000003a0: 0241 27bc 1498 173d 8ef9 aabd 19b4 553d
000003b0: f17d 88bc 0f9a bebd c209 4c3d c68c e13c
000003c0: bb6e 04bd 06d1 243d ae4f 8abd 4d13 723d
000003d0: 5467 f1bc d286 c43c fe97 a43d 56de b8bc
000003e0: 84af 873d 5d32 9ebc 535d a63d 45ca 713d
000003f0: 7a9c eabd 059d 97bd de95 093d b226 06bd

hidden3.bias f4 [50]
0.031778734 0.01926711 0.06758447 -0.042935915 0.043032266 0.07365385 -0.0553504 0.050893873
0.0052055204 -0.007459891 -0.012367883 -0.03508305 -0.018112155 0.08469929 -0.050912593 0.043701883
-0.009440578 0.038090058 -0.05792353 -0.07173282 0.08167495 -0.016886499 0.03389364 0.07068205
0.037300203 0.022775048 0.028924866 0.029651046 -0.07382701 -0.0555749 0.05516164 0.047231417
-0.005121613 -0.025815401 0.089011684 -0.011288229 -0.029255377 0.0056561884 -0.026426155 0.013246097
-0.06318026 -0.023338012 0.010174286 0.019997481 0.043611385 0.081828974 -0.028509226 0.03991284
-0.03559155 -0.007840699
00000000: 6b2a 023d 0fd6 9d3c ba69 8a3d 92dd 2fbd
00000010: 9a42 303d d4d7 963d 1ab7 62bd 1876 503d
00000020: 1293 aa3b 1a72 f4bb a9a2 4abc 3fb3 0fbd
00000030: f15f 94bc d276 ad3d b989 50bd bf00 333d
00000040: a7ac 1abc 5204 1c3d 3941 6dbd a8e8 92bd
00000050: 3245 a73d 8e55 8abc 0fd4 0a3d c0c1 903d
00000060: 19c8 183d bd92 ba3c d7f3 ec3c c0e6 f23c
00000070: 9e32 97bd 82a2 63bd 2cf1 613d bb75 413d
00000080: 34d3 a7bb d27a d3bc c24b b63d 44f2 38bc
00000090: f9a8 efbc 8c57 b93b aa7b d8bc 2806 593c
000000a0: a764 81bd 5c2f bfbc 0cb2 263c c2d1 a33c
000000b0: daa1 323d f395 a73d 2e8c e9bc a57b 233d
000000c0: 72c8 11bd 4676 00bc

output.weight f4 [2, 50]
0.071699634 -0.17524709 0.10421394 -0.053167745 -0.17603667 0.07181738 0.03581418 0.009109422
-0.071522646 0.044591423 0.115535304 -0.11105356 0.058756605 -0.14975944 0.12111034 -0.18300101
0.028600397 0.119543776 -0.10762952 0.02658438 0.13887812 -0.10340143 0.19401956 0.0102048125
-0.043577228 0.12721528 -0.0021459793 0.19948483 -0.011500433 -0.15688358 -0.13932183 0.066794395
0.027950054 -0.16255718 0.048597362 0.11815897 0.027624084 -0.010108888 0.1161132 -0.0051789954
0.1384678 -0.14527583 -0.051117368 -0.05480812 -0.08694565 0.07952276 -0.07215015 0.022298908
0.15095055 -0.13768794 -0.16108596 -0.07855667 -0.1529489 0.019830957 -0.019459777 -0.106876396
-0.018760383 -0.096152544 0.16338526 0.13769573 -0.059900537 0.03259683 0.1311567 0.15920304
-0.020683635 -0.042713594 0.16931431 -0.1336416 0.090985246 -0.10286824 -0.09960327 0.054193713
-0.15893191 0.107221454 0.042042308 -0.018221797 0.14151953 0.022654928 -0.11030687 -0.03742821
0.0531741 -0.09646824 0.17561506 0.16882424 -0.06065287 -0.16776495 -0.19483283 -0.14611992
-0.18428779 0.14863582 -0.11395174 -0.05015078 0.1588766 -0.1882034 0.1509151 -0.077660576
0.01976046 0.11665914 0.020519849 -0.060950898
00000000: 42d7 923d f973 33be 1e6e d53d 6cc6 59bd
00000010: f542 34be fe14 933d e4b1 123d af3f 153c
00000020: 777a 92bd 7fa5 363d c69d ec3d 0d70 e3bd
00000030: c4aa 703d 8a5a 19be b308 f83d 9e64 3bbe
00000040: 614b ea3c 5ed3 f43d de6c dcbd 7cc7 d93c
00000050: 1136 0e3e 21c4 d3bd 10ad 463e 1632 273c
00000060: 097e 32bd b944 023e 8fa3 0cbb c045 4c3e
00000070: 506c 3cbc 17a6 20be 62aa 0ebe 80cb 883d
00000080: 83f7 e43c 6475 26be 070e 473d 54fd f13d
00000090: e74b e23c c09f 25bc c2cc ed3d 90b4 a9bb
000000a0: 81ca 0d3e 30c3 14be 7260 51bd 7b7e 60bd
000000b0: 9010 b2bd d4dc a23d 75c3 93bd 33ac b63c
000000c0: c892 1a3e 11fe 0cbe b8f3 24be 52e2 a0bd
000000d0: a39e 1cbe 8874 a23c 1c6a 9fbc 03e2 dabd
000000e0: 60af 99bc a0eb c4bd 774e 273e 1c00 0d3e
000000f0: 445a 75bd 4184 053d f14d 063e 1f06 233e
00000100: ba70 a9bc 73f4 2ebd bb60 2d3e 58d9 08be
00000110: 7956 ba3d 95ac d2bd cdfc cbbd 3afa 5d3d
00000120: 0cbf 22be ec96 db3d 8e34 2c3d e145 95bc
00000130: 7fea 103e d496 b93c 91e8 e1bd 534e 19bd
00000140: 16cd 593d 2491 c5bd 6fd4 333e 43e0 2c3e
00000150: 256f 78bd 93ca 2bbe 4282 47be 76a0 15be
00000160: f0b5 3cbe fd33 183e 885f e9bd e76a 4dbd
00000170: 8cb0 223e 64b8 40be 7d89 1a3e 820c 9fbd
00000180: b0e0 a13c fdea ee3d 3e19 a83c a6a7 79bd

output.bias f4 [2]
0.12238559 0.03275636
00000000: 4ca5 fa3d 882b 063d
