outputs/mlp_lbp_2classes.pt (torch, 140524 bytes, 8 tensors)

hidden1.weight f4 [150, 26]
00000000: 7e38 643e 62b5 98bd 1d9f 243e 2c9c aa3e
00000010: bc11 be3c 5c9c 893e caee a63d 2e25 503e
00000020: c74c a43d a9af 30bc 202f 7f3c 285d 47bd
00000030: 519e 273d 93d4 26bd 6abf 9ebb bf94 3c3d
00000040: 0987 963d dce2 b13d 2b66 583e 3c69 bf3c
00000050: 737e 58be ab62 b3be f52c a1be 8c30 00be
00000060: c31a 61be b5f7 6f3a bb52 633e dfd6 f13d
00000070: d081 b9bc 6ede ad3e 4078 883e 6ff5 bf3e
00000080: 82bd 9b3e 9d48 26bc 64f9 68bd 31b8 133c
00000090: 69eb 683e 4edb 833c 110f 243e 76af 943c
000000a0: c072 9e3e 2767 693d 257d 923e e89f 193e
000000b0: e62b 513d dfb1 3d3e 7a54 cdbd 2086 05bd
000000c0: 186e 54be bdc7 05bd 4b39 8abe 9b39 c2bd
000000d0: 6c35 5f3e 46bd 50bd 0598 c73e 83aa c73e
000000e0: 4e97 373e d7df 4cbc 8be1 4c3e c395 eb3d
000000f0: 87f6 fabd 0fe3 b03d bdaf ca3c 7548 643d
00000100: 6e17 44be e4c1 2fbd 61f6 73bd 6af3 2c3d
00000110: 8a0b 25be 3bd2 c4bd 56a2 a83d 0f54 1dbe
00000120: a05a edbd ea83 95be f2f0 8fbe fed1 debc
00000130: aef0 0cbe 472c 8c3d ebf2 81be d56e 023e
00000140: 0f40 8dbe 9c4e b0be b12a 33be 0ef0 46be
00000150: 7a2c 00bd c7a2 82be 3780 8ebe af29 7b3d
00000160: a299 93bd b3e6 913d c054 85bb 4098 72be
00000170: 4069 6fbd bf13 91bd 7d5f 83be b898 62be
00000180: 7fbd 89bd 2a1a cfbc 3e1c 8cbd 6d77 593d
00000190: 4663 b43e 4999 5b3c ed7d 613e c8f9 fa3d
000001a0: 9d94 6fbc 4d40 23be 6e32 c03e be17 713e
000001b0: 9bb7 a63e bf20 343e 676b 2d3e cc3d 703e
000001c0: 4be0 653e 75e7 04be e6b2 d6bc 8519 9e3d
000001d0: 92c6 cd3d ab45 133e e913 15be 72ea bdbd
000001e0: 0e1d b5bd 781f c43d 8f0a 623e b8f8 32be
000001f0: 2445 36bd 4460 b1be 2321 f0be f4f9 b6bd
00000200: 3134 56bd 4895 2b3e 0a70 f9bd c452 2e3d
00000210: 3848 2d3e 7613 053e a150 fa3d 18b6 0e3e
00000220: 2e0c fe3d c17c 4f3d a653 09be 8ca4 28be
00000230: db0a b8bd 7e14 bbbc 9130 f6bd 90f1 923d
00000240: e79b 783d c3e4 35bd 6e5e 9a3d 49ce 813d
00000250: 6e38 f53d 303e 073e ba04 88bd 8a35 443e
00000260: c5bb b9bc 79c8 dcbb 818d 3dbe bd40 01be
00000270: 95a4 eabd 0bcb abbd 6cc7 0e3e 1040 83bd
00000280: 3a12 16be 7f88 9a3d 4398 803d 3612 023e
00000290: 2dd7 cfbd 6a2a 2e3d 2c38 92bd b57a 34bd
000002a0: 1b0a 20be f30d b7bd a803 76bd 09c2 ab3d
000002b0: bec0 123d 1e6d 463d 4171 483e 40ba 433e
000002c0: 80f8 083e 21a3 cc3b 75ed 0abe eff1 1c3e
000002d0: b6df 48bd 83e2 81bc 3d02 2dbe 4fac 1ebd
000002e0: 4187 01be 9289 383e 9a9d 2dbe ba89 1cbe
000002f0: e536 dabb 162d d9bd adb6 8f3d 919a 9abd
00000300: e8a5 bcbd 77fc 353c 1460 113e 7c43 0dbe
00000310: 8c9d bc3d 5704 013e c671 443e ea8f 0cbe
00000320: 938c 423d 6e7e 14be df73 2b3e 0ccd 9bbd
00000330: b7ee f13d 3d52 bf3b fc3f 7abc d60c cdbb
00000340: 1e8e 083d 9355 bd3d f3d4 003d 4e0c 753d
00000350: 2aa5 34be 994e 123e 1c17 2f3e 5b00 263e
00000360: ee73 143e 8deb 10be dfe3 94bd 1612 313e
00000370: 60f5 18be d930 363e 49f2 1dbe 1d76 0dbe
00000380: 175b c43d 014a 10be e208 38bd d818 123e
00000390: d111 1f3e efed 3d3e 7d00 23bd 7f17 1cbe
000003a0: 81bb 453e 451f 2bbd d179 56be bc43 0f3d
000003b0: 00e4 b0be 8cd9 02be 5025 d2bd a98e a5be
000003c0: b679 99be 5105 0cbe 3950 7b3c 718d 00bd
000003d0: 9037 94bd 8e15 563d 6daf 29be 9845 3fbe
000003e0: d7a0 1bbe 8379 af3d 03e7 e83d 597c 2abe
000003f0: ef90 31bd b07a f03d d9f4 223e fd5a 0a3e
0.22287175 -0.07456471 0.16076322 0.33322275 0.023201816 0.26877105 0.08151014 0.20326683
0.080224566 -0.010784068 0.0155752 -0.048672825 0.040922467 -0.04073007 -0.0048445957 0.046040293
0.07349975 0.08685848 0.21132724 0.02336561 -0.21141987 -0.35036215 -0.31479612 -0.12518519
-0.21982865 0.00091540377 0.22199528 0.118085615 -0.022644907 0.33958763 0.26654243 0.37491938
0.3041802 -0.010149148 -0.056878462 0.009016083 0.22746052 0.016095784 0.16021372 0.018150073
0.30946922 0.05698314 0.28611103 0.15002406 0.051067255 0.18524884 -0.10025878 -0.032598615
-0.20745122 -0.03266119 -0.26996836 -0.094836436 0.21797723 -0.050961755 0.3898317 0.38997278
0.17928812 -0.012504539 0.20007913 0.11503174 -0.122540526 0.08637058 0.024742002 0.055733163
-0.19149563 -0.042909518 -0.059561137 0.042224325 -0.16117683 -0.09610411 0.08234088 -0.15364097
-0.11589551 -0.29202205 -0.28113514 -0.027199741 -0.13763687 0.06844383 -0.25380644 0.12737592
-0.27587935 -0.34434974 -0.17496754 -0.19427511 -0.031292416 -0.25514814 -0.27832195 0.06131905
-0.072070375 0.071240805 -0.004068941 -0.23690891 -0.058449984 -0.070838444 -0.2565879 -0.2212857
-0.06725597 -0.02528103 -0.06841324 0.05309241 0.3523199 0.013403245 0.22020693 0.12254673
-0.0146228345 -0.15942498 0.37538475 0.23544213 0.32561955 0.17590617 0.16935502 0.23461074
0.22448842 -0.12978919 -0.026208352 0.07719711 0.1004764 0.14382045 -0.14558376 -0.092732325
-0.08843432 0.09576315 0.2207434 -0.17477691 -0.04449953 -0.34643757 -0.4690028 -0.089343935
-0.052295867 0.16756165 -0.12179573 0.0425594 0.1692208 0.12995705 0.1222241 0.13936651
0.12404667 0.050656084 -0.13410816 -0.1646902 -0.089864455 -0.02283692 -0.12020982 0.07174981
0.060695555 -0.044407617 0.07537542 0.06338174 0.11973654 0.13207316 -0.066415265 0.19161049
-0.022672543 -0.0067377654 -0.1851101 -0.12622352 -0.11457173 -0.08388337 0.13943261 -0.06408703
-0.1465539 0.07545566 0.062790416 0.1270226 -0.101484634 0.042520918 -0.0713962 -0.044062335
-0.15628855 -0.089382075 -0.06006208 0.08386619 0.035828345 0.048443906 0.19574453 0.19114017
0.13376045 0.0062450324 -0.13567145 0.15326665 -0.049041472 -0.01585508 -0.16895385 -0.038738545
-0.12649252 0.18021229 -0.16954651 -0.15286914 -0.006659376 -0.106043026 0.070172645 -0.075490125
-0.092113316 0.011107556 0.14196807 -0.13795274 0.09209737 0.12599312 0.19184026 -0.13726774
0.047497343 -0.14501354 0.1674342 -0.07607469 0.11813109 0.005838661 -0.015274044 -0.0062576337
0.03333866 0.092448376 0.031453084 0.059826188 -0.1764113 0.14287795 0.1709866 0.16211073
0.14497349 -0.14152355 -0.072700255 0.17292055 -0.14937353 0.17792071 -0.15424456 -0.13814588
0.095876865 -0.1409073 -0.044930346 0.1426729 0.1553414 0.18547796 -0.039795388 -0.15243338
0.19309808 -0.041777868 -0.20944907 0.034976706 -0.3454895 -0.127783 -0.10261023 -0.32335404
-0.2997567 -0.13673903 0.015338951 -0.03138489 -0.0723716 0.05226665 -0.16570826 -0.18678892
-0.15198074 0.085680984 0.11372187 -0.16648997 -0.04335111 0.11742151 0.15913714 0.13511272

hidden1.bias f4 [150]
00000000: ff04 1e3e 295e 703d 34a3 3fbd 7c63 023e
00000010: 6da2 573d 2a6e bbbc 02b5 d73b d85d c3bd
00000020: ec4d 80bc 7c4c fc3d 93a7 3f3e 48ac 353e
00000030: 8d86 12be 68d0 aabb fc3e ab3d c291 033e
00000040: 46a2 d4bd 691a 20be 6bba d73d a302 e7bd
00000050: 55bd 3a3e 874c fbbd 3bc2 d03d c56f 77bd
00000060: 0012 25be a9cd 43be ce72 b83d fcf7 74bd
00000070: 7d3b 01be ab1a 443e cc2f 083e e636 fe3d
00000080: f274 b4bd 5fa8 1dbd 47f0 113d c37e 23bd
00000090: 7654 ed3d 4ee5 74bd ab74 81bc 4e1f a8bc
000000a0: 6313 9ebd 04b0 09be 0851 b4bc 7cb2 8fbd
000000b0: 43d9 7dbd feb0 b9bd ebae af3d 21b1 35bd
000000c0: a667 193e c5bf 9d3d 3f81 9bbd ac40 503e
000000d0: e0f9 7abd 215c 29be 3191 1c3e c3c6 e4bd
000000e0: ae9f e33d 40e0 0f3e 61c7 80bd ecdc 9ebd
000000f0: b637 6c3d 867c be3d a818 173e 696d 5b3d
00000100: 8ac9 763c 1246 3b3e 47c0 393d dde5 22be
00000110: 2aa5 68bd 3631 d5bc ec94 8c3d feb7 40be
00000120: 1eae 47be 4acc e4bd e599 cd3c 8f80 103e
00000130: c34a 27be ddfa 9c3d 74c4 273c 8dc5 3c3e
00000140: 1d35 e0bd be5d 7abd 82c6 873d 054b 3fbe
00000150: 8ba2 c93d 4ce2 a5bd 1dce 473d 6593 fabd
00000160: 74ad 1a3e eb76 6d3d a97b c73c 9f95 c2bd
00000170: a5ef 11be eed2 7bbb bb52 0abe 8626 87bb
00000180: d5d2 323e 5cd5 133d ca01 5dbd 11b5 91bd
00000190: 57a1 a33d 530c 21be 47da 20be 5921 83bc
000001a0: 5e91 ec3d aaaa e1bd b345 ebbc 0be1 b9bd
000001b0: ac20 fa3d 6d92 bebd 0fc8 e5bc d282 d13d
000001c0: c9c9 b5bd dbd1 3e3e f02f d8bd 4fc1 89bd
000001d0: 13f4 283c 2af8 bcbd 97e7 44be a843 18be
000001e0: b5dd 34be ffe1 2f3e 516e bb3a 8e00 c6bd
000001f0: 7665 883d 01b0 283c d2d9 b2bd 0c89 0d3e
00000200: 2b93 02be 71a9 0cbe b23e 133e 5e26 e23d
00000210: feda d93d ad5e 4d3d 78b8 a8bd d078 41be
00000220: dcfb 703b 0ad3 c13d 450e cc3d 794b 0abd
00000230: b99d a3bd b076 00bc f0d3 1c3e 7071 25bc
00000240: 0d93 443e 9ecb 8ebd d547 4c3d acbe 00be
00000250: 7c16 0c3c b80c 213e
0.15431593 0.058683548 -0.046786502 0.12733263 0.052645136 -0.022879679 0.006582857 -0.09539384
-0.015662156 0.12319276 0.18716268 0.17741501 -0.1430914 -0.0052128322 0.08361623 0.12848571
-0.10382514 -0.15635075 0.10533603 -0.112798 0.18236287 -0.12270456 0.101932965 -0.060409326
-0.16120148 -0.19121422 0.09006272 -0.05980681 -0.12620349 0.19150798 0.13299483 0.12412815
-0.08811368 -0.03849065 0.035629537 -0.03991581 0.11588375 -0.059788994 -0.015802702 -0.02052274
-0.077185415 -0.13446051 -0.022011295 -0.07016465 -0.061974775 -0.09066962 0.08578285 -0.044358376
0.14980945 0.07702593 -0.07593011 0.2033717 -0.061273456 -0.1653905 0.15289761 -0.11170723
0.11114441 0.14050388 -0.062880285 -0.07756981 0.057670318 0.09301095 0.147555 0.05357114
0.015062699 0.18288448 0.045349386 -0.15907998 -0.056798138 -0.026024442 0.06864342 -0.18820187
-0.19500014 -0.111717775 0.025097797 0.14111541 -0.16337113 0.07665036 0.010239709 0.18434735
-0.109476306 -0.061124556 0.06629659 -0.18680961 0.09845456 -0.08099803 0.04878055 -0.122351445
0.1510523 0.057974737 0.024350958 -0.09501194 -0.14251573 -0.0038425284 -0.13508122 -0.0041244654
0.17463239 0.036092147 -0.053956784 -0.07114614 0.079897575 -0.15727358 -0.15708266 -0.016007112
0.11551164 -0.1101888 -0.028719759 -0.09076127 0.12213263 -0.09305272 -0.028049497 0.1023003
-0.08876378 0.18634741 -0.10556018 -0.06726324 0.010312098 -0.09227021 -0.1922897 -0.14869559
-0.176627 0.17176054 0.0014299845 -0.096680745 0.06659977 0.010295869 -0.08732952 0.1382181
-0.12751453 -0.13736512 0.14379385 0.11042474 0.106374726 0.050139118 -0.082383096 -0.18893743
0.0036771214 0.09464081 0.09963659 -0.033763383 -0.079890676 -0.007840797 0.15315223 -0.010097846
0.1919672 -0.06972431 0.049873192 -0.12572736 0.008550283 0.15727508

hidden2.weight f4 [150, 150]
00000000: ca43 90bd 0ae0 8c3d d42d 7d3d b885 743d
00000010: e89d 13bd ad49 653d efab 423c 3c75 52bd
00000020: 2905 a03d c653 acbd 246f 8e3d 0a96 ac3c
00000030: db45 5a3d 3da6 d43c 424f 9fbd 96b9 fb3c
00000040: 765a 70bd bafc 00bd 58ff b2bc ed0b 38bd
00000050: 969c 84bc 6734 683d 958c 213d 4436 61bd
00000060: e7a7 593d b469 883c cc3a e43b 2865 e73b
00000070: bf5b 25bd 7041 90bd 33ef 823c a41a 8b3d
00000080: 0a4b 89bd 2dbf 943d 4d05 233d 7ad5 5b3d
00000090: 630d 413d cbb9 7c3d 7d9b fd3b 0cdf 20bd
000000a0: fcfb 40bd 9bd2 87bd f4ab 7b3b 3ed3 2e3c
000000b0: 573c 813c d292 5abd 4ab9 5c3d ba2e 36bd
000000c0: d331 98bd d6d2 9e3d 3d6f 9c3c 71f2 803d
000000d0: b1b8 ad3b cc08 993d a8a3 acbb fb05 05bd
000000e0: 9cc2 163d 53eb 4f3c 7b71 00bd 9377 96bc
000000f0: fe81 0c3d 2ee2 5a3d 9c23 88bd fb9b 71bd
00000100: f348 533d e435 653d bc8b 36bc 2996 f7bc
00000110: 9145 d03c 18ef 813d af5b 66bd 6f53 9f3c
00000120: bdb1 393d 3c5b bb3c 0ba3 9c3d 9046 a1bd
00000130: 55d4 3f3d 8dd3 27bc b71f 25bd 4d95 873c
00000140: 1ab7 98bc b52e 933d 251b 77bd 4f6b 323c
00000150: 1543 06bd c192 353d 18a6 723d d29f 633d
00000160: 0821 c13c 64b2 9fbd 77ee 343c cba3 3cbd
00000170: 6fad d03c aa53 3b3c e8c9 8cbd 0e61 79bd
00000180: d814 34bd 9f92 99bd c7f9 01bd 4de0 fcbc
00000190: b775 303d 2538 203d ce00 7bbd 0e41 35bc
000001a0: f69c 883c faa9 aabc 7e8d a13c 5205 ecbb
000001b0: b667 99bd 8dee 8a3d 4420 7cbd 9482 1fbd
000001c0: 5be0 0e3c 7606 b63c 0c19 d93c c65b b53c
000001d0: aee4 8bbd 1917 88bd 7649 8d3d 9cfd 8abd
000001e0: d5f1 c6bc 60e2 393d b23e 733d e502 653d
000001f0: 4698 05bd b15f f03c a1ab 0f3d 8acb 70bd
00000200: c258 64bd 0448 c73b 35c0 8e3d 0637 f2bc
00000210: 2e1d ba3c 276a 6d3d 6015 3f3d fbf9 043d
00000220: 6c9b ccbc 17a1 363d 24ca a4bd 0a8c be3b
00000230: 839b 313c 84f1 99bc daa0 953d 68e8 9dbd
00000240: 924d 5fbd 3f79 8c3d 9ab8 cebc 7c77 673c
00000250: 7334 053c 9595 833d 4c9b d53b d046 49bd
00000260: d771 80bd 3a75 39bc cd74 46bd a030 eb3c
00000270: 0b81 a6bb c5bb 53bd 1837 b5bc 74bc 2cbb
00000280: 9b2d 163d 99d8 31bd 5505 a23d a53e 9abd
00000290: c4f1 bf3d 7c0f 153c f486 073d 8067 e23c
000002a0: 7012 a8bd f250 96bd 5478 ad3c 9641 96bc
000002b0: 9c74 c2bc e94e 11bd fc6b 5fbd 3782 0f3d
000002c0: a0f0 fbbc f2ba 27bd 6f1a 303d 1757 293d
000002d0: 06cf 8ebc 68e4 8ebd 1dae 213d 8a7f 613d
000002e0: 562f 06bd 5d16 f13c 0b10 1cbd 4248 903d
000002f0: c56e 813d 3d82 85bd b18b ac3c daea 2bbd
00000300: 3a55 b7bc 43cc 2b3b c529 71bd 06fa ce39
00000310: 40f1 643d 109b 06bc 21dd 3a3d f64d b0bd
00000320: 8321 bdba cf8a f7bc c8b3 1f3b c43e dcbc
00000330: 681f ffbc 72d1 a6bc 1f6a 86bd a519 ddbc
00000340: 8b78 19bd 971c a23d c2fc d8bc a799 8a3b
00000350: 1389 70bc 1537 32bd a8df bd3c 288c 49bd
00000360: 8495 fe3c 0bb3 07bd 1e40 323d ad69 263d
00000370: e3d0 a03d 194f 9d3d f019 8fbc bec0 a5bd
00000380: 77ae d9bc cdc0 88bd 4b20 5e3c 45d0 debd
00000390: 2bdb 59bc b31f a03d d4f8 3abb 3a54 b73a
000003a0: d3e4 b43d f1c6 25bd 3c59 86bd 8823 913c
000003b0: ab7a ae3d d146 e0bb 6424 86bd bc61 6d3c
000003c0: 45cd cc3c 3d01 68bd 2233 17bd de07 f5bc
000003d0: 5c1f 463d b863 b33c f8eb b63d d9c7 b73d
000003e0: db17 a93c 3265 4cbd a9b5 f9bc 82f7 afbc
000003f0: 36bb ea3b be6f 4dbd 97c1 a1bd 1296 c7bc
-0.0704418 0.068786696 0.061811283 0.059697837 -0.036039263 0.055978466 0.0118818125 -0.051381335
0.07813484 -0.08414416 0.06954792 0.021067638 0.053289276 0.025958175 -0.07778789 0.030728143
-0.05868002 -0.03149102 -0.021850273 -0.04493325 -0.016187947 0.0566906 0.03944071 -0.054983392
0.05313864 0.016651966 0.006965017 0.0070616193 -0.0403707 -0.07043731 0.0159832 0.06792191
-0.06703766 0.072630264 0.039799977 0.053670384 0.047131907 0.061700623 0.007739483 -0.039275214
-0.04711531 -0.06631967 0.0038402053 0.010670481 0.015775843 -0.053362675 0.053887643 -0.044478156
-0.07431378 0.077550575 0.019096011 0.06296242 0.005301558 0.07472381 -0.005268533 -0.032476407
0.036806688 0.012690383 -0.031358223 -0.018367564 0.034303658 0.053438358 -0.06647417 -0.058986645
0.05158324 0.055959597 -0.011141714 -0.03022297 0.025423797 0.06344432 -0.05623978 0.019448964
0.04533552 0.022870652 0.076482855 -0.07874787 0.046833355 -0.010243309 -0.04031345 0.016550684
-0.018641997 0.07186643 -0.06032862 0.010889842 -0.03277882 0.04432941 0.05924043 0.05557234
0.02357532 -0.07797697 0.011043183 -0.046054643 0.025473325 0.011433521 -0.06874448 -0.060883574
-0.04396519 -0.07498669 -0.031732347 -0.030868674 0.04308101 0.039116044 -0.061280064 -0.0110628735
0.016676407 -0.020833004 0.019720789 -0.0072027827 -0.074904844 0.06783781 -0.06155421 -0.03894289
0.008720483 0.022219878 0.026501201 0.022138488 -0.068307266 -0.066450305 0.06898777 -0.067866534
-0.024285236 0.045381904 0.059385963 0.055910964 -0.032615922 0.029342504 0.035075787 -0.05878786
-0.05574871 0.006081583 0.06970254 -0.029567253 0.022718992 0.057962563 0.046651244 0.032464962
-0.024976455 0.04458722 -0.08046368 0.005815034 0.0108403 -0.018791921 0.073060706 -0.077103436
-0.054517336 0.06859063 -0.02523451 0.014127608 0.008130181 0.06425015 0.006518757 -0.049139798
-0.06271713 -0.011319453 -0.048451234 0.02870971 -0.005081301 -0.051692743 -0.022120997 -0.0026357444
0.036664587 -0.043419454 0.07911173 -0.0753148 0.09372285 0.00909793 0.033087686 0.027637243
-0.08206642 -0.07339658 0.021175541 -0.01834182 -0.023737244 -0.035475645 -0.05454634 0.035036292
-0.030754387 -0.04094977 0.04299396 0.04134282 -0.0174327 -0.06977159 0.039472688 0.05505327
-0.032759987 0.029429609 -0.038101237 0.07045032 0.06319956 -0.065189816 0.021062704 -0.04197202
-0.022379506 0.0026214279 -0.058877725 0.00039477664 0.055894136 -0.008215681 0.04562104 -0.0860862
-0.0014429543 -0.030217556 0.0024368633 -0.026885398 -0.031142905 -0.020363543 -0.0656321 -0.026989767
-0.037468474 0.07915609 -0.026487712 0.0042297426 -0.014681119 -0.04350956 0.023177937 -0.04920593
0.031077154 -0.033129733 0.04351818 0.040628124 0.07852342 0.07681102 -0.017468423 -0.08093403
-0.02657245 -0.06677399 0.013557504 -0.10879568 -0.013296883 0.07818546 -0.002852966 0.0013986893
0.08832707 -0.04047293 -0.06559989 0.017717138 0.08519491 -0.0068443795 -0.0654991 0.014488634
0.025000224 -0.056641806 -0.036914 -0.029910978 0.04836975 0.021898136 0.08931726 0.08973665
0.020641258 -0.049901195 -0.03048213 -0.021480326 0.0071634306 -0.050155394 -0.078982525 -0.024363551

hidden2.bias f4 [150]
00000000: 0321 6dbc 4baa af3d 5f4c c23d eee9 763d
00000010: 6ecc dd3d f9ca d63c 6681 303c e9e4 16bc
00000020: a6e7 363d 2714 aabc 8687 d13d 8c0c 203c
00000030: 0c5e 83bb dce9 e03d 8229 313d 4d43 67bd
00000040: 00b3 3ebd 0baa 4b3c 4af4 8a3c f266 453a
00000050: 4380 7e3d 603b d73c 25be d63c 7b13 8ebd
00000060: 08ad ab3c fd0a a2bc 58b4 8ebb c706 873d
00000070: c49c 6fbd 2b98 84bd 7c2b 2c3c de25 903d
00000080: 1466 d73c 2769 32bd 4368 7d3c 7ce7 f03c
00000090: 85ab 203d ff03 233d e70b 88bd ae2a 933d
000000a0: 0cb4 41bc 7b18 46bc 0d66 9d3d 8d71 9ebd
000000b0: c500 31bc 376e a8bd 9ca6 613d 569b 6abd
000000c0: 343d 9d3d 4ae3 febc e7de 30bd 1379 89bd
000000d0: 0dc6 e83c 1e14 2d3d 40aa 81bd 4333 a2bc
000000e0: 070f 4dbd 24d0 79bc 91eb 93bd dc7f 01bc
000000f0: 0245 6f3d 0637 8e3d 8c51 093c 50b0 ae3d
00000100: b3aa 3abd bad6 e53c b33a 98bd 16ac 653d
00000110: fb14 b13c a78d eabb 0a98 a2bc f820 21bd
00000120: 3cb2 4dbd 31e9 36bd e22b f5bc a58a 18bd
00000130: 2694 a2bd 5af9 c4bc 78be eebb fa08 813c
00000140: 3d0f c33c 8a16 3bbd 9b04 82bd c2c4 793d
00000150: d55d 97bd 6755 7f3d 29f3 0cbd 4902 1e3d
00000160: 7617 dc3d cd2f 3cbd b388 83bd d670 083d
00000170: 455a 19bd fbdc f1bc ddf9 d7bc 29e2 78bc
00000180: 1144 523d d016 67bd 838a 5a3d b454 f4bb
00000190: 6bae d7bc 2d09 a4bd 853b 8abc 7efb e93c
000001a0: 6dae 483d be8c 993c ad49 463c 7759 893d
000001b0: d2d0 913d 833b aa3d 5627 55bd 825f b23c
000001c0: 7d6e 273d 4844 a43d 7766 503d 3858 03bd
000001d0: 8cb3 35bd 2686 98bd e7e2 8a3d 2934 cd3c
000001e0: 272b 043d e1b5 71bd 266a ba3c a76f 633d
000001f0: 5b3b 81bd 68d9 f23d 74db 91bc 534a 80bd
00000200: ad6b 13bc 2d4c ffbc 416b a7bd 1a9d 75bd
00000210: 5c44 5abb d631 943b 4cec 683d 6e71 04bd
00000220: 8158 72bd 54b8 2cbd a23f 073e e11f 9bbd
00000230: e8b2 923d 4294 6b3c 03d8 fd3b 0fc3 b53d
00000240: b6de cc3b f459 ab3d ef0c 743d 5691 36bd
00000250: 8332 5ebd 7491 753c
-0.014473203 0.08577403 0.09487223 0.060281686 0.108300075 0.026219832 0.0107730385 -0.00920985
0.04465451 -0.020761563 0.10230927 0.009768616 -0.004009014 0.10982105 0.043252476 -0.056460667
-0.046557426 0.012430678 0.01696219 0.00075302937 0.06213404 0.02627343 0.026213715 -0.06937309
0.020956531 -0.01978063 -0.0043549947 0.065930896 -0.058499113 -0.06474336 0.010508414 0.070384726
0.026293792 -0.043557312 0.015466752 0.029407255 0.039226074 0.039798733 -0.06642895 0.07185875
-0.011822712 -0.012090798 0.0768548 -0.07736502 -0.010803406 -0.08224147 0.05509053 -0.057277046
0.07677689 -0.03111424 -0.043181326 -0.06712546 0.02841475 0.042255513 -0.06331301 -0.019799834
-0.05006316 -0.0152473785 -0.07222665 -0.007904019 0.05841542 0.06944089 0.008381259 0.08529723
-0.045572948 0.028056491 -0.07433071 0.056072317 0.02161645 -0.0071579996 -0.019847888 -0.039338082
-0.050218806 -0.044655982 -0.029928152 -0.037241597 -0.07938413 -0.024044681 -0.0072858892 0.01575135
0.023810977 -0.04567579 -0.06348535 0.06097866 -0.07390944 0.062337305 -0.034411583 0.038576398
0.10746662 -0.045944024 -0.06422558 0.033310734 -0.037439603 -0.029524317 -0.026364261 -0.0151906395
0.051334444 -0.05641824 0.05335475 -0.0074563865 -0.026328286 -0.08009563 -0.016874084 0.028562304
0.04899447 0.018743869 0.012102527 0.06706517 0.071199074 0.08312132 -0.052039467 0.021774057
0.040876854 0.08020836 0.050878968 -0.032066554 -0.044360682 -0.07447462 0.067815594 0.025049286
0.032267716 -0.059011344 0.022755694 0.0555264 -0.06310149 0.11857873 -0.017804839 -0.06264176
-0.00899784 -0.031164253 -0.08174754 -0.059964277 -0.0033304906 0.0045225425 0.056865975 -0.032334737
-0.059166435 -0.042167976 0.13207868 -0.0757444 0.0716303 0.014378609 0.007746698 0.08875095
0.006252135 0.083667666 0.059582647 -0.044572197 -0.05424739 0.014988292

hidden3.weight f4 [50, 150]
00000000: 57cf 5a3c 695f 573d ed06 a33d fd37 5dbc
00000010: d5cd 523d 511a 12be 5165 d6bc 6942 a1bd
00000020: 7d04 f73b 22f3 f0bc 0c16 043d 4ba8 5e3e
00000030: ccd8 e13b c939 8e3d 00fe 53be 2c1b a7bd
00000040: 90ec 453d 663c 96bc da31 063d 019d 813e
00000050: 0801 e3bd 556b 8b3d 9529 2ebe 8106 973c
00000060: a888 8b3d 2550 033b 2a0d 503d b426 70be
00000070: 148a 1b3d 3d82 0c3d 30d7 283e 57ab 8b3e
00000080: d1b7 fdbb 6f40 0f3d 5d9f dabd 87f0 2c3e
00000090: 81fc 8a3e 232c 24be c943 d23c 46d4 2dbe
000000a0: 751a f1bd c797 a23d c9ec 413e 9117 8a3c
000000b0: a4e1 9b3e 75a5 96bc 825c 9e3e 1374 583c
000000c0: 3d8d 19bd c098 5cbe 027b 20bd f884 013d
000000d0: 0c56 763d 009f 06be 0eee 2a3d bce7 20bd
000000e0: efe1 8f3d 1ca4 42bd 47cd a33d e8aa 78be
000000f0: 5ec6 24bd 0613 8cbd c9b2 9abd 0913 31bd
00000100: 5b33 083d 4bc3 ab3e 21d3 943d b612 26be
00000110: d7ec e5bd 9433 7a3d b230 cdbc 5f0c 1cbd
00000120: 75f9 4f3d af10 0cbd a0d2 a4bd 21b1 dd3b
00000130: 437f 6a3d 8175 2f3e 5020 22bc d9f1 803e
00000140: 7709 06bd 8ed2 3abd dbf2 f73c 2fe9 553e
00000150: b698 213d 243d 01be a654 9f3d 8f47 793e
00000160: 08fc 5d3d 9c66 14bd 234f 1ebd 8b24 9f3e
00000170: de15 aabc 5173 0cbd d7ee 07bd cf9a 30be
00000180: a397 2abe ddf2 92bd b18d 90bd 2cb5 9cbd
00000190: 28ff 89bc bab2 cabb 7c19 77be 7daa 30bd
000001a0: a844 87bd 5b21 653e d778 ee3c e458 6d3e
000001b0: 07e0 883d e70a 623e 2da3 1fbd 1a9a 5bbd
000001c0: 0d07 993e afbf d8bc 3821 84be ffb3 cabc
000001d0: cc23 86bd ac2b a4bc b228 9b3e 6a4e 63be
000001e0: 8a24 96bd 7ae4 ccbb cf2c e2bd e224 0ebd
000001f0: 81f0 71bc ffbe b53d 3b36 07b7 5b23 93bc
00000200: 5983 30be 62f0 94bd 77d2 5fbe d13a 21be
00000210: ed00 5b3e d032 1abd ae90 16bd 6171 9dbd
00000220: e480 dbbc 9fea 0c3d 30bd 943d 69e2 60bd
00000230: ba0b 8b3e 8510 62be b787 b53e 0c27 82bd
00000240: c330 5dbd e1ca 2a3c 2312 3cbe 6db5 55bd
00000250: 91a1 0f3d 18ce 37bd 3ec3 84bb bf66 95bd
00000260: 52ca a5bd 57db 943d ec06 a6bd b6f7 533d
00000270: 959c 3b3d 2b9e 5ebc 4503 893d 4b13 fa3c
00000280: 3f94 40bd 9fe2 013d 2c05 72bc 5778 07bd
00000290: 860d 6a3d 8042 57bd 1de8 a03a 6a56 943d
000002a0: d272 e63b 9f57 3dbd 3938 94bd e1e1 64bc
000002b0: 5b0e f43c ab34 a33d b76d f33b 113a 33bd
000002c0: 9d62 f8bc 25fc a6bc 837f 2b3d ff30 083d
000002d0: 7a25 393d b9f9 0b3d 1673 a03b 0f02 78bd
000002e0: 8db5 5cbd 548e 30bd da77 a6bd 2b53 85bd
000002f0: 102a 843d 6320 073d 961b 41bd 355b 5bbc
00000300: 1627 093d 83d6 033d 13e2 4abd aa3f 8cbd
00000310: 32bb 9b3d 01bc 8abd 1485 2cbc 300f 9c3d
00000320: 56b1 a1bc a86c 01bd 43af 923d 075c 8bbd
00000330: 82e1 b6bc 1786 953d 0707 61bd a418 653d
00000340: ec8b 38bc 750f e9bc becc 6bbd 9f9a 37bd
00000350: ae3c 80bd 08fc 2fbd 4702 0f3d 7c98 b7bc
00000360: 7947 1bbd 5ff6 81bd 9184 54bd 9fa2 d23c
00000370: e76b 0f3d cd84 303c 565e d0bc ead4 8a3c
00000380: a387 7a3d 2f31 2dbd 226b 8fbd b7a8 ed3a
00000390: b593 6cbd 8798 833c 9baa 9e3d c69b 653d
000003a0: 70a1 1e3b 07a7 953d 0df2 5ebd 645a 3d3c
000003b0: cc30 973b ccd6 a1bd 7cbe 6e3d 9db3 9b3d
000003c0: 21b4 8dbd 475a 943d 874b 9abd 8ec9 cc3c
000003d0: 92c2 61bb d8f0 123d f8d5 4c3d 1546 7abd
000003e0: 824a 683c ece2 83bd 535d a63d 45ca 713d
000003f0: 9c10 a9bd ac2c 96bd eda9 6c3d 44b8 ddbc
0.013355098 0.052581225 0.07960305 -0.013502118 0.051465828 -0.14267851 -0.026171358 -0.07873995
0.007538377 -0.02941281 0.032247588 0.21743886 0.0068922993 0.069446154 -0.20702362 -0.081594795
0.048321307 -0.018339347 0.032762386 0.25315097 -0.11084181 0.06807581 -0.1700805 0.018435718
0.068131745 0.0020036784 0.050793804 -0.23452264 0.03797348 0.034303892 0.16488338 0.2727916
-0.00774286 0.034973558 -0.106749274 0.16888629 0.2714577 -0.16032462 0.025667088 -0.16975507
-0.117726244 0.079391055 0.18937983 0.01685694 0.30445588 -0.018389443 0.30929953 0.013211268
-0.03748821 -0.21542645 -0.03917981 0.03162095 0.060140654 -0.13146591 0.041730933 -0.0392835
0.07025515 -0.04751979 0.07998138 -0.24283946 -0.04022824 -0.06839566 -0.07553632 -0.043231044
0.0332521 0.33547434 0.07266832 -0.16218075 -0.11226814 0.061084345 -0.025047634 -0.038097735
0.05077501 -0.0341956 -0.08047986 0.0067655 0.057250272 0.17134668 -0.009895399 0.25184515
-0.03272387 -0.045610957 0.03026717 0.20889734 0.039452277 -0.1262098 0.07779817 0.24343704
0.054195434 -0.03623067 -0.03864969 0.31082568 -0.02076238 -0.03428966 -0.03318676 -0.17246555
-0.16659407 -0.07175229 -0.070582755 -0.07651743 -0.0168453 -0.0061858566 -0.24130815 -0.04313134
-0.06604892 0.22376005 0.029110355 0.2317844 0.06683355 0.22074471 -0.038973976 -0.05361376
0.29888192 -0.02645859 -0.25806594 -0.024744032 -0.065497965 -0.020040356 0.30304486 -0.22197881
-0.07331188 -0.0062528225 -0.11043703 -0.034703143 -0.014766813 0.0887432 -8.059254e-06 -0.017961195
-0.17237605 -0.07272412 -0.2185763 -0.15745093 0.21387072 -0.037646115 -0.03675907 -0.07687641
-0.026794858 0.03440344 0.07262647 -0.05490342 0.27157384 -0.22076614 0.35455105 -0.06355104
-0.05400158 0.010424347 -0.18366294 -0.052174974 0.03506619 -0.04487428 -0.004051595 -0.07294988
-0.0809523 0.07268398 -0.08106789 0.051749907 0.045803625 -0.013587515 0.06690077 0.030526778
-0.04701638 0.031710263 -0.014771741 -0.03307375 0.057141803 -0.052553654 0.0012276206 0.07243045
0.0070327306 -0.04622614 -0.07237286 -0.013969869 0.029792001 0.0796903 0.0074288505 -0.04375655
-0.03032046 -0.020383904 0.04186965 0.03324985 0.045201756 0.0341737 0.004896532 -0.06054884
-0.053884078 -0.043104485 -0.081283286 -0.06510004 0.06453335 0.03298987 -0.04714545 -0.013388445
0.03348454 0.032186996 -0.049532007 -0.068480805 0.07604064 -0.0677414 -0.010529775 0.07620084
-0.01973788 -0.031597763 0.07162335 -0.06804662 -0.022324327 0.07300966 -0.054938342 0.055931702
-0.011263829 -0.028449753 -0.057568304 -0.044825193 -0.06261574 -0.042964965 0.03491428 -0.022411577
-0.03790996 -0.0634582 -0.051884238 0.02571231 0.035015013 0.01077385 -0.025435608 0.016947228
0.06116451 -0.042283233 -0.07002856 0.0018131946 -0.057758052 0.016063942 0.07747384 0.05605676
0.002420511 0.073072486 -0.054430056 0.011557195 0.0046139713 -0.079022974 0.05828713 0.07602618
-0.069191225 0.072437815 -0.07533937 0.024998453 -0.0034448248 0.035874218 0.050008744 -0.06110199
0.01417792 -0.06439766 0.08123269 0.05903079 -0.08255121 -0.07332739 0.05777924 -0.027065404

hidden3.bias f4 [50]
00000000: bfcc 2f3d 51e3 ddba b53e a63d 1436 2bbd
00000010: b4af 333d 0a50 c73d a02a 51bd b16b 513d
00000020: 0c56 023c 0c58 04bd 91f3 09bd 3fb3 0fbd
00000030: 1e87 10bd 3700 b13d b989 50bd b9b1 3e3d
00000040: b4e7 f0bc bc25 543d cb06 50bd a8e8 92bd
00000050: b46c da3d 11f8 40bc 427f 8b3c 4297 8e3d
00000060: 552c 2f3d 7301 043c 60ac e73c b6bf 4b3c
00000070: c05b 91bd 59b9 93bd e50c 6a3d 20d0 8b3d
00000080: 29f4 f2bc 8957 37bd 943c bb3d 772b cdbc
00000090: 7387 12bd 21c2 7ebc b66a 43bd 179c b83c
000000a0: 0d56 9cbd e1d3 3dbd 1994 853b 3ef2 6c3a
000000b0: cc47 2f3d 3286 cf3d 3cc9 54bd 1f06 2f3d
000000c0: 3cd4 08bd f57d 603c
0.04291987 -0.0016928707 0.08117429 -0.04179962 0.043868735 0.09732063 -0.05106604 0.051128093
0.0079550855 -0.03231053 -0.03367955 -0.03508305 -0.035285108 0.08642619 -0.050912593 0.04655621
-0.02940736 0.0517938 -0.05078773 -0.07173282 0.10665265 -0.011777894 0.017028455 0.06962444
0.042766888 0.008056986 0.028280437 0.012435844 -0.07097578 -0.07213087 0.057141203 0.06826806
-0.02965744 -0.044761214 0.09142414 -0.02504514 -0.035773706 -0.015549214 -0.04770919 0.022535367
-0.076336004 -0.04634464 0.0040764925 0.00090387824 0.04279308 0.101330176 -0.051949725 0.042730447
-0.033405527 0.0137019055

output.weight f4 [2, 50]
00000000: 206e a33e 2391 ffbd 20fa b03e 0d6d 5ebd
00000010: e90a 9fbe d232 a93e a8d0 243d e1f8 253c
00000020: 53fc 56be d547 b73d e62e 5f3d 0d70 e3bd
00000030: 23e6 cc3d fdc0 90be b308 f83d ea03 abbe
00000040: 25b4 cb3d 2ec0 c53e 481f 49be 7cc7 d93c
00000050: 2bd7 c23e b93e 90be 4922 053e 7b6a 04be
00000060: 08eb 45be cd03 973d 0c9d 12be 7f3d 4d3e
00000070: dc27 0fbc 1f25 fbbd 1f79 93be dafb 8c3e
00000080: 4c1b 9e3d d80a f5bd 5569 3abe 608b 5e3d
00000090: 471c 423d c925 92bd d886 3a3d e465 30be
000000a0: 1aeb bb3d 1a93 d0bd 695b 3cbe b1e5 f0bd
000000b0: 368d 72be b907 a83e 8110 edbc ff1a 01be
000000c0: f054 9c3e 0cd9 abbe 2332 d1be a41c 04be
000000d0: f8ed c9be d0c1 ab3c 32cb eb3d 1526 bbbe
000000e0: f3ec bdbc c702 c7bd ba86 9a3e 190b be3d
000000f0: 7349 963a 4184 053d 1f0b b83d cb96 953e
00000100: ba70 a9bc dccb dd3d 25a0 c93d 11f8 ccbe
00000110: 0e14 383e 95ac d2bd 5ebb aebe 081a 6e3e
00000120: 9368 c2bd 2da9 7c3e aa58 443e a468 103d
00000130: 50aa 903e d9d8 b13c 2191 e7bd 44ce 92bd
00000140: 53bb 4e3e 452d 9cbe c865 013e 49f0 003e
00000150: 0011 2e3e 85dd d4bd d8bf 5bbe f8ce adbd
00000160: 97e2 e8bd 1ba6 a13e 72b5 89bd c8a8 bfbd
00000170: e959 953e 3365 00be 2007 9a3e a513 a7be
00000180: 721c c0bc 03b3 873e bd13 09be 3a4a 0c3e
0.31919956 -0.124788545 0.3456583 -0.054303218 -0.3106301 0.33046585 0.040238053 0.010130138
-0.20994692 0.08949248 0.054488085 -0.11105356 0.100048326 -0.28272238 0.12111034 -0.33401424
0.09946469 0.38623184 -0.19640839 0.02658438 0.38054785 -0.28172854 0.1300136 -0.12931244
-0.19327939 0.07373772 -0.14317721 0.2004299 -0.008737531 -0.1226294 -0.28803346 0.27535897
0.0772005 -0.11964959 -0.18204243 0.054332137 0.04739025 -0.07136113 0.045538753 -0.17226368
0.091757014 -0.101843074 -0.18394245 -0.1176256 -0.2368668 0.32818392 -0.028938534 -0.12607954
0.30533552 -0.3356403 -0.40858564 -0.1290155 -0.39439368 0.02096644 0.11513366 -0.36552492
-0.023184275 -0.097173266 0.30180913 0.092794605 0.0011465981 0.03259683 0.08986496 0.29216608
-0.020683635 0.10829899 0.09844998 -0.4003301 0.179764 -0.10286824 -0.34127325 0.23252118
-0.09492602 0.2467391 0.19174448 0.035256043 0.28254938 0.021709846 -0.11306978 -0.07168248
0.20188646 -0.30503288 0.12636483 0.12591662 0.16998672 -0.10393814 -0.21459901 -0.08486742
-0.113713436 0.3157204 -0.06724061 -0.09358364 0.29170159 -0.12538604 0.3008356 -0.32632175
-0.023451064 0.26503763 -0.13386436 0.1370019

output.bias f4 [2]
00000000: b3d4 0e3e 8047 803c
0.13948326 0.015659094
