outputs/mlp_orb_2classes.pt (torch, 132140 bytes, 8 tensors)

hidden1.weight f4 [150, 12]
000000 af 4a 18 3e 16 2d ff bd de a0 6c bd f9 9c 0a 3e
       0.1487224 -0.12459771 -0.057770602 0.13536443
000010 f5 42 8e be 57 5e 31 3e b7 18 7d bd 00 c2 15 3e
       -0.2778546 0.17321144 -0.061791148 0.14624786
000020 77 15 0c 3d 56 cd 23 bd d0 a9 a0 3d 82 f0 67 3c
       0.034200158 -0.039990745 0.07844889 0.014156463
000030 6f 08 d8 3d e8 6e eb bd e2 f8 c7 bc f8 29 f7 bc
       0.105484836 -0.11495763 -0.024410669 -0.03017138
000040 c5 a4 2a 3d e7 15 b3 3a 34 33 7c 3e 91 a1 ae 3d
       0.041661043 0.0013663144 0.24628907 0.0852691
000050 95 19 e2 bd 06 04 36 be 47 16 47 bd 66 ed 05 be
       -0.11040036 -0.17774972 -0.04860523 -0.13078842
000060 19 f0 c1 bd da f9 a7 3c a2 25 2e 3e 2b e3 20 3e
       -0.09469623 0.02050488 0.17006543 0.15711658
000070 53 58 93 be 03 4c 39 3e e1 46 a8 3d 35 ff 8c 3e
       -0.28778324 0.18095402 0.08216644 0.27538458
000080 7c b0 3a 3e f1 e3 88 be 7c 8f 8c be 23 fe 0e be
       0.18231386 -0.26736405 -0.2745322 -0.13964133
000090 7c f6 80 3e a5 22 4a bd d7 71 fd 3d 9e ce 0b be
       0.25188053 -0.049349446 0.12375229 -0.13653037
0000a0 d5 03 92 3e dd 30 fc bd 8e e7 5d 3e 27 b9 cf 3a
       0.2851855 -0.123140074 0.21670362 0.0015848026
0000b0 68 bc 1a be c2 9c 1a 3e 2a f0 1c be f8 7c b1 3d
       -0.15110934 0.15098861 -0.1532599 0.08666414
0000c0 fa 1e ad bd 04 d5 14 bd 12 dd 8c be 9c 55 0b be
       -0.08453174 -0.03633596 -0.27512413 -0.13606876
0000d0 04 38 1d 3e a8 11 8f bd 75 aa 92 3e b9 7a 6c 3e
       0.153534 -0.069857895 0.28645673 0.2309369
0000e0 45 45 84 bc 31 15 45 be 33 de 35 3e dc fa be 3d
       -0.016146312 -0.19246365 0.17760544 0.093251914
0000f0 d8 08 3e be da 62 3f 3e 39 af 35 3e 44 d7 83 3e
       -0.18558061 0.18690053 0.17742623 0.25750172
000100 37 63 25 be fe d5 3f bd 84 7e 5b bb a2 90 2d 3d
       -0.16151129 -0.04683494 -0.0033492157 0.04237426
000110 e4 7d 5f be ba 31 51 be b5 4f 23 3e 78 d6 88 bd
       -0.21825367 -0.20429125 0.15948375 -0.06681532
000120 ad 7c 18 3e 6f 23 ee 3c 55 0a cb 3d b5 cb 8d 3d
       0.1489131 0.02906963 0.0991408 0.0692362
000130 11 b8 e6 3d 0b 74 18 3e 20 11 84 be 0f 3b 1d 3e
       0.11265577 0.14888017 -0.25794315 0.1535456
000140 9d 11 4b be 7b 89 59 be 78 99 a4 3c 5a 23 3a bd
       -0.19830938 -0.21243851 0.02009271 -0.04544387
000150 c1 45 29 3e ec ac 31 be 77 b4 83 be bb d8 51 3e
       0.16530515 -0.1735112 -0.2572362 0.20492832
000160 38 6c 55 bd 54 4b 27 3e e3 54 aa 3d 9a a9 67 be
       -0.05210516 0.16337329 0.08316972 -0.22623292
000170 d5 8c 63 3d 7d eb 90 3d b4 f1 4b be 1a d4 0d be
       0.05555423 0.07076166 -0.19916421 -0.13850442
000180 8d 4a cb 3d c4 c6 54 3d 8f f6 00 be 78 03 b5 bd
       0.09926329 0.05194737 -0.12594055 -0.08838552
000190 01 16 87 3e 62 d3 66 bd 8f 3c 2d 3e c6 5a fa 3d
       0.26383975 -0.056353934 0.16917633 0.12224345
0001a0 5b 4d 3d be 3e ec 79 be 90 e4 8e 3e 35 0a 87 3c
       -0.1848654 -0.24406525 0.27908754 0.01648436
0001b0 68 df 50 3e 9e df 84 3d 80 f6 c6 3d f7 a8 62 3e
       0.20397723 0.06487964 0.09714985 0.22134767
0001c0 da 14 90 3e d0 ca 3d be ac af 1e 3d 5c e2 63 3e
       0.28140908 -0.18534398 0.038741753 0.22254318
0001d0 3b e3 59 3e 0d a0 3a 3e dc 11 53 be 6a 03 54 be
       0.21278088 0.18225117 -0.20612282 -0.20704427
0001e0 51 b0 33 be 6d 12 05 3d d3 21 96 3e e3 67 36 be
       -0.17547728 0.032488275 0.2932268 -0.17813067
0001f0 49 d2 1e 3e ee fa 21 be 6e ca 87 be 0f 8e 68 bd
       0.15509905 -0.15818378 -0.2652163 -0.056776103
000200 1a 6f 32 3e 5d 5c 8b 3e 5d 6c 30 be ef 86 92 3d
       0.17425194 0.27218905 -0.17228837 0.07154643
000210 bd 46 7a 3e b4 f6 3b 3e 11 74 36 3e 60 bd 4e 3e
       0.24441047 0.18355829 0.17817713 0.20189428
000220 e7 f8 38 3e b5 1b 94 3d 54 ee 4e be 21 53 7a be
       0.18063699 0.07231847 -0.20208102 -0.24445774
000230 92 94 07 be a5 24 13 bd 5f fc 36 be dd ff d2 3d
       -0.13240269 -0.03592362 -0.1786971 0.10302708
000240 54 b0 ba 3d 7e 3b 6f bd 46 c0 df 3d 89 c9 bd 3d
       0.09115663 -0.058406346 0.10925345 0.092669554
000250 e8 c6 32 3e 97 1f 47 3e d3 40 c8 bd dd df 90 3e
       0.17458689 0.19445644 -0.09777989 0.28295794
000260 25 45 1e bd ec d0 41 bc a1 12 8e be 9d b3 41 be
       -0.03864016 -0.011829596 -0.27748588 -0.18916173
000270 47 90 2c be c9 1b f0 bd b2 47 56 3e da 99 b0 bd
       -0.16851912 -0.117240496 0.20925787 -0.08623095
000280 b8 a2 5a be 83 6b e6 3d 0d 5e d0 3d 8e 68 46 3e
       -0.21351135 0.11250975 0.10174189 0.19375822
000290 cb 1e 12 be c6 23 8d 3d 50 cf d4 bd be 59 73 bd
       -0.14269559 0.06891589 -0.10391104 -0.059411757
0002a0 a7 25 6b be c0 1c 0b be 24 2f ad bd 20 9b 01 3e
       -0.22963582 -0.13585186 -0.08456257 0.12656832
0002b0 b3 8c 66 3d cb 54 8f 3d 7e e9 93 3e e0 5c 8f 3e
       0.056286525 0.06998595 0.28889078 0.28000546
0002c0 69 39 4f 3e bc 23 2c 3c 18 47 48 be d5 e8 68 3e
       0.20236744 0.010506567 -0.1955837 0.22745068
0002d0 7c ef 79 bd ce 1f 1d bd 1f c7 71 be 9b e6 11 bd
       -0.061019406 -0.03836041 -0.23611115 -0.035620313
0002e0 0e c7 42 be f3 a2 95 3e 61 6a 6f be 92 08 56 be
       -0.19021246 0.29225883 -0.23380424 -0.20901707
0002f0 ec 3b 1e bc 28 12 0a be 5c 6e ec 3d 4b 13 b8 bd
       -0.009657841 -0.13483489 0.11544487 -0.08988055
000300 b8 8c 0c be 76 1f 84 3c b1 52 54 3e 02 06 54 be
       -0.13725555 0.016128283 0.2073467 -0.20705417
000310 cc 25 08 3e 4b eb 3b 3e 8b 89 8d 3e 34 9c 53 be
       0.13295668 0.18351476 0.27644 -0.20665056
000320 21 ae 89 3d 2c ee 5d be 21 a8 79 3e cc fb e8 bd
       0.067226656 -0.21672887 0.24380542 -0.113761514
000330 24 34 34 3e 2f 16 1f 3c aa ba d0 bc 42 65 24 bc
       0.17598015 0.009709879 -0.025479633 -0.010033907
000340 86 a4 3c 3d 14 27 0c 3e 8a 42 35 3d a1 9f b4 3d
       0.04605534 0.13686782 0.04425291 0.08819509
000350 61 92 88 be 9a 12 53 3e 8d 0a 7e 3e 53 84 71 3e
       -0.26674178 0.20612565 0.24808712 0.23585634
000360 6c 6e 5d 3e 85 37 53 be ee fd d6 bd 43 ba 82 3e
       0.21624154 -0.20626648 -0.10497652 0.2553273
000370 12 a6 5d be bc de 86 3e 05 48 69 be 5c 8b 4c be
       -0.21645382 0.26341808 -0.2278138 -0.19975036
000380 2d ca 15 3e 44 9c 4f be fe 89 7c bd c2 24 59 3e
       0.14627905 -0.20274454 -0.061655037 0.21205428
000390 1a bb 6e 3e 90 7a 8b 3e 4f de 72 bd 65 46 66 be
       0.23313561 0.27241945 -0.05929404 -0.22487791
0003a0 dc 5d 92 3e c8 67 7a bd 32 71 f9 bd 46 31 95 3d
       0.28587234 -0.06113413 -0.121797934 0.07284789
0003b0 b8 69 52 be d1 74 41 3e 85 39 36 3e 5e 2e 6d be
       -0.20548141 0.18892218 0.1779538 -0.23162219
0003c0 fe 0e 6a be 26 4b b7 bc 6e 45 02 3e 3a 50 45 3b
       -0.22857282 -0.0223747 0.12721798 0.0030107633
0003d0 97 50 0c be 7d 15 5d 3c 29 40 86 be b5 bc 48 be
       -0.13702618 0.013493893 -0.26220825 -0.19603236
0003e0 08 0b 39 be 66 e3 7f 3e ec 1c 88 3e f9 2e bb bd
       -0.18070614 0.2498909 0.26584566 -0.09139819
0003f0 5e 01 24 3c de d0 fd 3d ab 42 0c 3d d0 13 17 be
       0.010010092 0.12393354 0.034243267 -0.14753652

hidden1.bias f4 [150]
000000 6f 92 5f 3e 5c 06 af 3d 32 73 29 be 5d e0 51 3e
       0.21833204 0.08546135 -0.1654785 0.20495744
000010 f4 39 40 be cf a7 33 3e 7b 1b 6c bd d0 24 01 3e
       -0.18772107 0.17544483 -0.057643395 0.12611699
000020 43 81 44 bc 8d 5b 09 3d 7d cb 88 bd 6e f9 d6 3d
       -0.011993709 0.033534575 -0.06679437 0.10496794
000030 17 7d 0c 3e a0 7f 7c be 47 75 80 3e c9 d9 4e be
       0.13719593 -0.2465806 0.25089476 -0.20200266
000040 e7 a0 f7 bd f0 4b 9d 3d df c7 8a 3e 85 ec 93 3d
       -0.120912366 0.076804996 0.27105615 0.07222847
000050 22 9d 10 be a3 1c 89 3d f0 38 19 be 3c d0 49 3e
       -0.14122441 0.06694915 -0.14963126 0.19708341
000060 d8 f3 38 3d 05 57 75 3d e5 a4 60 be a6 35 4b 3e
       0.045154423 0.05989744 -0.21937902 0.19844684
000070 2d 02 ab 3e 64 63 3e be d1 92 1d 3e 01 64 f6 bd
       0.33400097 -0.18592602 0.15388037 -0.12030793
000080 56 72 a2 bd 1f d5 92 3e 60 53 8c be 29 c2 23 bd
       -0.07931964 0.28678223 -0.2740736 -0.039980087
000090 04 f7 da 3d 3b ae 1d 3e 8c 2b f6 bd e3 21 35 be
       0.10691646 0.15398495 -0.12020025 -0.17688708
0000a0 2f 49 63 3d e2 87 80 be a6 a7 66 3d ae cd 2a be
       0.055489715 -0.2510367 0.056312226 -0.16680023
0000b0 e9 2b cd bc a2 40 93 3e c4 77 75 be 55 c6 0b be
       -0.025045352 0.28760248 -0.23971468 -0.13649876
0000c0 22 3f 66 be 00 0e 28 3e 13 80 81 3e 41 c3 38 be
       -0.22485021 0.1641159 0.25293025 -0.18043233
0000d0 31 42 14 3e 25 5d 4f 3e 92 aa 51 be 1e a2 14 3e
       0.14478375 0.20250376 -0.20475224 0.14514968
0000e0 da ad 05 3e 84 02 53 bd 42 2a 62 3e b8 d3 ce bc
       0.130546 -0.05151607 0.22086433 -0.02524744
0000f0 00 dd 70 bd 71 a8 57 3e 71 b8 95 be 35 d8 93 be
       -0.058804512 0.21060349 -0.2924228 -0.2887589
000100 d2 e0 c8 3d 8c e6 8e 3d f8 07 d9 3c d3 e9 12 be
       0.09808506 0.06977567 0.026493058 -0.1434701
000110 f4 ec 6f 3e e0 cf 20 be 3a 0b ea bd d3 4b 6a be
       0.23430234 -0.15704298 -0.114279225 -0.22880487
000120 4e 2b 8e be c0 5f cf 3d 5c 8a ef bd e7 8b 74 3e
       -0.27767414 0.10125685 -0.11696312 0.23881494
000130 d7 59 8a 3e 3b 04 c3 3d 43 7a 77 3e 53 57 31 be
       0.27021667 0.09522291 0.24167733 -0.17318468
000140 b5 41 fe 3d f4 ff 40 3e 75 53 e0 bd fd c6 e7 bc
       0.12414876 0.18847638 -0.10953418 -0.028293127
000150 07 ec 42 be 11 28 9e 3d ea 27 8f be ae 92 34 be
       -0.1903535 0.07722486 -0.2796014 -0.17634079
000160 9d cd 6a be 09 8f 7b bc a3 f1 53 3c 86 f2 4b be
       -0.22929998 -0.015353926 0.012936029 -0.19916734
000170 12 53 ed bd f8 55 2b 3e 63 59 8f 3b 30 d5 cf 3d
       -0.1158811 0.16732013 0.0043746694 0.10148084
000180 28 42 e3 bd 72 e2 ad bd d5 29 8c be 11 63 82 3e
       -0.11096603 -0.08490457 -0.27375665 0.25466207
000190 39 75 83 3d dd 00 20 3e fd 59 45 3e 49 84 9d 3e
       0.06418843 0.1562533 0.19272609 0.30764988
0001a0 b9 4b 33 be 3d 27 9c 3d f9 b7 71 be 67 29 97 3d
       -0.17509355 0.076246716 -0.23605336 0.07380944
0001b0 67 59 02 be a9 2d 1e 3e fc cc 35 be 59 55 54 3e
       -0.12729417 0.15447105 -0.17753977 0.20735683
0001c0 ad 2e 86 3e 71 01 40 3e 7d d5 87 be 3d 81 40 3e
       0.26207486 0.1875055 -0.26530066 0.187993
0001d0 7b 91 3b be f4 85 81 be 3f 85 45 3e a5 4c 0c 3d
       -0.18317215 -0.2529751 0.1928911 0.03425278
0001e0 25 f4 b4 bd 75 23 71 be 0b cc bf 3d 3e 28 c6 bd
       -0.088356294 -0.23548682 0.0936509 -0.09675644
0001f0 8c b3 6b be 9a ed 90 bc ea 2a 84 be a4 9d 0d 3e
       -0.2301771 -0.017691422 -0.2581399 0.13829666
000200 c7 eb 2f be 5a 9b d7 bd 45 ad 89 be f2 7e 0c bd
       -0.17179786 -0.10527678 -0.26890007 -0.034300752
000210 72 85 f5 bd b6 98 06 3e 96 78 4d bd 93 84 38 3e
       -0.11988343 0.13144192 -0.050163828 0.18019323
000220 e6 ca 89 3e 8a 17 45 3d 94 2e b9 bd 20 67 69 be
       0.26912612 0.04811815 -0.09042087 -0.22793245
000230 6d 89 42 be 53 13 8b bd 87 0a 30 be 20 a7 f7 3d
       -0.18997736 -0.06790795 -0.17191516 0.120924234
000240 7c 5e 97 bd 20 00 6b 3c 1d ed 08 3d ea 29 81 be
       -0.07391068 0.0143432915 0.033429254 -0.2522729
000250 12 27 67 3e 0b e1 d8 bd
       0.22573498 -0.105897985

hidden2.weight f4 [150, 150]
000000 60 50 8d bd 4c dd 2b 3c ed f8 a1 bd 72 e8 42 3c
       -0.06900096 0.010489773 -0.07908807 0.01189624
000010 cb bb 68 bd 6b 65 e5 bc 70 46 da bc c6 51 92 3d
       -0.05681972 -0.028002461 -0.026644915 0.07144503
000020 a9 4a 73 3d cd b5 a4 3d 11 86 93 3c 99 50 52 3d
       0.059397373 0.08042488 0.018008264 0.051346395
000030 b3 84 8f bd a6 d1 7a bd c7 a1 2a 3d 96 53 1e 3c
       -0.07007732 -0.061235093 0.04165819 0.009663483
000040 9a 07 c9 3c 2c 57 37 3d 19 a4 62 3d 54 58 0d 3d
       0.024539758 0.044760868 0.055332277 0.034508064
000050 5e 53 67 bc d8 2b cd bc e0 91 fa 3c 85 fe 81 3d
       -0.014118997 -0.02504532 0.030587137 0.06347374
000060 28 69 33 bc f6 ca 88 bc f2 cf 59 3d 78 01 54 3d
       -0.010950364 -0.016698342 0.053176828 0.051759213
000070 c9 7d 82 bc 9a 5b ca bc ed 8e b6 bd 61 49 e4 3a
       -0.01592912 -0.024701882 -0.0891398 0.0017416888
000080 95 0e b0 3c 51 30 71 bd 4b 8b 71 bd f4 81 a7 bd
       0.021491328 -0.05888397 -0.05897073 -0.081790835
000090 fe 29 76 3d 9b 61 9a 3d 53 dd 92 3d fe 4f 8c 3d
       0.06009864 0.07538148 0.071711205 0.06851195
0000a0 91 3c f3 bb da fa 0f 3d 24 09 3b 3d bf b3 68 bc
       -0.0074229916 0.03515134 0.045663014 -0.014203011
0000b0 39 ca 00 bd 6b 0f a7 3d 45 2f 0c bc 8d e7 f1 3c
       -0.031442855 0.081572376 -0.008556192 0.029529357
0000c0 0d 2f 20 bd 3e fe 35 bd 3d 94 92 bc 9a d0 d3 39
       -0.03910737 -0.044431917 -0.017892951 0.00040400476
0000d0 d0 4e 33 3d 31 f2 72 3d 8e cc a3 bb 28 97 aa 3d
       0.043776333 0.059313003 -0.00499875 0.08329612
0000e0 7e ea ff bc 58 d5 b3 3b c0 56 57 bd c9 6d 9f 3c
       -0.031239744 0.005488079 -0.052572966 0.01946153
0000f0 eb f3 97 3d 62 9e 83 bd 3e 63 87 3c e5 4c 81 bd
       0.074195705 -0.064266935 0.016526815 -0.063134946
000100 df 25 6f bc 0b dd 33 bd 9c 6b cb 39 3b 02 8a bd
       -0.0145964315 -0.043911975 0.00038799352 -0.06738707
000110 3a 7b 9a 3c 51 d3 95 bd 74 0b 63 3c 74 83 17 bd
       0.018857587 -0.07315696 0.013857711 -0.036990598
000120 d1 93 66 bd 2f 76 96 3d 73 79 e6 3b 1d 27 8e bd
       -0.056293312 0.073467605 0.007033521 -0.06941054
000130 c6 28 41 bd f9 f8 0e bd 5d c9 4d bd d7 6f 40 3c
       -0.047158025 -0.034905408 -0.050240863 0.011745415
000140 40 a7 96 3b d4 64 8f 3d 81 b5 06 bc ac a6 43 bd
       0.0045975745 0.07001653 -0.008221985 -0.047766373
000150 91 5b 90 3d 8c 3a 82 3c 7e 40 a5 bc 7c 97 71 3d
       0.07048715 0.015897058 -0.020172354 0.058982357
000160 93 37 60 3d 1a a3 9d bd 34 41 89 bd a5 42 83 bd
       0.0547405 -0.07697125 -0.0670189 -0.06409196
000170 05 60 95 bd e0 4e e4 bc be 7e e5 3c d8 d8 a6 bd
       -0.07293705 -0.027869642 0.028014537 -0.081468284
000180 64 59 97 bd 3c fd 8f bd ce a0 3b bd 83 a2 4c 3d
       -0.07390097 -0.070307225 -0.045807652 0.04995967
000190 bf fb 8e 3d f9 0b af 3d a9 96 28 3a b2 5f a1 bd
       0.069816105 0.085472055 0.00064311415 -0.078795806
0001a0 7c bd a0 3d 94 59 71 bd ae 89 4f 3d 4b ff 23 3d
       0.07848641 -0.05892332 0.05066841 0.04003839
0001b0 64 49 bc 3c 34 aa b7 3c 3c f1 a0 bd e8 d3 21 bd
       0.022984214 0.022420026 -0.07858512 -0.03950873
0001c0 fa 89 66 bd 0b df 5f 3d 98 19 44 bd 3c 55 4e b7
       -0.05628393 0.05465607 -0.04787597 -1.2298402e-05
0001d0 61 a1 94 3d e2 44 73 3d 05 87 6a bd 06 5b 8b bd
       0.07257343 0.059391864 -0.05725767 -0.06804471
0001e0 3d c7 85 3d f0 2e 05 3d b0 29 9a bd 8c 1e 85 3d
       0.06532142 0.032515466 -0.075274825 0.06499967
0001f0 d4 5d 8e bd f5 a3 88 3d 33 c2 67 3d ac ca 5a 3d
       -0.0695149 0.06671897 0.056581687 0.05341594
000200 89 df a5 bc 93 22 cb 3b 27 67 9e bd e8 3a 36 3d
       -0.020248191 0.00619919 -0.077345185 0.04448977
000210 ec 8f d7 3a be d7 77 3d 72 1a b7 bc 61 fd 9d 3d
       0.001644609 0.060508482 -0.022351477 0.07714344
000220 fc 6d 4d 3d 12 80 b1 bc 7c 15 2c 3d 23 2b 6c bd
       0.050153717 -0.021667514 0.042012677 -0.057658326
000230 eb 1e 67 bd a3 18 86 bd e1 2e 49 bd bc 3e b4 3c
       -0.05642597 -0.06547668 -0.049116973 0.02200257
000240 7f e9 30 bd 8a d1 f0 bc 62 43 71 3d 9d 9d 24 3c
       -0.04319143 -0.029396791 0.058902152 0.010047344
000250 31 16 1a bd b3 f2 c8 bc 4a 1d a9 bc a5 7e 59 3d
       -0.03761882 -0.02452979 -0.020643849 0.053099293
000260 cb 35 7d 3d e8 a7 8e 3d 65 46 e2 bc f4 86 67 b9
       0.06181888 0.06965619 -0.027621457 -0.0002208015
000270 a4 11 ab 3c 12 ac 58 bb 73 91 94 3d 54 b4 7c bc
       0.020882435 -0.0033061546 0.07254305 -0.015423853
000280 71 a4 24 3c f1 54 94 bd c7 e8 71 3d 15 84 30 bd
       0.0100489715 -0.07242764 0.059059884 -0.043094713
000290 ee 96 93 3a 4c af 4b bd 44 f4 82 3d 7d 3f e2 3b
       0.001126019 -0.049727723 0.06394246 0.006904541
0002a0 08 09 21 3d 31 f3 64 bd 8d 34 09 3d 01 8d 03 3d
       0.039315253 -0.055895988 0.033497382 0.032116894
0002b0 e8 50 6b 3d c5 b9 a9 3d 80 9d 17 3c 8a 48 bf bb
       0.057450205 0.08287386 0.0092538595 -0.0058375048
0002c0 e3 56 3e 3d 78 f4 c2 3b a4 33 dd bb 40 15 a0 bd
       0.04646958 0.005949553 -0.006750541 -0.07816553
0002d0 47 cb 82 bd c1 82 32 bd d0 e3 27 3c 1b e8 bf 3b
       -0.06386428 -0.043581728 0.010247186 0.0058565265
0002e0 05 0b c8 3b a7 a7 10 3d 35 3d f3 bb 14 fb a6 bd
       0.0061048293 0.035316136 -0.007423068 -0.08153358
0002f0 28 44 9e 3d cf 6d 65 bd 4f c1 89 bb 9e b1 42 3d
       0.077278435 -0.056012925 -0.0042039524 0.04753267
000300 ab 40 54 3d 1c 55 83 bc 24 9f 93 bd 77 ed c1 3d
       0.051819485 -0.016031794 -0.07208088 0.09469121
000310 60 7c 18 3b 82 47 b7 3d e4 2f 29 3d c7 47 0e 3d
       0.0023267493 0.08949186 0.041305438 0.03473642
000320 5c f1 a5 3c 56 bf ac bc 82 78 4f bd 16 d5 c0 3c
       0.02025669 -0.02108733 -0.050652035 0.023539107
000330 05 56 cb 3d a3 c2 a6 3d 47 ee a3 3d d8 d1 9c 3d
       0.09928516 0.08142593 0.08004432 0.07657212
000340 df 8f 86 3d 23 7a 18 bd 51 97 31 bd 1d 09 63 3c
       0.0657041 -0.037225854 -0.043357197 0.013857153
000350 d9 6d 32 bd 0b 91 b6 bc 73 40 1b bc fe 78 ba 3d
       -0.04356179 -0.022285959 -0.009475815 0.09105109
000360 81 24 f0 bb 4e b1 b3 3d 01 82 84 bd 23 1f 91 bd
       -0.0073285704 0.087740526 -0.06470109 -0.07086017
000370 ab af d9 3c cd ef b0 3c 21 bf 32 bc 9e 76 80 bc
       0.026573023 0.02159872 -0.0109098265 -0.015681561
000380 86 f6 91 3c 9e 43 28 3d 9f 72 55 bc 75 1d 1a 3d
       0.017817747 0.04108011 -0.013027816 0.03762575
000390 42 ab 14 bd f0 c2 6e 3d ad ad 45 bd 5d 2c db bc
       -0.036296137 0.058291376 -0.048261333 -0.026754552
0003a0 fc cc 3d 3d ec ea 98 3d 5b 47 e9 bb 60 7b 19 bd
       0.046338066 0.07466683 -0.007119102 -0.037471175
0003b0 31 09 ca 3a 97 98 10 bd 4e c6 52 bc e9 5d d5 bb
       0.0015414116 -0.03530177 -0.012864662 -0.006511439
0003c0 14 32 84 3c 27 8e 4f bb 02 55 6c bd 49 f8 df bc
       0.01613716 -0.0031670423 -0.057698257 -0.027340071
0003d0 8e e7 95 bd 30 ce 95 bd 32 ee 83 3d 9e dd 3a 3d
       -0.07319556 -0.07314718 0.064419165 0.045621507
0003e0 a3 2c 7c 3d 60 bc c1 3b 61 e7 bb bc dc da 2c bd
       0.061566006 0.0059123486 -0.022937478 -0.042200908
0003f0 da 10 3e 3d 7d 9d 93 bc a7 de 7c 3d b7 cf f3 bc
       0.04640279 -0.018019432 0.061735775 -0.029762132

hidden2.bias f4 [150]
000000 de c0 33 3d bd 0e 2d bd 76 70 84 3d 16 6e 59 3c
       0.043885104 -0.042250384 0.06466763 0.013270875
000010 c6 c1 81 bd d9 7d 8b 3d ef 0d 62 bd bc dd e3 3d
       -0.063357875 0.06811113 -0.05518907 0.11126277
000020 f4 d2 f4 bb 44 90 e3 bc 23 e7 cc 3b 4e ce 5f 3d
       -0.0074714366 -0.027778752 0.0062531396 0.054640107
000030 03 71 87 3d a5 9f 27 bd 85 8a c8 3d 6e 12 a0 bd
       0.06613352 -0.040923733 0.097920455 -0.07816015
000040 10 6d 73 3c ba 9c c0 3d b3 d9 cd bc a8 5d 8a 3d
       0.0148575455 0.09404893 -0.025128221 0.06756145
000050 e7 05 86 bd 5a 60 66 3c 64 39 90 3c c9 24 9d 3b
       -0.065440945 0.014061058 0.017605491 0.004795645
000060 05 23 4c 3d 5c c3 30 bd eb ed d6 3a 69 b3 0a bc
       0.049838085 -0.04315506 0.0016397809 -0.008465626
000070 72 7a f2 bc d8 49 74 3d 17 45 0b 3d 5e 91 c4 3b
       -0.029599402 0.059640735 0.034001436 0.0059987744
000080 9f ea 93 bc 86 fa a7 bb 54 56 e6 3c f4 cd 8d 3d
       -0.018056212 -0.0051263003 0.028117336 0.06924048
000090 e2 9a 19 3b 8f c7 dc bc 9c 87 fd 3b 8c 04 70 bd
       0.0023438265 -0.026950626 0.007737113 -0.058598086
0000a0 72 00 91 bd 0c af b9 3d 17 06 7c bd 8b eb 3b 3d
       -0.07080163 0.09066591 -0.061529245 0.04587893
0000b0 27 75 b1 39 16 17 06 3e 35 f9 9d bb 42 13 56 bd
       0.00033847356 0.13094744 -0.0048209676 -0.05226446
0000c0 cb cc fc 3d ee db ba 3c 5a 98 e9 3d 23 3d de bb
       0.12343749 0.022809949 0.11406012 -0.0067821904
0000d0 74 f8 88 3d 2d e1 f9 3d 71 19 7e 3d 6d e2 44 bd
       0.06688014 0.12201152 0.06203598 -0.0480675
0000e0 64 64 71 3d 8f 76 80 bd 63 7a cc bc ac 9a 49 3d
       0.05893363 -0.06272613 -0.024960702 0.049219772
0000f0 49 43 b8 3c 7f 77 7b 3d 9a 8e 5b bd 04 13 85 3d
       0.022493022 0.061393257 -0.053602792 0.064977676
000100 2d 3c 99 3b 4c de b4 3d ab 03 a3 3b 34 61 8e 3d
       0.004676363 0.08831462 0.0049748025 0.06952134
000110 82 ca a6 bd 77 10 a5 3d bc 3e da 3c e9 51 82 bd
       -0.08144094 0.08059781 0.026641242 -0.06363279
000120 09 f6 5a 3d f4 fb 1d 3d 47 6c 53 bc 43 d8 ad bd
       0.053457294 0.03857036 -0.012904233 -0.08488514
000130 73 0e f4 3c cb 70 9f 3d d5 3b 9c bd 0a c1 21 3c
       0.029792046 0.077851854 -0.076285996 0.009872684
000140 44 32 d5 3d 0c f2 5d 3d 6e da 30 3d f1 df 95 3d
       0.10409978 0.054185912 0.04317706 0.07318104
000150 c0 07 ee bc d5 29 d8 bc ca 61 82 3d 42 3c 3d bd
       -0.02905643 -0.026387135 0.06366308 -0.046200044
000160 17 66 4d 3d 76 9e 65 3c db 3d 16 bd 84 2b 07 3d
       0.05014619 0.014014831 -0.036680084 0.033000484
000170 d2 a9 82 3d 5f 85 6b bd f8 9f 25 3d 66 44 bb 3c
       0.06380047 -0.05750024 0.04043576 0.022859763
000180 90 d9 9b 3c c8 49 1d 3d 00 61 1f 3d ab 48 49 3d
       0.01902464 0.03840044 0.038910866 0.049141567
000190 f8 f7 70 bc 7b d6 b5 3d 3a 0a b2 3d d5 64 77 bd
       -0.014707558 0.088787995 0.08693357 -0.060398895
0001a0 3e e8 93 bd d0 cf 5b 3d c8 e2 88 3d 7c 64 21 3d
       -0.07222031 0.053664982 0.0668388 0.03940247
0001b0 4f 87 d2 bc 48 bb fe 3d 19 c0 6e 3c 18 18 2b 3d
       -0.025699286 0.12438065 0.014572167 0.041771024
0001c0 e3 1e 57 3d ff 04 ab bc 15 83 06 3d d8 b7 45 bd
       0.05251969 -0.020876406 0.032839853 -0.04827103
0001d0 12 9f cd 3d 93 65 70 bd 9b 86 53 3d 74 0f 0c bd
       0.10040106 -0.05869062 0.05164204 -0.034194425
0001e0 9e af 52 3b 61 08 e0 3c fb 14 07 3d 56 57 de 3d
       0.0032148133 0.027347745 0.032978993 0.10856502
0001f0 23 15 04 3b e0 3d 26 3c 90 c7 3b bd 44 f7 35 3d
       0.00201542 0.010146588 -0.045844615 0.044425264
000200 f9 45 51 bb 7a 76 9d bd c9 69 1c bd f1 8b 1e bd
       -0.0031932576 -0.07688613 -0.038186822 -0.038707677
000210 57 3b f6 bc 2f a7 23 3d 03 a3 4f bd 81 b8 7a 3d
       -0.030057592 0.03995436 -0.05069257 0.061211113
000220 36 ac 48 bb 47 f0 89 bd f4 83 aa 3c fc 17 1b bb
       -0.0030620224 -0.067352824 0.020814873 -0.002366542
000230 66 5d 06 3d eb cd 42 3b f0 f5 01 bd 7f 1c 7f bd
       0.032803915 0.0029724787 -0.031728685 -0.062283035
000240 8f 07 a4 3d 0b 62 2f bd 14 20 83 bc 07 5f 8b 3d
       0.08009254 -0.04281811 -0.016006507 0.068052344
000250 0e 9d a1 3d 7c 70 bf bc
       0.07891284 -0.023369066

hidden3.weight f4 [50, 150]
000000 48 4e 8d bd 13 80 b8 3c e1 61 d1 3d 82 93 91 bd
       -0.068996966 0.022522008 0.10223747 -0.07108213
000010 71 92 9a 3d 97 05 27 bd fa 8b 28 3d a2 19 a0 3d
       0.07547463 -0.040776815 0.041149117 0.07817389
000020 00 5f 0e 3c 2d 3f c3 bc 57 94 86 3d e5 68 de 3d
       0.008689642 -0.023833835 0.06571262 0.10859851
000030 19 44 75 3d f6 12 3f bc 6a 0a 60 3d 44 9b 86 bd
       0.059879396 -0.0116622355 0.05469743 -0.06572583
000040 4e f1 30 3d 35 cd c5 bc cb ce 96 bd 8f 49 71 3d
       0.043198876 -0.024145702 -0.073636614 0.05890804
000050 7c 72 22 bd 77 0e 2e bd 5b 76 7f 3b 43 d0 8b 3c
       -0.039659962 -0.042494263 0.0038980457 0.01706708
000060 fc 27 47 bd 49 94 f1 bc 36 4d a9 bb 40 34 79 bd
       -0.048622116 -0.029489653 -0.005166675 -0.060840845
000070 9b fc 30 bd 81 71 92 3d cc f6 dc 3d 13 4a 9e bd
       -0.043209653 0.071505554 0.1078926 -0.07728972
000080 a4 44 6b bd 9e 8c b0 3c aa d8 ce 3c 3c c9 6c 3c
       -0.057438508 0.021551427 0.025249798 0.014452275
000090 18 86 95 3d 14 bd 88 bd 43 6b 26 bd b7 6d 6a 3c
       0.07300967 -0.06676689 -0.040629636 0.014308385
0000a0 1c c7 1e 3d 08 95 31 bd 6d 0b 23 bd 11 2c 3a bd
       0.038764104 -0.043355018 -0.03980582 -0.04545218
0000b0 4f e9 c7 bc 39 84 69 3c 39 a5 bf bc bd f0 f0 3c
       -0.024403242 0.014252716 -0.023394214 0.029411668
0000c0 5d 60 f1 3d 46 68 e7 3c 4a 0b 8c bd 43 5d ab 3c
       0.11785958 0.028247964 -0.06838091 0.020918494
0000d0 47 5c 81 3d 20 24 55 3d 97 16 a3 3d e8 1a 8d bd
       0.06316429 0.052036405 0.07963293 -0.068898976
0000e0 61 32 9b bc 88 b9 db bc 81 6e 5e bd 03 60 47 3d
       -0.018944921 -0.026821867 -0.054304603 0.04867555
0000f0 7e 7c 4a 3c 65 13 b4 bc f5 4c da 3c 59 92 56 3d
       0.012358783 -0.021981904 0.026648024 0.05238566
000100 dd 54 5a bd cf f2 7e 3d d3 8e 42 bd cf 3c 59 bd
       -0.05330359 0.06224328 -0.04749949 -0.053036507
000110 5f 13 d2 3c 72 d7 31 3d 99 af 8a 3d de 29 84 ba
       0.025644002 0.043418355 0.06771774 -0.0010083278
000120 42 71 48 bd d0 1b a5 3d 88 3f 26 3d 11 ac 2b bc
       -0.048936136 0.080619454 0.040587932 -0.010478036
000130 5a 00 62 bd 51 e7 4d 3d 2f bc e4 bc 9b 59 82 bd
       -0.055176117 0.05026943 -0.027921764 -0.06364747
000140 9a 26 04 3d f8 97 9b 3c 6f c7 56 3c f0 e0 9b 3d
       0.032263376 0.018993363 0.013109072 0.07611263
000150 a5 13 0c 3d cd e3 10 3d e7 13 11 3d 9e 4f ea bb
       0.034198422 0.035373498 0.03541937 -0.0071506044
000160 41 ac 36 3d 0e fc 98 bd 16 72 95 bc 0c 9f 63 3c
       0.044597868 -0.074699506 -0.018242877 0.0138929
000170 36 a7 79 3d ec 98 68 bc 88 31 3e 3d e8 2e cb 3c
       0.06095048 -0.014196616 0.046433955 0.02480264
000180 10 41 50 3c 71 c9 3b bd ac 4f 4f bd 39 ca 97 3d
       0.012710825 -0.045846406 -0.05061309 0.07411618
000190 a5 cb 42 bd 24 a2 82 3d a9 8f b0 3c 56 a4 65 3d
       -0.04755749 0.06378582 0.021552878 0.056064926
0001a0 75 57 4c 3d d1 72 72 bd 0f 8b 2e bc 2c fe 8d bc
       0.049888093 -0.05919153 -0.010653271 -0.017333113
0001b0 f3 25 16 3c a8 f2 94 3d e7 31 4c 3d 83 96 25 3d
       0.009164321 0.072728455 0.049852278 0.040426742
0001c0 14 41 8e 3d 38 09 5a 3d 86 9e 88 bd 3e 21 6c 3c
       0.069460064 0.053231448 -0.06670861 0.014412222
0001d0 9b e5 99 3d f0 f6 8c 3d 16 c1 0b bd 4c b8 50 3d
       0.07514497 0.06883037 -0.034119688 0.05095701
0001e0 4a 62 49 3d f7 86 b7 3b 1f 0e 7c 3c 6f 43 00 3d
       0.049166 0.005600806 0.015384226 0.03131431
0001f0 e4 8d 90 bd 80 87 f6 3c b9 61 2a bb e7 a8 85 bd
       -0.070583135 0.030093908 -0.0025998189 -0.06526356
000200 46 19 35 bd ab 1d 93 bd 0d eb e7 bc e8 8a 36 bc
       -0.044213556 -0.07183393 -0.028310323 -0.011141516
000210 1d 39 9b bd 50 9d 8a bd 89 cc 8e 3d 80 48 71 3d
       -0.07579253 -0.06768286 0.06972606 0.058907032
000220 ef c2 b5 bc 77 1b 76 3c 84 6c 9a 3c a6 5a 87 3d
       -0.022187678 0.015021197 0.018850572 0.06609087
000230 cb 64 fc bc 85 f5 04 bc 10 82 5f 3c b9 4a 3a 3d
       -0.03080978 -0.008115177 0.013641849 0.045481417
000240 da 4b ae 3c 97 1d 62 3d ac aa a1 3d 04 1a 2d 3d
       0.021276403 0.055204 0.07893881 0.04226114
000250 98 9a 2b 3d 89 dc 2a bc ab 34 7c 3c d7 e3 67 3c
       0.04189548 -0.010428556 0.015393416 0.014153442
000260 85 2b 01 b9 ab 27 22 3b 12 2b e9 3c f0 00 2c bc
       -0.00012318611 0.0024742882 0.02846292 -0.01049827
000270 3e 2f 03 3d 31 86 fe 3c 54 a4 00 bd 81 29 5f bd
       0.032027476 0.031069847 -0.031406716 -0.05448294
000280 a2 0f 3f bd ac 40 be 3d e4 7f 93 bc ed 72 f6 bc
       -0.046645768 0.09289679 -0.018005319 -0.030084098
000290 07 d1 b5 3c bd 04 86 3c d7 10 31 bd f2 49 39 3c
       0.022194399 0.016359681 -0.04322895 0.011309134
0002a0 9e ec 77 bd e4 df bc 3d 74 77 19 3d d9 00 45 3d
       -0.06052839 0.09222391 0.037467435 0.04809651
0002b0 6b 74 fb bc 67 f0 4b bd 0a 02 df bc 06 2d ed bc
       -0.03069516 -0.049789812 -0.027222652 -0.028952133
0002c0 2e bf 7a bd 18 61 90 3d 47 6e 45 3d a3 d8 10 3d
       -0.06121748 0.07049769 0.04820087 0.03536285
0002d0 a4 fc a8 3a f8 f4 f7 bc e5 3a 60 bc e1 cb 4b bd
       0.0012892676 -0.030268177 -0.013685917 -0.04975498
0002e0 20 26 9f bb f1 96 26 3d c8 d7 60 bc 0e 2c 97 bd
       -0.00485684 0.040671293 -0.013723321 -0.0738145
0002f0 4b e6 99 bd a8 e5 3a 3d db 14 02 3c 61 fb 26 bd
       -0.07514628 0.045629174 0.007939543 -0.040767077
000300 21 59 38 bc ee 0b 14 bd cf d0 2c bd 65 99 f2 bc
       -0.011251719 -0.03614419 -0.042191323 -0.02961416
000310 98 a3 89 bb ae 7e 19 3d 9b d2 e7 bc 89 54 73 bc
       -0.00420041 0.037474327 -0.028298667 -0.014851698
000320 65 b9 7f 3d 36 09 90 3d 15 2c e9 3c ea 06 d5 3d
       0.062432665 0.07033007 0.028463403 0.104017094
000330 70 e2 a4 bc ce c3 0c bd 4a 29 8d 3d 66 0c 39 bd
       -0.020127505 -0.03436642 0.06892641 -0.04517784
000340 5d 05 f4 bc dc 02 c8 bc 53 40 ae 3c f7 2e 75 bc
       -0.029787714 -0.024415426 0.021270907 -0.014964811
000350 e3 2e ec bc 85 25 f4 3c 01 19 19 3d 27 f0 1b bc
       -0.028830951 0.029803047 0.03737736 -0.009517706
000360 2c 42 86 3d d6 69 a9 3c 5a 1c 12 3d 7f 2e 95 3d
       0.0655559 0.02068035 0.03567157 0.07284259
000370 41 5c 6e 3d 53 1a 51 bd 57 54 31 3c ec ca 1e 3d
       0.05819345 -0.051050495 0.010823331 0.03876774
000380 2c 18 10 3b e8 68 55 3d 44 91 a6 bc 21 05 8d 3d
       0.0021987064 0.052102 -0.02033294 0.06885744
000390 6d a3 8b bd 94 9b 49 3b 94 f5 5e 3c 9b 7b 9a 3d
       -0.0681828 0.0030762898 0.013608355 0.07543107
0003a0 dc 05 36 3c 5e b4 8a bc ea 4f 0c bc fb ce 6f 3d
       0.011109795 -0.016931709 -0.008563975 0.058547
0003b0 f7 d6 85 bd 34 14 18 bd c7 ce 92 bd 26 9e b5 3b
       -0.06535142 -0.037128642 -0.07168346 0.0055425344
0003c0 52 70 96 3d c8 d2 dc 3c a9 4d 5c 3d 4e be b2 bd
       0.07345642 0.026955977 0.053785 -0.08727704
0003d0 db 65 9b 3d 15 72 92 3c b8 6f a8 3c a5 e7 ce 3c
       0.07587787 0.017876664 0.020561084 0.025256941
0003e0 4c 82 8e bd 45 81 53 3d e6 83 63 bd ea dd 35 3c
       -0.06958446 0.051636953 -0.05554571 0.011100272
0003f0 8b 62 3c bd 82 73 8f 3c 72 d5 dd bc 70 c9 6f bd
       -0.045992415 0.017511133 -0.027079318 -0.058541715

hidden3.bias f4 [50]
000000 b4 46 8c 3d b7 60 a4 3d d1 25 a4 3d 8d 37 91 3d
       0.06849423 0.080262594 0.080150254 0.070906736
000010 0e 9c 57 3d cb 95 4b 3d e4 67 3c bd 51 5a 9d 3d
       0.05263906 0.0497034 -0.045997515 0.07683242
000020 03 81 06 bd c1 d6 cd 3d a7 e8 a2 bd 3a ac a4 3d
       -0.03283788 0.10050727 -0.07954531 0.08040662
000030 d9 f4 a9 3d ef 76 df 3c 17 86 87 bd 40 a9 98 bc
       0.08298654 0.027278392 -0.066173725 -0.018635392
000040 91 46 13 3d 26 ed e6 3c 18 32 61 bd c9 a0 ca 3c
       0.03595597 0.028189253 -0.054979414 0.024734871
000050 29 af 30 3c b2 0a e1 bc 34 96 7a 3d 52 5f c7 bc
       0.010783949 -0.02747092 0.0611784 -0.024337444
000060 63 e2 5b bd dc 04 24 bc 37 a7 79 bd d1 47 e7 bc
       -0.053682696 -0.010010924 -0.060950484 -0.028232487
000070 5f 74 b3 3d 50 44 53 bd 5b 9a c7 3d d1 20 df 3b
       0.087624304 -0.05157882 0.09746238 0.006809332
000080 6e 0a 70 bd bd 94 d2 3c a5 09 8a bd ef bd da 3c
       -0.058603697 0.02570569 -0.06740121 0.026701896
000090 0d 1a 7c 3d cb 94 c1 3c 0b 31 13 3d be af 5e bd
       0.06154828 0.02363052 0.035935443 -0.05436682
0000a0 ca 29 63 3d da 9c 9c 3d e6 7a e7 3d 47 81 a2 3d
       0.055459775 0.076471046 0.11302738 0.07934814
0000b0 9a 80 95 3d 46 e2 c6 bc df e1 b2 3c 8e 12 16 bd
       0.072999194 -0.024277817 0.02183622 -0.03663879
0000c0 00 7f 89 3c 07 b1 27 3c
       0.016784191 0.010235078

output.weight f4 [2, 50]
000000 38 55 8e 3d d2 1a d5 bd 37 db a1 3d 0f 96 05 3e
       0.06949848 -0.10405506 0.0790314 0.13045524
000010 4e a2 bd bd 7d 55 28 3d a6 59 73 3d 9d 1d 79 3d
       -0.09259473 0.041097153 0.059411667 0.060819257
000020 6a c0 bb bd d5 00 18 3e fa 6b cd bd 3b f1 a6 bd
       -0.091675594 0.14844067 -0.100303605 -0.0815148
000030 8f c5 7b 3d d5 cc a7 bd 56 bf 60 3d e2 e3 2c bd
       0.061467703 -0.081933655 0.054869972 -0.042209513
000040 7c 1b d1 3d c0 ce 5f bd a5 18 10 be 2a 29 ea bd
       0.1021032 -0.05464053 -0.14071901 -0.11433633
000050 88 81 cc 3d 51 d3 da 3d d8 12 e0 bc 5d ec 89 bd
       0.099856436 0.10684837 -0.027352735 -0.06734536
000060 6a 32 ce 3d 13 48 fa 3d 64 0b ca bc df 59 f3 ba
       0.100682095 0.12220778 -0.024663635 -0.0018566212
000070 ec 1b 2b 3e a4 1f 10 be c4 91 ba 3d 30 49 3d 3d
       0.1670987 -0.1407457 0.09109834 0.046212375
000080 f1 06 9b 3d 17 90 8d 3d 70 1b ea 3d 94 04 60 3d
       0.07569683 0.069122486 0.114310145 0.054691866
000090 a5 ce aa 3b 10 0a 92 bd ae 03 74 bd cc 9a 01 3c
       0.005212622 -0.071308255 -0.05957382 0.007910442
0000a0 75 42 09 3e f3 96 20 3e f3 60 f0 3d 9c af 06 3e
       0.13404258 0.15682583 0.117372416 0.13152927
0000b0 56 3d ed 3b cd ee 09 3e 65 ca d0 bc ba 71 c4 bd
       0.007239978 0.13470002 -0.025487134 -0.09592004
0000c0 21 f1 c6 bd 86 64 92 bd 87 a6 c3 bd b5 55 d9 bd
       -0.097139604 -0.071480796 -0.09553247 -0.106120504
0000d0 3b b1 e9 bb 9d a1 b2 bc 62 2b ac 3d 14 07 42 bd
       -0.007131723 -0.021805579 0.08406712 -0.04737003
0000e0 7a 7f 0c 3e 50 5f e1 bc 89 5d 9b bd 28 f4 28 be
       0.13720503 -0.027511269 -0.075862 -0.16499388
0000f0 35 42 50 3b 9b b8 b6 3d 44 5e 0c bb 24 a7 b6 3d
       0.0031777744 0.089219294 -0.0021418491 0.08918598
000100 6d 30 f2 bd 04 7e bf 3d 0d 8d bf bd 2c 09 f2 3d
       -0.11825643 0.093502074 -0.09353075 0.11818156
000110 c0 2a a9 3c 53 46 b4 bd 55 cc f8 3d d5 11 3f 3d
       0.020650268 -0.08802476 0.12148348 0.046647865
000120 5c 58 e7 3d a9 2f ac bd 5e 41 b6 3d 4c 57 8e 3d
       0.1129615 -0.08407528 0.088991866 0.06950244
000130 8c 2a 5b 3b b3 36 02 be a0 8d 89 3d 37 ed 47 bd
       0.0033442108 -0.12716179 0.06716466 -0.04881021
000140 9d b6 07 be 9a 0b 37 be c6 48 d8 3d ea 52 2f be
       -0.13253255 -0.1787552 0.105607554 -0.17121473
000150 e6 96 1c bd e6 ff 03 bd b7 11 0f 3d 05 ea 09 3d
       -0.038229845 -0.032226466 0.034929004 0.033670444
000160 cc 3a 00 3e 6d d8 99 bc 1b 55 8b 3d 3e b6 62 3d
       0.12522429 -0.018779958 0.06803342 0.05534958
000170 a1 84 26 bd e9 49 2a bd c2 fe 01 be c4 09 b3 bd
       -0.04065383 -0.041574392 -0.12694839 -0.08742097
000180 fd 39 16 be eb a7 bb 3d 0c 0b ad 3d f3 ca 12 bd
       -0.14670558 0.09162887 0.08449373 -0.03583808

output.bias f4 [2]
000000 c4 63 ec bd 95 7e 0f be
       -0.11542466 -0.14013131
