outputs/mlp_sift_2classes.pt (torch, 132152 bytes, 8 tensors)

hidden1.weight f4 [150, 12]
000000 b9 1d 2c 3e 26 25 fc bd 21 85 bb bc 4f 0e 37 3e
       0.16808213 -0.12311773 -0.02289063 0.17876552
000010 57 0d 8a be 41 52 4b 3e a4 2e 21 bd 8e 3a 0d 3e
       -0.26963302 0.19855596 -0.03935112 0.13791868
000020 7a 7f 42 3d 60 99 ad 3b 39 a3 db 3d 1c 77 ad 3c
       0.047484852 0.0052978247 0.107244916 0.02117496
000030 6e b3 07 3e b4 81 06 be 2e c2 09 bd 26 24 00 bb
       0.1325204 -0.13135415 -0.03363245 -0.0019552796
000040 5d e0 55 3d 9c 71 a6 3c f7 98 86 3e 7d 4a c7 3d
       0.052215923 0.020317845 0.26288578 0.097310044
000050 53 f5 e9 bd 73 96 37 be 75 91 54 bd 98 0d 02 be
       -0.11423745 -0.17928486 -0.05189653 -0.12700498
000060 e0 b9 bc bd c5 97 c1 3c 62 f1 38 3e 92 04 38 3e
       -0.0921514 0.02363194 0.1806083 0.17970493
000070 32 c3 88 be 31 7d 51 3e db e2 c4 3d 35 e8 9b 3e
       -0.26711422 0.20457913 0.09613582 0.30450597
000080 16 4f 53 3e fe 4e 8d be 7e ff 85 be fe 3c 0e be
       0.20635638 -0.2759933 -0.26171488 -0.13890454
000090 6c a0 7d 3e 48 f3 67 bd 46 d3 ea 3d 55 1f 0e be
       0.24768227 -0.056628495 0.114660785 -0.1387914
0000a0 b1 c6 8f 3e 7d 8d 06 be 7d 90 55 3e be 97 2e 3b
       0.28081277 -0.13139911 0.20855899 0.0026640738
0000b0 67 99 2a be 1f 5d 19 3e f2 1a 20 be d3 aa a2 3d
       -0.16660081 0.14976929 -0.15635279 0.079427384
0000c0 59 94 cc bd 40 f1 48 bd 39 02 9d be b2 bb 1d be
       -0.099892326 -0.0490582 -0.30665758 -0.15403631
0000d0 c8 21 1e 3e 8c a9 a4 bd a1 03 91 3e fe 75 78 3e
       0.15442574 -0.08040151 0.2832308 0.2426376
0000e0 14 83 a4 bb 2b a3 49 be bb 1f 53 3e 23 68 bd 3d
       -0.0050205085 -0.1969115 0.20617573 0.09248378
0000f0 91 96 40 be 23 c4 35 3e 0e 01 38 3e 30 f9 89 3e
       -0.18807437 0.17750601 0.17969152 0.26947927
000100 06 78 1d be 67 8a 6b bd a8 a3 97 bc 42 85 ff 3c
       -0.15377817 -0.057505038 -0.018510655 0.031191472
000110 b4 03 71 be 93 91 5e be a9 74 30 3e e3 90 89 bd
       -0.23536569 -0.2173522 0.17232002 -0.06717088
000120 89 54 32 3e 57 03 f2 3c 77 20 73 3d db 4e 5d 3d
       0.1741506 0.029542608 0.059357133 0.05403028
000130 d7 f1 e7 3d 87 4b 1c 3e 94 05 93 be 6b b7 3d 3e
       0.11325424 0.15263186 -0.28715193 0.18527
000140 b4 34 41 be 90 c8 83 be 7c 75 34 3c 17 c8 62 bd
       -0.18867761 -0.25738955 0.011014339 -0.0553666
000150 da 4f 18 3e 5d cb 0f be df 78 82 be ef fa 7a 3e
       0.14874211 -0.1404242 -0.25482842 0.24509786
000160 e6 bf fb bc a8 ab 3f 3e 9a 91 08 3e 43 4c 4a be
       -0.030731153 0.18717825 0.13336793 -0.19755654
000170 6b dc 8f 3d 35 f6 bd 3d c3 08 73 be 9d 46 22 be
       0.07024463 0.09275476 -0.23733811 -0.1584725
000180 3d fc f1 3d 82 49 a5 3d a1 fd 16 be f7 5c f1 bd
       0.11815689 0.08070661 -0.14745189 -0.1178531
000190 e9 6e 89 3e 48 78 a6 bd f2 97 28 3e eb 69 00 3e
       0.2684243 -0.081284106 0.16464213 0.12540404
0001a0 9c 3e 47 be 03 3d 6c be 18 2d 87 3e 69 72 ca 3c
       -0.19457477 -0.23070149 0.2640159 0.024712758
0001b0 0f d6 5c 3e ca 2e 23 3d c1 39 53 3d 5a 88 57 3e
       0.21566032 0.039839543 0.05156875 0.21048108
0001c0 a1 4b 8b 3e 4c 49 5f be 37 1e ab 3c d8 f6 64 3e
       0.27206138 -0.21805304 0.020888431 0.22359788
0001d0 f7 7a 36 3e 04 dc 23 3e 0b 79 5c be 02 19 64 be
       0.17820345 0.16001898 -0.21530549 -0.22275165
0001e0 c5 20 4c be 79 41 7b 3d a5 60 8e 3e 1d d8 4a be
       -0.19934376 0.061341736 0.2780811 -0.19809003
0001f0 28 1d 1f 3e e8 6e 59 be 94 8d 8a be 50 50 97 bd
       0.15538466 -0.21233714 -0.2706114 -0.07388365
000200 a6 36 31 3e e8 b2 99 3e ea c0 50 be ea 2a 9b 3d
       0.17306003 0.30019307 -0.20386091 0.075765446
000210 da a2 85 3e be 2e 4a 3e 3d 59 2f 3e 7e 73 5c 3e
       0.26100808 0.19744393 0.17123885 0.21528432
000220 16 88 3f 3e dd e3 a0 3d e9 b9 4e be 58 45 70 be
       0.18704256 0.078559615 -0.20188107 -0.23463953
000230 33 55 1f be 58 1d 3a bd 1e 2c 38 be 39 ae cc 3d
       -0.15559845 -0.04543814 -0.1798558 0.09994168
000240 eb 72 ba 3d 4f 49 5a bd a3 ff ff 3d f1 24 d1 3d
       0.0910395 -0.05329257 0.12499931 0.10212124
000250 1a f0 34 3e 54 80 44 3e 23 30 c6 bd 13 2c 93 3e
       0.17669716 0.19189578 -0.0967715 0.28744563
000260 7f 7c 37 bd a0 98 9c bc ad d8 93 be 6d 41 48 be
       -0.044796463 -0.019115746 -0.28876248 -0.19556208
000270 ce a1 31 be ce 73 1c be 89 80 5a 3e ab fe ca bd
       -0.1734688 -0.15278551 0.21338095 -0.09911855
000280 d6 31 67 be 1f 74 bc 3d 51 65 c3 3d 98 8c 46 3e
       -0.22577605 0.09201836 0.09540809 0.1938957
000290 54 7b 05 be b0 db c1 3d 52 0d ee bd 03 51 04 bd
       -0.13035327 0.0946573 -0.116236344 -0.03230382
0002a0 a0 86 7e be 79 41 17 be 0b 1c d1 bd 14 df fa 3d
       -0.24856043 -0.1477107 -0.10210427 0.1224958
0002b0 4a b5 3f 3d 5d 8d 96 3d 84 e5 95 3e de 89 94 3e
       0.04680375 0.07351182 0.2927667 0.29011434
0002c0 12 18 56 3e 1f f9 d8 3b 1c 64 4c be 8d 4e 65 3e
       0.2090762 0.0066214944 -0.19960064 0.22393246
0002d0 d3 d6 93 bd 6d 2f bf bc 76 a9 7e be 7a 8f 69 bd
       -0.07218709 -0.023338044 -0.24869332 -0.057021596
0002e0 1a a9 3e be da d0 87 3e 28 8e 7f be ee 6a 66 be
       -0.18619195 0.2652653 -0.24956572 -0.22501728
0002f0 fa 99 20 bc 59 d6 1f be 68 8a d3 3d 12 92 e3 bd
       -0.009802336 -0.15609111 0.10329133 -0.11111845
000300 84 2e 12 be 3f 90 bf b9 8b 0c 65 3e ac e9 4b be
       -0.14275557 -0.0003653783 0.22368066 -0.19913357
000310 e9 d4 02 3e 6e 24 57 3e 60 8c 95 3e f9 85 69 be
       0.12776531 0.2100999 0.2920866 -0.22805013
000320 4a c5 a9 3d a2 24 5d be a4 2e 7f 3e d2 32 fc bd
       0.08289583 -0.21596006 0.24920136 -0.12314381
000330 47 b4 2e 3e cc ee c0 bb 4b f7 5b bc e7 b0 c4 bc
       0.17060958 -0.005887842 -0.013425658 -0.024010135
000340 92 77 26 3d 85 b3 14 3e 6f 6c 2a 3d 3e 89 99 3d
       0.040641375 0.14521606 0.041607317 0.0749688
000350 bb c7 84 be 58 5c 53 3e b7 16 86 3e 78 bb 76 3e
       -0.25933632 0.20640695 0.26189205 0.24094951
000360 40 2e 5f 3e 86 63 4b be e8 6a e0 bd c5 07 8c 3e
       0.21794987 -0.19862184 -0.10957891 0.27349678
000370 02 05 43 be b8 21 84 3e e5 8c 7a be 12 3f 25 be
       -0.19044879 0.25806975 -0.2446781 -0.1613734
000380 47 71 43 3e 8f c5 6a be 1a 3e 41 bd ed dd 82 3e
       0.1908618 -0.22926925 -0.047178365 0.2555994
000390 5a 3c 62 3e 45 ea 94 3e 45 89 7c bd 1f 7e 72 be
       0.22093335 0.29084983 -0.061654348 -0.23680924
0003a0 23 7c 93 3e 28 79 94 bd 61 4c 1a be 1d f8 a2 3d
       0.28805646 -0.07249671 -0.15068199 0.0795748
0003b0 a9 ed 6d be 25 63 2e 3e 64 27 3f 3e a2 7f 7f be
       -0.23235191 0.17030008 0.1866737 -0.24951032
0003c0 e8 cc 72 be 7d 26 cf bc f3 06 0c 3e 1a fb 08 bc
       -0.23710978 -0.025286907 0.13674526 -0.0083606485
0003d0 09 07 06 be 45 43 d8 3b e7 fd 82 be 68 0e 41 be
       -0.13088621 0.006599816 -0.25584337 -0.18853152
0003e0 16 2b 34 be 60 c5 84 3e bd 49 82 3e 58 14 a9 bd
       -0.17594561 0.25931835 0.25446883 -0.082558334
0003f0 87 0a 8a 3b 3e e1 15 3e 64 24 eb 3c 22 f7 1f be
       0.0042126807 0.14636704 0.028703876 -0.15621617

hidden1.bias f4 [150]
000000 dc 7d 6f 3e c7 6e 03 3e cd 93 fc bd 8b 30 21 3e
       0.23387855 0.12835227 -0.12332878 0.15741174
000010 7f 84 84 be db 60 5d 3e 03 46 95 3c 6a c3 29 3e
       -0.25882336 0.21618979 0.01822186 0.16578451
000020 38 db 5f bd c1 b4 d5 3d 8e 2e 42 3c ff 46 ea 3d
       -0.054652423 0.10434867 0.01185192 0.11439323
000030 5b 45 71 3e 33 ac 53 be df 54 05 3e 76 61 6e be
       0.23561613 -0.20671158 0.13020657 -0.23279366
000040 fb 18 0f be 46 14 ba 3d 61 07 b9 3e 6d 74 6a 3d
       -0.13974373 0.09085898 0.36138442 0.05723994
000050 0e 70 10 be b8 9b 04 3e 83 b8 4d be e9 53 5c 3e
       -0.14105245 0.12950027 -0.20089917 0.21516384
000060 e6 f1 1a 3e 90 c4 05 3e 68 40 86 be 60 0b 3e 3e
       0.1513134 0.13063264 -0.26221013 0.18559027
000070 bf 08 d3 3e 71 df 62 be 8e ac 34 3e fd 13 e1 bd
       0.4121761 -0.22155549 0.1764395 -0.109901406
000080 93 c6 ff bd f0 5a 94 3e c6 92 96 be ca 2b 33 bd
       -0.12489047 0.2897563 -0.29408854 -0.043742932
000090 fc f9 19 3d 33 dc f8 3d c2 92 33 be 5e dc b8 bd
       0.03759192 0.12151375 -0.17536452 -0.09026407
0000a0 b3 80 d7 bc e0 ac 45 be dd 48 ed 3d 54 f6 3a be
       -0.026306486 -0.19304228 0.11586163 -0.18258029
0000b0 6b 0f be 3c 73 d6 96 3e 39 84 2f be 8b dd 19 be
       0.023200711 0.29460487 -0.17140283 -0.15025918
0000c0 7a 40 1a be 43 d2 7b 3e 2a df 20 3e 21 11 9f be
       -0.15063658 0.24591927 0.1571013 -0.31067756
0000d0 0a 0a c4 3d bc 91 90 3e 00 57 0e be 18 2f 3f 3e
       0.09572227 0.28236187 -0.13900375 0.18670309
0000e0 d7 9d 8f 3d 84 02 53 bd 21 81 be 3d 51 66 1b 3d
       0.070125274 -0.05151607 0.09301973 0.037939373
0000f0 8e 96 e5 bc fb 74 6f 3e 8d 18 bd be 33 cf 8a be
       -0.028025892 0.23384468 -0.36932793 -0.27111205
000100 f3 e5 ca 3d 37 09 0e 3e 32 db 07 3d c7 99 0d be
       0.099071406 0.13870703 0.033168025 -0.13828193
000110 22 88 90 3e 9f ad 76 be 79 7c 87 bc 02 98 03 be
       0.2822886 -0.24089669 -0.016538845 -0.12850955
000120 a6 d5 57 be f2 d8 30 3e ab f8 48 be 93 67 9b 3e
       -0.21077594 0.17270258 -0.1962611 0.30352458
000130 25 0b 98 3e 21 4a 31 3e 6a 6c a2 3e 27 00 33 be
       0.29696003 0.17313434 0.31723338 -0.17480527
000140 91 94 77 3e 75 03 83 3e 39 78 54 bd 74 fe 8a bc
       0.24177767 0.25588575 -0.051872466 -0.016967036
000150 ce 40 5b be 3d 04 ef 3d 3b 71 89 be 2f 80 81 be
       -0.2141144 0.1167073 -0.268442 -0.2529311
000160 41 b0 34 be 6e 81 6c 3d 01 a5 09 3d 13 d8 41 be
       -0.1764536 0.05774062 0.033604626 -0.18930082
000170 e2 d8 a1 bd 3f 2a 36 3e d2 7c 95 3b 8d 09 e8 3d
       -0.07902695 0.17789553 0.004561999 0.11329947
000180 06 59 45 bd 72 e2 ad bd 98 f1 a0 be 64 d1 56 3e
       -0.048180602 -0.08490457 -0.3143432 0.20978314
000190 7d 21 f5 3d de c2 37 3e 44 ef 59 3e 8b 59 d3 3e
       0.11969278 0.1794543 0.21282679 0.41279253
0001a0 76 6d 74 be 67 d8 33 3e f0 0b 91 be e7 5d 87 3d
       -0.23869881 0.1756302 -0.2832942 0.06609707
0001b0 cd 1b 4e be cd 85 42 3e 77 a4 59 be 83 32 70 3e
       -0.20127793 0.18996353 -0.21254145 0.23456769
0001c0 29 52 d7 3e 7b f8 06 3e ae e3 b3 be 18 4f 4c 3e
       0.4205487 0.13180725 -0.35134643 0.19952047
0001d0 7b 91 3b be 63 3d 8a be 5f de 54 3e c7 65 a3 3d
       -0.18317215 -0.2699996 0.20787953 0.07978397
0001e0 13 ae 9a bd 26 7d 97 be 23 2d 2a 3e 20 32 6e bd
       -0.07552733 -0.29587668 0.16618781 -0.05815327
0001f0 e9 6b 4c be be a8 9f 3c 02 00 b1 be 07 9d 46 3d
       -0.1996304 0.019489642 -0.34570318 0.048489597
000200 16 77 f6 bd ea a6 96 bd 95 37 92 be 90 14 a1 bd
       -0.120344326 -0.07356055 -0.2855803 -0.0786525
000210 31 66 49 be eb ca 1c 3e 87 65 91 bd 39 52 3b 3e
       -0.19667889 0.15311782 -0.07099443 0.18293084
000220 91 68 a5 3e e9 65 1a 3d 3e 34 24 bd 19 26 8a be
       0.3230634 0.037694845 -0.040088885 -0.2698219
000230 c8 39 ed bd c5 2b c7 bd 47 74 66 be db 1f da 3d
       -0.115832865 -0.09725145 -0.22505294 0.10650607
000240 4b 53 29 bd eb a4 eb 3d 63 2d 74 3a a6 fd 43 be
       -0.0413392 0.11506065 0.00093146245 -0.19139728
000250 38 f8 65 3e 48 2b 79 be
       0.22457969 -0.24332917

hidden2.weight f4 [150, 150]
000000 53 df aa bd 34 23 53 3d 5b de d0 bd e6 5c 27 3c
       -0.08343377 0.051547244 -0.10198661 0.01021502
000010 6d 03 26 bd bf 6b a6 bb f6 81 a9 bd 69 2b a2 3d
       -0.04053061 -0.0050787623 -0.08276741 0.07918436
000020 64 ca 85 3d 1b c2 9e 3d e4 e8 f7 3c dc 32 17 3d
       0.065327436 0.077518664 0.030262418 0.036913738
000030 4b 5e ab bd 9d 62 4c 3b 67 e8 1f 3d 58 ee 92 3c
       -0.08367594 0.0031186708 0.039039996 0.017935917
000040 b1 53 a0 3c 6f 7d 1b 3d 2e b8 59 3d c2 6f 4e 3d
       0.019571157 0.03796142 0.053154163 0.05039955
000050 74 61 21 bd ec fe 05 bd 7e 47 e1 3c d5 ff 7e 3d
       -0.03939958 -0.032713816 0.02749991 0.0622557
000060 d9 eb d0 bd 47 46 08 3d 48 ac 12 3c 17 b9 ea 3d
       -0.10201234 0.033270147 0.008952208 0.11461084
000070 a0 17 f1 bd f7 8c ee bc b8 e1 e7 bd 39 3e 5f bc
       -0.11772084 -0.029119952 -0.11322349 -0.013625675
000080 9b cc 65 3c 84 85 83 bd a3 c8 7c bd ab 4b 86 bd
       0.0140258325 -0.064219505 -0.06171478 -0.06557401
000090 65 0a 5b 3d e0 cf 99 3d 21 52 b4 3d fb 3e 94 3d
       0.05347671 0.07510352 0.08804727 0.07238575
0000a0 86 81 14 bc 51 bb e1 3c 38 15 6c bd 0f ad b2 bc
       -0.009064084 0.02755514 -0.057637423 -0.021811036
0000b0 9d 86 19 bd 4c 60 8a 3d f4 d8 80 bc e9 cc eb 3c
       -0.037481893 0.067566484 -0.015728451 0.028784232
0000c0 47 79 48 bd 30 27 57 bd e0 36 e9 bc e8 b5 c1 bb
       -0.048943784 -0.052527606 -0.02846855 -0.0059115775
0000d0 7b c2 00 3d b0 ad 80 3d 9b 40 e4 bd 91 37 23 3d
       0.03143547 0.06283128 -0.11145135 0.039847914
0000e0 56 60 b8 bd 58 d5 b3 3b c1 d4 75 bd cc 49 39 3d
       -0.090027496 0.005488079 -0.06001735 0.045236394
0000f0 cd 67 87 3d ea 5e 33 bd 94 18 25 3c 18 cc ae bd
       0.06611595 -0.04379169 0.010076661 -0.085350215
000100 04 25 63 bd 7b 04 f8 bd 32 e8 91 bb af 64 96 bd
       -0.055455223 -0.121102296 -0.0044527287 -0.073434226
000110 65 ec ba 3b be 92 90 bd 3e fb 46 3d 1e 37 c8 bd
       0.00570445 -0.07059239 0.048579447 -0.09776138
000120 d9 40 45 bb 11 72 0a 3e ee c2 89 bb 8e 61 c7 bd
       -0.0030098467 0.13520075 -0.0042041456 -0.09735404
000130 0b 1f 5e bd 9b 0a 16 bd 31 b6 80 bd 65 39 05 bc
       -0.054228824 -0.036631208 -0.0628475 -0.00813136
000140 f9 e7 0d 3b 1d 73 ae 3d 3d 03 fa bc 6b 1e 51 bd
       0.002165316 0.0851805 -0.030519122 -0.0510544
000150 91 b5 8a 3d 5e 75 eb bb f1 8b 15 3d a9 55 42 3d
       0.06772912 -0.007185622 0.03651041 0.047444973
000160 d2 b4 fb 3c 5f 8a fe 3c 8c 39 98 bd 8a 77 98 bd
       0.03072587 0.03107184 -0.07432851 -0.07444675
000170 36 ba ab bd eb 8d 5f bc df 48 af 3b 6c 15 b3 bc
       -0.08385126 -0.013644676 0.005349263 -0.0218608
000180 d7 fd 02 be 3c fd 8f bd 9c bd 6d bd 32 a7 27 3d
       -0.12792145 -0.070307225 -0.058042154 0.040930934
000190 40 ef 72 3d e6 e7 b4 3d fe 79 36 3c d2 74 4d bd
       0.059310198 0.088332936 0.011137484 -0.050160237
0001a0 81 f9 a6 3d 03 50 53 bd 96 d2 f2 3d 21 36 03 3d
       0.08153058 -0.051589977 0.11856572 0.032034043
0001b0 10 8c 02 3c 6d be 80 3b c6 fd 9b bd 76 4a 2a bd
       0.007967964 0.0039289505 -0.07616763 -0.041574918
0001c0 bf 8e 80 bc 8d 58 36 3d c1 28 5d bd a5 0e 8b 3c
       -0.015693067 0.044518042 -0.053993944 0.016974756
0001d0 61 a1 94 3d 0f 7d 7d 3d c0 32 7d bd 61 9d 94 bd
       0.07257343 0.061886843 -0.061815977 -0.0725658
0001e0 4b fb cb 3d a6 29 a1 3d 1d 55 17 be 70 60 6b 3d
       0.0996004 0.07869272 -0.14778562 0.057465017
0001f0 45 d7 84 bd d9 c3 f4 3d 5d 02 27 3d c4 1d 67 3d
       -0.06486372 0.119514175 0.04077374 0.05642487
000200 f5 4c 85 bd f1 ee a1 bc 43 a2 8b bd 5a 85 2d 3d
       -0.06508819 -0.019767256 -0.06818058 0.042363502
000210 9b 2e ea bb b1 87 46 3d 4e f4 01 bd 60 59 8d 3d
       -0.007146669 0.04846925 -0.031727128 0.069018126
000220 72 30 82 3c af 34 80 bc c3 02 2d bc 2e f6 db bc
       0.015892241 -0.015650121 -0.0105597405 -0.026850786
000230 3b a3 11 be c0 25 65 bd d3 0e 8f bd 24 6c 8f 3c
       -0.14222424 -0.055944204 -0.06985249 0.01750762
000240 23 a2 78 bd 91 b9 84 bd 58 71 9c 3d 48 85 92 3c
       -0.0607015 -0.064807065 0.07638806 0.01788582
000250 60 e5 4d bd 0d 2f 19 bd 80 5d 90 3c 21 f3 32 3d
       -0.050267577 -0.037398387 0.01762271 0.043688897
000260 9f 5e 67 3d fc 0a 84 3d 34 5a 99 bd a4 65 d8 bc
       0.056486722 0.064474076 -0.07487908 -0.026415654
000270 b1 6b 94 3a 00 4c c4 3d d4 18 e2 3b 12 0c 3b 3c
       0.0011323598 0.09584808 0.0068999324 0.011416452
000280 80 26 33 3c 91 5f 97 bd 84 82 e1 3d af 17 04 be
       0.010934472 -0.07391275 0.11011222 -0.1289966
000290 a3 2a 1f 3c 35 64 88 bd 4d 7a 5f bc 36 48 24 3a
       0.009714755 -0.06659738 -0.013639999 0.0006266864
0002a0 38 b4 a9 3d a2 99 9d bd 40 ac 22 3d 7d 0c 0b 3d
       0.08286327 -0.07695319 0.03971505 0.033947457
0002b0 17 61 6e 3d a6 e2 fa 3c 42 e2 17 3e d1 c9 c0 3d
       0.05819806 0.030625653 0.14832404 0.094134934
0002c0 b7 fc 3d bd e3 11 97 3d 9d 48 92 3d 80 72 8c bd
       -0.046383586 0.073764585 0.07142756 -0.06857777
0002d0 4f bf 1e 3d 79 e0 b2 bd 5d 0a 79 bb 5b 56 a6 bc
       0.038756665 -0.08734221 -0.0038000562 -0.02030485
0002e0 34 c1 50 3d e9 ea cf 3b 84 c1 d1 bb 3e 05 98 bd
       0.050965503 0.006345142 -0.0064012427 -0.07422875
0002f0 10 c9 6c 3d 4e 38 6a bd a0 ba 71 3c 70 fe db 3d
       0.057808936 -0.057182603 0.0147539675 0.107418895
000300 fb 8f 14 3e 03 42 11 bd 9c 51 c8 bd c7 24 33 3e
       0.14508049 -0.035463344 -0.09781191 0.17494498
000310 09 7a ee 3d 2b d6 a8 3d 92 9c d8 3c c5 50 26 3d
       0.1164437 0.08243974 0.026441846 0.04060437
000320 c2 0b 49 3d 37 61 d1 bc 68 70 fa bc 21 4f c6 3c
       0.04908348 -0.025559051 -0.030571178 0.024207653
000330 98 1f 41 3e 7c e2 2e 3e ac 40 a7 3d d8 d1 9c 3d
       0.18859708 0.17078584 0.08166632 0.07657212
000340 78 ff 91 3d 11 ea 3e bd af e0 91 bd 11 e3 b9 3c
       0.07128805 -0.046609942 -0.07122933 0.022691282
000350 76 7a 35 bd d1 ca eb bc 14 92 e6 bc 9b 54 4a 3e
       -0.04430624 -0.028783234 -0.028145827 0.19758837
000360 00 4a 44 bc 5e 59 b7 3d b0 e3 65 bd 2d a6 19 be
       -0.011980534 0.08952592 -0.056125343 -0.15004797
000370 69 43 e2 3d f1 72 f0 3d 9b e2 1a bc 5e c9 e0 bb
       0.11048014 0.11740673 -0.009453441 -0.0068599423
000380 03 84 08 3d 28 28 02 3e 02 4d 65 bb 3e dc 26 3d
       0.03332902 0.12710631 -0.0034988527 0.040737383
000390 d0 b1 6f bc a6 03 80 3d bd ee c0 bd 58 15 4a bd
       -0.014629796 0.06250696 -0.09420536 -0.04933676
0003a0 fd 7a 0f 3c 74 d2 a3 3d 7f 3b 1e bd 04 1a a5 3c
       0.00875735 0.07999125 -0.03863096 0.020154007
0003b0 57 97 84 3c 4f c8 2d bd c7 56 7e 3c de 64 5f 3c
       0.016185446 -0.042427357 0.015523619 0.013634888
0003c0 4e 45 6b 3c 71 c8 94 3c 44 98 75 bd 92 9e 09 bd
       0.014359785 0.018161984 -0.059959665 -0.03359849
0003d0 fd 72 31 bd c5 93 9e 3b c1 4e 0c 3e 9e dd 3a 3d
       -0.043322552 0.004839393 0.13701917 0.045621507
0003e0 61 87 81 3d c4 69 6b 3c 4c 86 44 bd 28 71 dd bd
       0.063246496 0.014368478 -0.047979638 -0.108125985
0003f0 19 9e 41 3d 33 a2 eb 3d c5 0b 19 3d 48 f6 2a bd
       0.047269914 0.115055464 0.03736474 -0.04173878

hidden2.bias f4 [150]
000000 48 00 5f 3d dd 04 f5 b9 94 c9 e5 3d 16 6e 59 3c
       0.054443628 -0.00046733665 0.112200886 0.013270875
000010 7e 2d b8 bd 33 20 3f 3e ef 0d 62 bd 1c 2d 9f 3d
       -0.08993052 0.18664627 -0.05518907 0.07772276
000020 57 74 41 bd 81 d3 5f bd cc 73 ce 39 4e d6 a4 3d
       -0.04723009 -0.054645065 0.00039377657 0.08048688
000030 19 01 8d 3d 0d 5e de bd d6 96 cc 3d 6e 12 a0 bd
       0.06884975 -0.108577825 0.09989707 -0.07816015
000040 75 ae d7 3d f0 be 11 3e e1 0a c6 bd de 00 20 3e
       0.10531322 0.14232993 -0.09670044 0.15625331
000050 cc 84 76 bd d7 65 b8 3d 13 70 7b bd 54 4d 70 bd
       -0.06018524 0.090037994 -0.06138618 -0.058667496
000060 67 34 ec 3d 53 17 7a bd 89 6a 2b bb cf 5b 65 bd
       0.115334325 -0.0610574 -0.002615603 -0.05599576
000070 fc c7 9a bd ad c0 d4 3b e1 5d f0 3d 3f 00 42 bd
       -0.07557675 0.0064926953 0.11736656 -0.047363516
000080 4a 46 8e bd 63 5f 6f 3d d8 35 00 3d 1c f6 d3 3d
       -0.06947 0.058440577 0.03130135 0.10349676
000090 3b 60 1e 3d 05 03 cf bc 03 c0 8c 3d 49 ad 6f bd
       0.03866599 -0.025269995 0.06872561 -0.058514867
0000a0 20 c7 80 bd a8 f2 00 3e 07 02 06 be d7 33 4f 3d
       -0.0628798 0.12592566 -0.13086711 0.050586548
0000b0 51 28 9c 3c e6 1b ec 3d 0f 56 53 3d f3 2b 0d bd
       0.019062193 0.11528759 0.051595744 -0.03446574
0000c0 47 38 23 3e 74 b4 80 bd 19 b8 be 3d 6b 4f ec 3d
       0.15939437 -0.06284419 0.093124576 0.11538585
0000d0 cc 56 25 3e 39 52 44 3e f8 ad 0b 3e ec 82 a5 bd
       0.16146392 0.1917199 0.13640583 -0.08081612
0000e0 84 b9 8f bc b1 c5 73 bd 80 7d a8 bd dc f0 1c 3c
       -0.017544515 -0.059514705 -0.08227062 0.00957891
0000f0 ba fd 14 bd ca 77 78 3d c6 bd 95 3d f7 ad 8e 3c
       -0.036374785 0.060661115 0.07311587 0.017416937
000100 1f 46 fc 3d 29 6e 3a 3d 96 11 d0 3c 8f 1f 0a 3e
       0.12318062 0.045515213 0.02539901 0.13488601
000110 77 37 ca 3b 74 e0 95 3c 8f c1 b4 3d 72 b6 cd bd
       0.0061711627 0.018295504 0.08825981 -0.10044564
000120 1f 3b d9 3d 1f 89 12 3e d2 75 59 3d 01 a8 3e be
       0.106069796 0.1431012 0.053090878 -0.18618776
000130 52 64 37 3d a4 5f d3 3c c0 da 9e bd aa 16 1d 3d
       0.044773407 0.025802441 -0.07756567 0.038351692
000140 53 19 4f 3e 91 87 c8 3d 56 44 90 3c e9 8a e2 bb
       0.20224504 0.09791482 0.01761071 -0.006913532
000150 39 90 94 bc f1 55 b6 bd c6 a0 eb 3d a3 0e db bd
       -0.018135177 -0.08903111 0.115052745 -0.10696151
000160 64 85 6e 3b 27 ec 5f bd 51 82 11 3d 68 32 0e 3d
       0.0036395425 -0.05466857 0.03552467 0.03471604
000170 1f c7 af 3d e3 9c 97 bd 7f 50 92 3d 24 d5 79 3c
       0.08582901 -0.07402971 0.0714426 0.015248571
000180 82 22 62 3c 8e 5e bb 3d 39 a6 31 3e d6 da c0 3d
       0.013802173 0.09148894 0.17348565 0.0941674
000190 af 73 e4 bd 96 e5 fd 3d 93 c3 c7 3d d6 79 eb bd
       -0.111548774 0.12397306 0.097541 -0.11497848
0001a0 d8 1a d3 bb 1e f6 ac 3d c4 48 0e 3e 14 09 de 3d
       -0.006442409 0.08445381 0.13894945 0.10841575
0001b0 1e c1 9d bd 31 a5 37 3e 70 e9 88 bd 53 03 e9 3d
       -0.0770285 0.1793411 -0.0668515 0.11377587
0001c0 85 85 83 3d d7 b9 5b bd 73 0e 3a 3c da cd 75 3c
       0.06421951 -0.053644028 0.011355984 0.015002692
0001d0 76 44 1e 3d 4b 47 fa 3b 6a ad b6 3d a3 58 ff bc
       0.03863951 0.0076378933 0.08919795 -0.031170195
0001e0 61 74 60 bc ef 64 3d 3d 96 04 06 bd 2c 12 e2 3d
       -0.013699622 0.046238836 -0.032719217 0.11038622
0001f0 a3 9d 04 bd 40 4a d7 3d ce ef 50 bd 62 de 01 3d
       -0.032376897 0.10512209 -0.051009946 0.03170622
000200 55 98 77 bd 86 62 7a bd 5b 29 0e 3d b4 7a 55 bd
       -0.06044801 -0.061129116 0.03470741 -0.052118972
000210 b8 e7 b7 bb 4f c4 98 3d 92 be a4 bd 75 ff 09 3e
       -0.00561234 0.07459318 -0.08044161 0.13476355
000220 fa df 63 3d 8a 91 8d bd 9c 8e 0a 3e 65 73 87 bc
       0.055633523 -0.06912525 0.13530964 -0.016534517
000230 29 b5 70 3c c6 39 01 bd 72 49 bc 3c 6b a4 3e 3d
       0.014691629 -0.031549238 0.02298424 0.04654352
000240 4a cf 07 3e 8d 6b cc bd 7d da f3 bc d8 ae de 3d
       0.13262668 -0.09981451 -0.02976727 0.108731925
000250 ce aa 24 3e a5 18 48 bd
       0.16080782 -0.048851628

hidden3.weight f4 [50, 150]
000000 b8 6d 84 bd 17 81 20 3e ab 14 74 3e 82 93 91 bd
       -0.0646624 0.15674244 0.23836009 -0.07108213
000010 21 78 80 3d bc a0 c7 bc fa 8b 28 3d d6 51 08 3c
       0.06272913 -0.024368636 0.041149117 0.008320292
000020 f5 28 43 bd 43 11 de bc 41 ef f0 bc bf d2 5d 3e
       -0.04764648 -0.02710784 -0.02941096 0.21662425
000030 b9 d2 79 3d 15 bf 9d bc 3d 53 29 3d 44 9b 86 bd
       0.060991976 -0.019256154 0.041339148 -0.06572583
000040 80 c1 4c 3e 6c 3f 41 bd 48 24 ab bd 2d db 0b 3e
       0.1999569 -0.047179624 -0.083565295 0.13657828
000050 b8 18 16 bd 47 0b 5d bd 55 a1 28 bc 4f 3d 84 3c
       -0.036644667 -0.053965833 -0.010292371 0.016142515
000060 bc 8a e1 3c 56 95 17 bd 38 55 29 be 65 7b 78 bd
       0.027531974 -0.037007652 -0.16536415 -0.060664553
000070 48 63 45 bd 33 71 4f 3d ff 9b 0a 3e 10 26 a1 bd
       -0.048190385 0.050645065 0.1353607 -0.07868588
000080 28 76 0a be c7 f9 c4 3d f3 6b 10 3d 96 5b 83 3d
       -0.13521636 0.09617954 0.0352592 0.06413953
000090 3d cb 20 3e e7 66 8b bd 33 41 cb 3c f9 85 60 3c
       0.15702529 -0.068067364 0.024811363 0.013703817
0000a0 97 38 af bd a1 1e b0 3d 31 94 b9 bd cf 11 67 be
       -0.085557155 0.08599592 -0.090614684 -0.22565387
0000b0 4b 3b e8 bc bc 92 31 bd c0 ef 1e 3c 48 dd 03 3e
       -0.028348586 -0.043352827 0.009700716 0.12877381
0000c0 1f 2f 2f 3e 13 1b b8 3c 25 92 f3 bd 70 d5 9a 3d
       0.17107819 0.022473847 -0.11893109 0.07560241
0000d0 cf 9e 9d 3d b4 6d 36 3e 79 4e ae 3d 36 d6 6f be
       0.07696306 0.17815286 0.08511061 -0.23421559
0000e0 43 c5 c4 bc 85 68 ea bc 6b 07 0d be ed 22 a0 3c
       -0.024019843 -0.028614292 -0.13772361 0.019547904
0000f0 5d bb 56 3c f3 46 c3 bc 73 28 a3 3d fc 9a 11 3c
       0.013106194 -0.023837542 0.079666995 0.008887049
000100 89 c0 ca 3c d5 94 92 3d ed 23 fc bc 76 90 00 bd
       0.024750011 0.07157294 -0.03077885 -0.03138777
000110 9e 9a 1c 3e d7 ba 69 3c 3f 24 e9 3d 18 db ff bd
       0.15293357 0.0142657375 0.113838665 -0.12492961
000120 9f e6 4a bd ac 92 0f 3e 4e 5f 44 3d 15 62 2f bc
       -0.049536344 0.14020795 0.047942452 -0.010704537
000130 f9 8e 37 bd 3e f5 1e bc 83 d0 b9 bc 84 d2 39 bd
       -0.044814084 -0.009702025 -0.022682434 -0.04536678
000140 81 0c 30 3e 07 03 b8 3c 18 e9 98 3c 4f f6 9d 3d
       0.1719227 0.022462381 0.018665835 0.07712995
000150 ef 12 47 3d d6 65 a3 3b 8a 32 42 3e 93 67 b2 bd
       0.04860204 0.004986505 0.18964592 -0.087111615
000160 99 21 f3 3c 4f 74 80 be d0 10 8e 3d 62 44 fb bc
       0.029679107 -0.25088736 0.069368005 -0.030672256
000170 c4 4e 98 3d 5f 52 ea bb 94 81 8b 3d 39 cd bb 3c
       0.07436898 -0.0071509327 0.068118244 0.022925006
000180 ff 31 92 bd ea 2c 43 bd 3e 6f 50 bd 0c cb 49 3d
       -0.07138442 -0.047650255 -0.05088734 0.049265906
000190 de 64 31 bd 2e c1 8a 3d 20 10 81 ba 46 33 46 3d
       -0.043309085 0.06775127 -0.0009846725 0.048388742
0001a0 b5 05 36 3d 04 44 8d bd 00 e5 88 3d 7b 73 35 bb
       0.044439036 -0.068977386 0.06684303 -0.002768724
0001b0 e7 d0 53 3c bf 92 3f 3e a7 db 88 3d a1 0d 14 3d
       0.012928224 0.18708323 0.0668252 0.03614581
0001c0 8a 2f d0 3d bf 2e 3f 3d ca f4 52 bc 2a 59 a6 3c
       0.10165317 0.04667544 -0.012875745 0.020306189
0001d0 0b 4c 02 3d c4 c5 ee 3d 34 4a ce bc 31 0b 4e 3d
       0.0318108 0.116588145 -0.025181867 0.05030364
0001e0 08 92 36 3d b4 87 02 3e c8 70 9c 3c b4 3e bb 3d
       0.04457286 0.12747079 0.019096747 0.09142819
0001f0 24 a8 ca bd 9e af 2f 3d e4 78 d3 bd 0c ca b5 bd
       -0.098953515 0.04289209 -0.103257924 -0.08876428
000200 0c 66 39 bd 24 c6 08 bd 2c 8b de 3d 66 51 04 3c
       -0.045263335 -0.033392087 0.10866389 0.0080760475
000210 17 83 b5 3c dd 4d 62 bd 0f 7c f0 bc 37 2f 30 3e
       0.022157235 -0.055250037 -0.02935603 0.17205511
000220 c8 10 97 bc 83 14 72 3c 54 c3 aa 3c f2 fa b5 3d
       -0.01844062 0.014775398 0.020845093 0.08885755
000230 11 ae ff bd fa 26 8c bb 1c 61 24 3d b6 ce f1 3d
       -0.124843724 -0.0042771073 0.040131673 0.11807005
000240 9a e8 b5 3c bc 70 67 3d 44 7d 96 3d 4e e4 9d 3d
       0.02220564 0.056503996 0.07348111 0.07709561
000250 37 22 53 3d d0 31 c6 bd 17 1e a9 3c fc c2 45 3e
       0.0515463 -0.0967747 0.02064423 0.19312662
000260 ba e5 44 3e ab 27 22 3b a6 1e cb 3c 28 82 a4 3c
       0.19228259 0.0024742882 0.024794888 0.020081595
000270 3e 2f 03 3d 0f 53 4d bd 70 ca d2 bd 97 41 8f bd
       0.032027476 -0.05012804 -0.10292518 -0.06994932
000280 6d 8d 0a be 3d e0 8c 3e da ea 85 bc f4 15 20 bd
       -0.13530512 0.2751483 -0.016347338 -0.039083436
000290 a0 2f 1c 3c bd 04 86 3c db ed 31 3e 2e 71 30 bc
       0.009532839 0.016359681 0.17375891 -0.010769172
0002a0 d1 7e 8e bd 87 56 56 3e 20 b2 3e 3d 99 d4 04 3d
       -0.06957782 0.20931445 0.046556592 0.03242931
0002b0 b1 fa 42 bd 47 33 53 bd 71 57 96 3d 4b 36 1b bd
       -0.04760236 -0.051562574 0.07340897 -0.037893575
0002c0 e6 a8 8c be 1f fa 8b 3d 32 d1 2e 3d 33 db 98 3c
       -0.2747261 0.06834816 0.042679973 0.01865921
0002d0 e9 99 43 3d 89 07 fb bc 2a 12 d1 bd fa 9f bf 3d
       0.047754202 -0.030643241 -0.10208543 0.09356685
0002e0 f3 10 90 3b bf 38 00 3e fb 01 f7 3d 06 85 99 bd
       0.0043965518 0.12521647 0.120609246 -0.07496075
0002f0 6c bf 94 3c 03 3f 39 3d 0d 77 17 be 4d af 17 3e
       0.018157683 0.04522611 -0.14791508 0.14812966
000300 87 ef 71 bd df 6d 86 be d3 a1 21 bd b9 39 ae bd
       -0.05906632 -0.262557 -0.03946097 -0.085071035
000310 77 c1 37 3d 89 b2 30 3e a8 f0 83 3d 67 41 8c bc
       0.044862237 0.17255606 0.06442386 -0.01712103
000320 af 2c 17 3c b9 2d 0e 3e cb 96 21 3d db b1 8e 3e
       0.009226962 0.1388463 0.039450448 0.27870068
000330 b8 7a 98 bc 32 ae 55 be be 88 7e 3d 21 77 3f bd
       -0.018613204 -0.20867231 0.062142126 -0.04674447
000340 80 82 0d be b3 08 37 bd 1b 06 ae 3c 35 5b 7b bc
       -0.13819313 -0.04468603 0.021243146 -0.01534157
000350 8b 13 30 3d b0 93 5f bc 11 54 02 3e bb a0 a9 3b
       0.042987388 -0.013646051 0.12727381 0.0051766313
000360 59 76 b0 3d fa ed f3 3c ce ce 49 3e 20 3b 22 3d
       0.08616323 0.029776562 0.19707796 0.039607167
000370 e6 37 0a 3e 79 c3 47 be 23 c0 3e 3c 3d 87 07 3e
       0.13497886 -0.1950816 0.011642489 0.13235183
000380 90 c6 c8 3b 79 76 6a 3d 5a 08 92 bb 5d e3 e4 3c
       0.006127186 0.05724189 -0.004456562 0.027940447
000390 c4 ac 80 bd 3f d9 b3 3c ac 8a 4f 3e 42 ac a9 3d
       -0.062829524 0.021954177 0.20267743 0.08284809
0003a0 fd 64 9f 3c 9d e4 7c bc 8f a5 12 3c 3e e4 c6 3c
       0.019457335 -0.015435365 0.008950605 0.024278756
0003b0 9d 72 f2 3d 20 38 0f be 4b 9b b5 bd 2d ef 57 be
       0.11838267 -0.13986254 -0.088675104 -0.21087332
0003c0 b0 da 3c 3e 4b 97 8d bc ef 63 97 3d a7 a1 9e bd
       0.18442798 -0.017284056 0.07392108 -0.077456765
0003d0 9e 7e d0 3d 11 a0 7a 3c 3f cd a6 bd 4c 08 c0 3c
       0.101804 0.015296952 -0.08144616 0.023441456
0003e0 8c 40 6e bd ac 6c db 3c 28 7e 44 bd b6 4a c4 3c
       -0.058167025 0.026785217 -0.047971874 0.023961406
0003f0 a5 eb 88 bd e8 47 81 3c 84 53 f6 bc b2 94 86 bd
       -0.066855706 0.015781358 -0.03006912 -0.0657133

hidden3.bias f4 [50]
000000 0a e5 e4 3d 77 59 16 3e 1e 7d 2c 3e cd fe 13 3e
       0.11176498 0.14682566 0.16844603 0.14452668
000010 8a b1 b2 3c 6e 16 c6 3d 50 71 a5 bc 4b c0 20 3e
       0.021813173 0.09672247 -0.020195633 0.15698354
000020 c1 f3 a3 bd 22 fc 06 3e 64 89 a5 bd 4b a9 38 3d
       -0.08005477 0.13182119 -0.08082846 0.045083325
000030 c9 c6 03 3e f2 5e 6f 39 8b 46 88 bd 4e c0 70 bd
       0.128688 0.00022828186 -0.0665408 -0.058777146
000040 68 95 02 3e 7a 02 89 3c 4f f6 69 bd 75 28 84 bc
       0.12752306 0.016724814 -0.057119664 -0.016132573
000050 d1 54 72 bc 6f 9a fa bc 87 b1 bd 3c ca 18 10 3d
       -0.01479073 -0.030591218 0.02315594 0.03517989
000060 fd b2 88 3d 4e dc 90 3d b9 21 b9 bd 19 ea 21 3d
       0.06674764 0.0707327 -0.09039635 0.039529894
000070 e6 6a 32 3e 77 08 b2 bd c0 9b 3e 3e c3 f4 42 bc
       0.17423591 -0.08693021 0.18614101 -0.011899176
000080 98 b7 7c bd 4e 2f 48 3d 61 c0 97 bc 23 9d 96 3d
       -0.061698526 0.04887324 -0.01852435 0.0735419
000090 71 fb c0 3c cb 94 c1 3c 96 9b 83 ba e5 4a 7d 3b
       0.023557397 0.02363052 -0.0010040875 0.0038649377
0000a0 51 1f db 3d b8 1d 1a 3e 55 8b 35 3e a3 c7 06 3e
       0.106993325 0.150504 0.17728932 0.13162093
0000b0 64 3e 2c 3e b3 23 c9 3c b4 61 80 3d 5f a7 99 bd
       0.16820675 0.024553156 0.062686354 -0.07502627
0000c0 84 58 46 bb e5 32 f9 bc
       -0.0030265162 -0.030419776

output.weight f4 [2, 50]
000000 95 36 20 3e d2 db 71 3b cc 8f a5 3e 3c 91 ae 3e
       0.15645821 0.0036904705 0.3233627 0.3409518
000010 55 d1 28 be 14 ca b0 3d c6 30 3c bd 8e 08 81 3e
       -0.16486104 0.08632293 -0.04594495 0.2520184
000020 ab 03 1e be 74 48 93 3e d8 39 46 be fb 0d 5f be
       -0.15431087 0.28766215 -0.19358003 -0.21782677
000030 03 4c f7 3d 90 d5 50 be 7c 35 5d 3d 43 1b 96 bd
       0.12075045 -0.20393968 0.054006085 -0.073294185
000040 1a 1f 45 3e d6 4c 5e bd e5 c6 bc be a7 b2 44 be
       0.19250146 -0.054272495 -0.36870494 -0.19208775
000050 99 54 71 3e fa 20 d5 3d 23 ba f4 bd 44 81 57 3d
       0.23567428 0.104066804 -0.11949565 0.05261351
000060 7e 2c a5 3e 1c d3 a0 3e 45 39 2f be b1 45 09 3e
       0.32260507 0.31411064 -0.1711169 0.13405491
000070 aa 2d ad 3e d2 04 3c be 9a 65 8d 3e fa 4e 1f 3e
       0.338239 -0.18361214 0.27616578 0.15557471
000080 79 88 a9 3d 32 2f 94 3e f5 39 26 3e 8d c3 25 3e
       0.08277983 0.28942257 0.16233046 0.16187878
000090 b4 02 41 bd 10 0a 92 bd 01 a6 32 be f2 c0 81 3e
       -0.04712172 -0.071308255 -0.17446138 0.25342518
0000a0 78 55 30 3e 11 b1 9e 3e 6c 97 8d 3e 8e ba 44 3e
       0.17220104 0.30994466 0.27654588 0.1921179
0000b0 60 6e 37 3e 95 05 45 3e 13 a1 91 3d 4f 54 1b be
       0.17913198 0.1924041 0.071108006 -0.1516888
0000c0 6b ab 47 be 14 42 13 be 5d df 3a be 95 ff 5a be
       -0.19498985 -0.14380676 -0.18249269 -0.2138656
0000d0 14 c0 80 be f9 e0 6d be c2 15 20 3e ec a2 bd bd
       -0.25146544 -0.23230352 0.156333 -0.092595905
0000e0 e2 61 78 3e 6e f5 5f be 55 b8 58 bc 2f c2 9b be
       0.2425609 -0.21870968 -0.013227542 -0.30421588
0000f0 db 89 c5 3d af f1 66 3e 1d 98 7b bd b2 42 58 3e
       0.096454345 0.22553132 -0.061424363 0.21119192
000100 83 6b f0 bd 1d 27 ff 3d eb 57 3c be 9c 47 f1 3d
       -0.11739256 0.12458632 -0.18392913 0.117812365
000110 1e 9a 7e 3e 15 55 28 bc 9a d5 6a bc 7b 76 4a 3d
       0.24863479 -0.010274191 -0.014333153 0.049429398
000120 cd 06 52 3e 5f ee 50 be 26 1f 08 be 97 ad fa bd
       0.20510407 -0.20403431 -0.13293132 -0.12240141
000130 99 64 19 3e 92 b1 86 be 4c f1 d4 bd 1c c0 c2 bb
       0.14979781 -0.2630735 -0.10397586 -0.0059433114
000140 8d 9c a2 be 56 84 93 be 3b c7 c9 3d ac 74 c8 be
       -0.31760064 -0.28811902 0.09852453 -0.39151514
000150 dd a3 b0 bd 73 c2 0e be 3f b7 b2 3d 05 ea 09 3d
       -0.086250044 -0.13941364 0.08726358 0.033670444
000160 fb df 75 3e b7 51 87 be d0 ba f4 3c c4 3a c8 bd
       0.24011223 -0.2642953 0.029874235 -0.09776834
000170 de 9f 4c be f1 3a d1 bd 88 01 99 be c7 9b 14 be
       -0.1998286 -0.1021632 -0.2988398 -0.1451255
000180 b8 23 79 be 62 ef 16 3e 6f b8 3a 3e 4c 74 15 3d
       -0.24330032 0.14739755 0.18234418 0.036487862

output.bias f4 [2]
000000 11 b9 98 bd e3 53 39 be
       -0.074571736 -0.18098406
