outputs/mlp_lbp_3classes.onnx (onnx, 144542 bytes, 8 tensors)

hidden1.weight f4 [150, 26]
000000 9a 62 6e 3e a3 52 80 bd a1 3c 4d 3e 96 b6 bc 3e
       0.23279801 -0.06265762 0.2004266 0.36858052
000010 dc 6b 37 3d 63 87 99 3e 61 c4 d5 3d cc 37 7b 3e
       0.044780597 0.29986104 0.10437847 0.24533004
000020 e1 f1 d6 3d 18 ce 79 3b ee 06 89 3c b2 7a b6 bc
       0.104953535 0.0038117226 0.016726937 -0.022275303
000030 18 f8 c8 3d b1 96 87 bd 63 af ca 3c f0 6a 64 3d
       0.09812945 -0.06620539 0.024741834 0.055766046
000040 b9 3a 8b 3d 7c 36 3b 3d fa e2 58 3e 6f 07 da 3c
       0.0679831 0.045706257 0.21180335 0.026614873
000050 87 d3 41 be f8 00 ba be f2 62 9c be 58 e7 ca bd
       -0.18928348 -0.36328864 -0.3054424 -0.099074066
000060 ec 5b 63 be 8a cf 86 38 50 0e ec 3d 55 f4 d6 3d
       -0.22203034 6.428275e-05 0.115261674 0.104958214
000070 bc fe 45 be f4 9f f5 3d e7 ae 59 3d 33 cf 3c 3e
       -0.19335455 0.11993399 0.053145315 0.18438415
000080 84 df 02 3e e1 a8 38 be 31 a0 40 be 85 17 c5 bd
       0.12780577 -0.18033172 -0.18811108 -0.096236266
000090 4a a9 2e 3e af 8c 0c bd 96 83 a8 3d ea 05 be bd
       0.17056766 -0.034313854 0.08228223 -0.09278472
0000a0 de 5d 43 3e e4 4c ad bd 20 ec 14 3e 0e b4 32 3a
       0.19078776 -0.08461931 0.145432 0.00068169914
0000b0 70 f3 d6 bd d5 17 cb 3d 4a 8f d8 bd bb 87 65 3d
       -0.10495651 0.09916655 -0.10574205 0.056037646
0000c0 c1 ab 6e bd ee 93 bd bc 4b c1 42 be 3c e2 c2 bd
       -0.058269266 -0.023141827 -0.19019048 -0.09515807
0000d0 18 03 62 3e 59 f7 f4 bc a9 c3 d6 3e 71 4f c6 3e
       0.22071493 -0.0299031 0.41946152 0.38732484
0000e0 45 20 20 3e 41 d2 c9 bc c5 96 2d 3e a6 69 df 3d
       0.1563731 -0.02463639 0.16952045 0.10908823
0000f0 8b d4 18 be bd 97 8e 3d 8e 67 64 3c d4 46 4a 3d
       -0.14924829 0.069625355 0.013940705 0.049383953
000100 bc 70 0a be ac d2 91 bd 92 1b 11 bd 02 2a 51 3d
       -0.13519567 -0.071202606 -0.035426684 0.051065452
000110 ee 9e 40 be a5 e8 18 be 8c 2d 93 3d 45 51 2a be
       -0.18810627 -0.14932497 0.07186422 -0.16632564
000120 c6 cd a0 bd d0 b2 96 be df 56 90 be 2d 25 b0 bc
       -0.07851748 -0.29433298 -0.28191277 -0.021502102
000130 59 74 15 be 3a c2 83 3d d3 66 89 be 67 00 fc 3d
       -0.14595164 0.0643353 -0.2683626 0.12304764
000140 ee c2 a7 be 04 37 cb be 86 f3 5b be 56 ee 72 be
       -0.32765907 -0.3969041 -0.21479616 -0.2372373
000150 6c 54 94 bd 65 a2 a6 be 46 9b ae be a0 a8 a9 3b
       -0.07242665 -0.32545772 -0.3410284 0.0051775724
000160 ab 93 e7 bd 24 f5 d0 bb 46 c2 d3 bd 3b 5f 80 be
       -0.11307462 -0.0063768793 -0.10339789 -0.25072655
000170 74 ec 09 be 13 42 f2 bd 6d c2 9b be da 54 58 be
       -0.13469106 -0.11829009 -0.30421773 -0.21126118
000180 aa ad de bd 60 9b 4b bd 0c f1 e9 bd 59 df 4f 3d
       -0.108729675 -0.049708724 -0.11422929 0.05075011
000190 ba 7e af 3e 2e cd 37 bb 36 6e 73 3e 69 c1 05 3e
       0.34276372 -0.002804588 0.23772511 0.13062061
0001a0 56 0e d0 bb 20 a0 1d be 29 39 d0 3e 27 f9 91 3e
       -0.006349365 -0.15393114 0.4066861 0.285104
0001b0 8c 99 bb 3e 50 54 68 3e af 9c 52 3e 22 35 94 3e
       0.36640584 0.22688413 0.20567583 0.28946787
0001c0 40 05 87 3e 9d af c7 bd f7 a4 00 bc ca d3 e5 3d
       0.26371193 -0.097502925 -0.007851831 0.11222036
0001d0 ef 86 25 3e 4b 90 05 3e 2f 2e c0 bd d3 03 63 bd
       0.16164754 0.13043325 -0.09383809 -0.05542357
0001e0 40 2d 69 bd c8 79 ae 3d 14 8f 8d 3e 04 e6 e6 bd
       -0.05692792 0.08519322 0.27648222 -0.11274341
0001f0 ce 27 56 3d 44 5a 96 be db 5b cd be ff e7 3a bd
       0.052284054 -0.29365742 -0.40109143 -0.045631405
000200 56 7c 05 bc c7 1f 2d 3e 0a 70 f9 bd c4 52 2e 3d
       -0.00814732 0.16906653 -0.12179573 0.0425594
000210 38 48 2d 3e 76 13 05 3e a1 50 fa 3d 18 b6 0e 3e
       0.1692208 0.12995705 0.1222241 0.13936651
000220 2e 0c fe 3d c1 7c 4f 3d a6 53 09 be 8c a4 28 be
       0.12404667 0.050656084 -0.13410816 -0.1646902
000230 db 0a b8 bd 7e 14 bb bc 91 30 f6 bd 90 f1 92 3d
       -0.089864455 -0.02283692 -0.12020982 0.07174981
000240 e7 9b 78 3d c3 e4 35 bd 6e 5e 9a 3d 49 ce 81 3d
       0.060695555 -0.044407617 0.07537542 0.06338174
000250 6e 38 f5 3d 30 3e 07 3e ba 04 88 bd 8a 35 44 3e
       0.11973654 0.13207316 -0.066415265 0.19161049
000260 c5 bb b9 bc 79 c8 dc bb 81 8d 3d be bd 40 01 be
       -0.022672543 -0.0067377654 -0.1851101 -0.12622352
000270 95 a4 ea bd 0b cb ab bd 6c c7 0e 3e 10 40 83 bd
       -0.11457173 -0.08388337 0.13943261 -0.06408703
000280 3a 12 16 be 7f 88 9a 3d 43 98 80 3d 36 12 02 3e
       -0.1465539 0.07545566 0.062790416 0.1270226
000290 2d d7 cf bd 6a 2a 2e 3d 2c 38 92 bd b5 7a 34 bd
       -0.101484634 0.042520918 -0.0713962 -0.044062335
0002a0 1b 0a 20 be f3 0d b7 bd a8 03 76 bd 09 c2 ab 3d
       -0.15628855 -0.089382075 -0.06006208 0.08386619
0002b0 be c0 12 3d 1e 6d 46 3d 41 71 48 3e 40 ba 43 3e
       0.035828345 0.048443906 0.19574453 0.19114017
0002c0 80 f8 08 3e 21 a3 cc 3b 75 ed 0a be ef f1 1c 3e
       0.13376045 0.0062450324 -0.13567145 0.15326665
0002d0 b6 df 48 bd 83 e2 81 bc 3d 02 2d be 4f ac 1e bd
       -0.049041472 -0.01585508 -0.16895385 -0.038738545
0002e0 41 87 01 be 92 89 38 3e 9a 9d 2d be ba 89 1c be
       -0.12649252 0.18021229 -0.16954651 -0.15286914
0002f0 e5 36 da bb 16 2d d9 bd ad b6 8f 3d 91 9a 9a bd
       -0.006659376 -0.106043026 0.070172645 -0.075490125
000300 e8 a5 bc bd 77 fc 35 3c 14 60 11 3e 7c 43 0d be
       -0.092113316 0.011107556 0.14196807 -0.13795274
000310 8c 9d bc 3d 57 04 01 3e c6 71 44 3e ea 8f 0c be
       0.09209737 0.12599312 0.19184026 -0.13726774
000320 93 8c 42 3d 6e 7e 14 be df 73 2b 3e 0c cd 9b bd
       0.047497343 -0.14501354 0.1674342 -0.07607469
000330 b7 ee f1 3d 3d 52 bf 3b fc 3f 7a bc d6 0c cd bb
       0.11813109 0.005838661 -0.015274044 -0.0062576337
000340 1e 8e 08 3d 93 55 bd 3d f3 d4 00 3d 4e 0c 75 3d
       0.03333866 0.092448376 0.031453084 0.059826188
000350 2a a5 34 be 99 4e 12 3e 1c 17 2f 3e 5b 00 26 3e
       -0.1764113 0.14287795 0.1709866 0.16211073
000360 ee 73 14 3e 8d eb 10 be df e3 94 bd 16 12 31 3e
       0.14497349 -0.14152355 -0.072700255 0.17292055
000370 60 f5 18 be d9 30 36 3e 49 f2 1d be 1d 76 0d be
       -0.14937353 0.17792071 -0.15424456 -0.13814588
000380 17 5b c4 3d 01 4a 10 be e2 08 38 bd d8 18 12 3e
       0.095876865 -0.1409073 -0.044930346 0.1426729
000390 d1 11 1f 3e ef ed 3d 3e 7d 00 23 bd 7f 17 1c be
       0.1553414 0.18547796 -0.039795388 -0.15243338
0003a0 81 bb 45 3e 45 1f 2b bd 15 58 21 3d e7 d1 8a 3d
       0.19309808 -0.041777868 0.039390642 0.06778317
0003b0 cd 89 c6 3d 2b 7e c1 3e 61 3d a3 3e a4 59 c7 bb
       0.09694252 0.3779157 0.31882766 -0.006083684
0003c0 b3 56 27 bd 36 11 e5 3d 88 9a 14 3e 26 29 0f 3c
       -0.040854167 0.11184923 0.14512074 0.008737838
0003d0 df e2 1b be 2e b4 ff bc da e7 22 be b9 cd 0e be
       -0.15223263 -0.031213846 -0.15908757 -0.13945664
0003e0 65 80 d2 bd 7f f0 58 3e 89 9b 40 3e 45 79 4d bd
       -0.102783956 0.21185492 0.18809332 -0.05016448
0003f0 ab 4e 8c 3c f6 19 31 3c 34 7d 10 be a2 d5 c9 be
       0.017127356 0.010809412 -0.14110261 -0.394208

hidden1.bias f4 [150]
000000 75 c6 24 3e bf df f5 3c 24 eb 48 bd 37 38 f8 3d
       0.1609133 0.030013917 -0.049052373 0.12120097
000010 0c 08 8e 3d 2a 6e bb bc 02 b5 d7 3b d8 5d c3 bd
       0.069351286 -0.022879679 0.006582857 -0.09539384
000020 ec 4d 80 bc fa 3b ed 3d 20 4e 31 3e 38 c4 3d 3e
       -0.015662156 0.11583705 0.17314959 0.18531883
000030 8d 86 12 be 68 d0 aa bb 00 bd a9 3d 9c d3 17 3e
       -0.1430914 -0.0052128322 0.08288002 0.14826816
000040 3c 8e dc bd 69 1a 20 be aa 3b dd 3d a3 02 e7 bd
       -0.107693166 -0.15635075 0.10802396 -0.112798
000050 5c 57 49 3e 87 4c fb bd 46 53 ca 3d c5 6f 77 bd
       0.19662231 -0.12270456 0.098791644 -0.060409326
000060 00 12 25 be a9 cd 43 be 64 b4 ca 3d fc f7 74 bd
       -0.16120148 -0.19121422 0.09897688 -0.05980681
000070 7d 3b 01 be f2 a4 48 3e bf 76 f9 3d bf 7a 04 3e
       -0.12620349 0.19594172 0.12180852 0.12937449
000080 f2 74 b4 bd 97 ae 63 bc ec 48 25 3d c8 1d 24 bd
       -0.08811368 -0.013896606 0.040352747 -0.040067464
000090 f2 6f ee 3d 53 25 36 bd e1 83 3b bd 4e 1f a8 bc
       0.116424456 -0.04446919 -0.045780066 -0.02052274
0000a0 63 13 9e bd 04 b0 09 be 08 51 b4 bc 7c b2 8f bd
       -0.077185415 -0.13446051 -0.022011295 -0.07016465
0000b0 43 d9 7d bd 0f 6d b9 bd a7 46 cb 3d b2 76 08 bd
       -0.061974775 -0.090540044 0.09925585 -0.03331632
0000c0 85 42 3a 3e d4 34 94 3d 29 f7 a1 bd b6 22 46 3e
       0.18189438 0.07236639 -0.0790847 0.19349179
0000d0 e0 f9 7a bd 21 5c 29 be 5a e0 13 3e c3 c6 e4 bd
       -0.061273456 -0.1653905 0.14441052 -0.11170723
0000e0 33 5f 08 3e 90 d1 17 3e 61 c7 80 bd ec dc 9e bd
       0.13317566 0.14826035 -0.062880285 -0.07756981
0000f0 79 d0 91 3d 2c 3d d4 3d 4e 4a 17 3e 7e 0b 6d 3d
       0.07119841 0.1036323 0.14774439 0.057872288
000100 8a c9 76 3c 8f f5 36 3e 47 c0 39 3d dd e5 22 be
       0.015062699 0.1786711 0.045349386 -0.15907998
000110 a5 44 80 bd ba d6 5b bc 0f 55 97 3d fe b7 40 be
       -0.06263093 -0.013417894 0.073892705 -0.18820187
000120 1e ae 47 be 4a cc e4 bd e5 99 cd 3c d7 3b 04 3e
       -0.19500014 -0.111717775 0.025097797 0.12913452
000130 c3 4a 27 be 98 6e a3 3d 74 c4 27 3c 80 27 39 3e
       -0.16337113 0.079800785 0.010239709 0.18081474
000140 1d 35 e0 bd be 5d 7a bd 9c 20 9d 3d 05 4b 3f be
       -0.109476306 -0.061124556 0.07672235 -0.18680961
000150 24 bd 08 3e a1 31 ab bd 05 72 57 3d 65 93 fa bd
       0.13353401 -0.08359075 0.052598972 -0.122351445
000160 c7 f4 18 3e 4b b8 74 3d a9 7b c7 3c 9f 95 c2 bd
       0.14937125 0.059746068 0.024350958 -0.09501194
000170 a5 ef 11 be 9b e8 7f 3c bb 52 0a be 9d d4 63 bb
       -0.14251573 0.015619422 -0.13508122 -0.0034764179
000180 11 07 31 3e 01 27 50 3d ca 01 5d bd 11 b5 91 bd
       0.17287852 0.050818447 -0.053956784 -0.07114614
000190 33 be c0 3d 53 0c 21 be 47 da 20 be 59 21 83 bc
       0.094112776 -0.15727358 -0.15708266 -0.016007112
0001a0 21 ca 09 3e aa aa e1 bd 23 50 e9 bc 5d 02 ba bd
       0.13456012 -0.1101888 -0.028480595 -0.09082482
0001b0 0a 46 06 3e 2d 31 c0 bd d1 bb e6 bc 1f c1 c4 3d
       0.13112655 -0.093843795 -0.02816573 0.096071474
0001c0 e7 47 bd bd d5 2d 49 3e f0 2f d8 bd 4f c1 89 bd
       -0.0924223 0.1964639 -0.10556018 -0.06726324
0001d0 b4 3c 64 3c 2a f8 bc bd 97 e7 44 be a8 43 18 be
       0.013930488 -0.09227021 -0.1922897 -0.14869559
0001e0 b5 dd 34 be c9 4f 38 3e 53 2f 5b 3c 8e 00 c6 bd
       -0.176627 0.17999186 0.013377982 -0.096680745
0001f0 78 28 8e 3d 0b 2c 1d 3c b1 b2 b1 bd af 2f 06 3e
       0.069413126 0.00959302 -0.08676661 0.13104127
000200 2b 93 02 be 71 a9 0c be 6f 37 16 3e a4 06 dd 3d
       -0.12751453 -0.13736512 0.14669584 0.10792282
000210 64 90 d3 3d ca e1 7a 3d 78 b8 a8 bd d0 78 41 be
       0.10330275 0.061250485 -0.082383096 -0.18893743
000220 dc fb 70 3b 69 0b c6 3d b4 4b 00 3e 79 4b 0a bd
       0.0036771214 0.09670145 0.12528878 -0.033763383
000230 b9 9d a3 bd a1 da 9a 3c 06 18 30 3e 70 71 25 bc
       -0.079890676 0.018903079 0.17196664 -0.010097846
000240 87 71 37 3e 9e cb 8e bd b6 cf 51 3d ac be 00 be
       0.17914401 -0.06972431 0.05122348 -0.12572736
000250 7c 16 0c 3c 93 69 0f 3e
       0.008550283 0.14005117

hidden2.weight f4 [150, 150]
000000 20 2a 91 bd d7 6d 92 3d d4 2d 7d 3d f6 bc 72 3d
       -0.07088113 0.071498565 0.061811283 0.05926224
000010 f4 6a 15 bd ad 49 65 3d ef ab 42 3c 3c 75 52 bd
       -0.03647895 0.055978466 0.0118818125 -0.051381335
000020 29 05 a0 3d 32 38 ad bd 8e 89 8d 3d 63 ff a8 3c
       0.07813484 -0.08457984 0.06911002 0.02062959
000030 db 45 5a 3d 3d a6 d4 3c 4c 32 a0 bd d6 20 f8 3c
       0.053289276 0.025958175 -0.07822093 0.030289095
000040 76 5a 70 bd ba fc 00 bd 9b ae b6 bc ed 0b 38 bd
       -0.05868002 -0.03149102 -0.022300055 -0.04493325
000050 69 36 88 bc 67 34 68 3d 64 c4 1f 3d 44 36 61 bd
       -0.016627507 0.0566906 0.039005652 -0.054983392
000060 e7 a7 59 3d b4 69 88 3c 83 e6 d5 3b 28 65 e7 3b
       0.05313864 0.016651966 0.0065277233 0.0070616193
000070 bf 5b 25 bd 10 27 91 bd 5f b7 7e 3c 4e 34 8a 3d
       -0.0403707 -0.07087529 0.015546649 0.067482576
000080 0a 4b 89 bd 83 4e 8e 3d bb 3a 21 3d 7a d5 5b 3d
       -0.06703766 0.06948569 0.03936265 0.053670384
000090 e7 44 3f 3d 3f ea 6f 3d 1b 2a 2b 3c 0c df 20 bd
       0.04669657 0.058573004 0.01044705 -0.039275214
0000a0 fc fb 40 bd 9b d2 87 bd f4 ab 7b 3b 3e d3 2e 3c
       -0.04711531 -0.06631967 0.0038402053 0.010670481
0000b0 57 3c 81 3c d2 92 5a bd e6 f2 5a 3d 1f f9 42 bd
       0.015775843 -0.053362675 0.053454302 -0.04760086
0000c0 37 18 99 bd dd e7 9d 3d 3d 6f 9c 3c 24 0e 80 3d
       -0.07475322 0.0771024 0.019096011 0.06252697
0000d0 b1 b8 ad 3b cc 08 99 3d 79 04 bb bb fb 05 05 bd
       0.005301558 0.07472381 -0.0057073203 -0.032476407
0000e0 16 f6 14 3d 15 b8 48 3c 7b 71 00 bd 93 77 96 bc
       0.0363675 0.01225092 -0.031358223 -0.018367564
0000f0 2a b6 0a 3d 7b 19 59 3d e5 09 89 bd a4 5e 73 bd
       0.03386513 0.053002816 -0.0669134 -0.05941643
000100 f3 48 53 3d 55 6b 63 3d bc 8b 36 bc 29 96 f7 bc
       0.05158324 0.05552228 -0.011141714 -0.03022297
000110 35 f9 cc 3c c4 ea 80 3d ed 25 68 bd 6f 53 9f 3c
       0.025021175 0.06294778 -0.056676794 0.019448964
000120 bd b1 39 3d 3c 5b bb 3c 0b a3 9c 3d ec 2a a2 bd
       0.04533552 0.022870652 0.076482855 -0.07918343
000130 55 d4 3f 3d ac 06 2f bc b7 1f 25 bd 59 fc 83 3c
       0.046833355 -0.010682743 -0.04031345 0.01611154
000140 1a b7 98 bc b5 2e 93 3d 6e e6 78 bd 4f 6b 32 3c
       -0.018641997 0.07186643 -0.06076663 0.010889842
000150 52 10 08 bd c1 92 35 3d 7c da 70 3d d2 9f 63 3d
       -0.03321869 0.04432941 0.058802113 0.05557234
000160 42 8b bd 3c c8 97 a0 bd 77 ee 34 3c cb a3 3c bd
       0.023137692 -0.0784145 0.011043183 -0.046054643
000170 6f ad d0 3c 41 9f 07 3c e8 c9 8c bd 0d 06 7b bd
       0.025473325 0.008277715 -0.06874448 -0.061285067
000180 c5 df 35 bd 33 76 9a bd c7 f9 01 bd 4d e0 fc bc
       -0.044402856 -0.07542076 -0.031732347 -0.030868674
000190 70 aa 2e 3d 25 38 20 3d ce 00 7b bd 0e 41 35 bc
       0.04264301 0.039116044 -0.061280064 -0.0110628735
0001a0 fc 06 85 3c fa a9 aa bc 7e 8d a1 3c 52 05 ec bb
       0.016238682 -0.020833004 0.019720789 -0.0072027827
0001b0 b8 4d 9a bd 8d ee 8a 3d f6 cf 7d bd bd 49 21 bd
       -0.07534355 0.06783781 -0.061965905 -0.039376963
0001c0 5b e0 0e 3c 20 70 b2 3c 0c 19 d9 3c c6 5b b5 3c
       0.008720483 0.021781981 0.026501201 0.022138488
0001d0 58 c9 8c bd 19 17 88 bd 76 49 8d 3d 9c fd 8a bd
       -0.06874341 -0.066450305 0.06898777 -0.067866534
0001e0 d5 f1 c6 bc 8c 16 38 3d 73 73 71 3d e5 02 65 3d
       -0.024285236 0.044943377 0.05894799 0.055910964
0001f0 a7 61 07 bd ab ce ec 3c a1 ab 0f 3d f7 96 72 bd
       -0.033052113 0.02890714 0.035075787 -0.059226003
000200 c2 58 64 bd 04 48 c7 3b a1 db 8d 3d d2 c4 f5 bc
       -0.05574871 0.006081583 0.069266565 -0.030001078
000210 38 8f b6 3c 18 9a 6b 3d 60 15 3f 3d fb f9 04 3d
       0.022285089 0.057520002 0.046651244 0.032464962
000220 6c 9b cc bc 5a d7 34 3d 18 b0 a5 bd 0a 8c be 3b
       -0.024976455 0.044150688 -0.08090228 0.005815034
000230 83 9b 31 3c c4 74 b2 bc 3c ba 94 3d 68 e8 9d bd
       0.0108403 -0.021784194 0.07262084 -0.077103436
000240 fd 17 61 bd 3f 79 8c 3d ba 43 d2 bc 7c 77 67 3c
       -0.054954518 0.06859063 -0.02566706 0.014127608
000250 73 34 05 3c 39 b0 82 3d b0 88 90 3a fc 8c ca bc
       0.008130181 0.06381268 0.0011027064 -0.02472543
000260 cd 9b f9 bc b9 38 d7 bc 17 9f 69 bd a0 30 eb 3c
       -0.0304698 -0.026272165 -0.057036486 0.02870971
000270 0b 81 a6 bb c5 bb 53 bd 18 37 b5 bc b7 d6 8c bc
       -0.005081301 -0.051692743 -0.022120997 -0.017192228
000280 45 f3 df 3c 57 0c 66 bd 55 05 a2 3d a5 3e 9a bd
       0.02733768 -0.056164112 0.07911173 -0.0753148
000290 35 8b a2 3d eb 1f 36 3a e0 b6 fd 3c 80 67 e2 3c
       0.07936708 0.0006947505 0.03097099 0.027637243
0002a0 b7 67 8f bd f2 50 96 bd bc 99 53 3c 96 41 96 bc
       -0.07002204 -0.07339658 0.012915071 -0.01834182
0002b0 4b c4 15 bd e9 4e 11 bd fc 6b 5f bd 37 82 0f 3d
       -0.036564153 -0.035475645 -0.05454634 0.035036292
0002c0 d8 a0 87 bd f2 ba 27 bd 6f 1a 30 3d 0a 32 0d 3d
       -0.066224754 -0.04094977 0.04299396 0.03447155
0002d0 0b 78 f3 bc d6 f6 9f bd 1d ae 21 3d 8e 7d 89 3d
       -0.029720327 -0.07810752 0.039472688 0.06713401
0002e0 50 36 21 bd ea ab 92 3d 57 1e 27 bd 1a ed 67 3d
       -0.039358437 0.07161696 -0.04080042 0.056622602
0002f0 50 4d 13 3d 3d 82 85 bd b1 8b ac 3c da ea 2b bd
       0.035962403 -0.065189816 0.021062704 -0.04197202
000300 3a 55 b7 bc 43 cc 2b 3b c5 29 71 bd b9 0a ff 3c
       -0.022379506 0.0026214279 -0.058877725 0.031133043
000310 18 0c 6b 3d e2 b2 8d bc ea 61 19 3d 7c 2d 93 bd
       0.05738458 -0.017297212 0.037446894 -0.0718641
000320 5e 20 02 3c fd ad 2e bd c8 b3 1f 3b c4 3e dc bc
       0.007942287 -0.042646397 0.0024368633 -0.026885398
000330 d0 b7 35 bd 72 d1 a6 bc d7 d4 99 bd 1f f9 15 bd
       -0.04436475 -0.020363543 -0.07511299 -0.036614534
000340 8b 78 19 bd 97 1c a2 3d 93 4f 27 bd 37 5f 0a bb
       -0.037468474 0.07915609 -0.040847372 -0.0021113881
000350 f9 41 bf bc c4 a0 83 bd a8 df bd 3c c5 26 76 bd
       -0.023346888 -0.06427148 0.023177937 -0.060095567
000360 84 95 fe 3c 0b b3 07 bd 8b bd 13 3d d3 d4 5b 3d
       0.031077154 -0.033129733 0.036069434 0.053669762
000370 0e 88 80 3d 19 4f 9d 3d f0 19 8f bc be c0 a5 bd
       0.0627595 0.07681102 -0.017468423 -0.08093403
000380 77 ae d9 bc e8 57 a1 bd 4b 20 5e 3c 4d 09 97 bd
       -0.02657245 -0.07878095 0.013557504 -0.07374821
000390 2b db 59 bc f0 be 89 3d d4 f8 3a bb 3a 54 b7 3a
       -0.013296883 0.067258716 -0.002852966 0.0013986893
0003a0 ee 24 9b 3d f1 c6 25 bd 17 07 9b bd 23 71 31 3d
       0.07575403 -0.04047293 -0.07569712 0.043320786
0003b0 de 52 63 3d d1 46 e0 bb 3e 3c 84 bd f4 22 90 3c
       0.05549895 -0.0068443795 -0.06456803 0.017594792
0003c0 45 cd cc 3c 3d 01 68 bd 22 33 17 bd 09 27 f2 39
       0.025000224 -0.056641806 -0.036914 0.0004618692
0003d0 5c 1f 46 3d 7a 61 d3 b9 0d 28 9e 3d bb 05 9d 3d
       0.04836975 -0.00040317682 0.07722483 0.076671086
0003e0 db 17 a9 3c 32 65 4c bd de e5 21 bd 82 f7 af bc
       0.020641258 -0.049901195 -0.03952586 -0.021480326
0003f0 36 bb ea 3b be 6f 4d bd e2 3b 9f bd 12 96 c7 bc
       0.0071634306 -0.050155394 -0.077750936 -0.024363551

hidden2.bias f4 [150]
000000 60 5a 74 bc 41 cf 9d 3d 95 35 64 3d 0d 1c 90 3d
       -0.014914125 0.07705546 0.055715162 0.070366
000010 a9 c1 ff 3d 72 b9 c2 3c 92 65 0b 3d 5a 61 4b bc
       0.124881096 0.023770068 0.034032412 -0.012413347
000020 13 0f 86 3d 27 14 aa bc 7e 9b c0 3d bd a1 ef 3b
       0.06545844 -0.020761563 0.09404658 0.007312982
000030 6a 77 7d bb ac 08 d6 3d d1 bd 5f 3d 4d 43 67 bd
       -0.0038675913 0.10450873 0.054624382 -0.056460667
000040 b0 3e 16 bd 0b aa 4b 3c 4a f4 8a 3c 78 47 c6 ba
       -0.036680877 0.012430678 0.01696219 -0.00151275
000050 8c e9 88 3d 60 3b d7 3c be dd f8 3c 7b 13 8e bd
       0.066851705 0.02627343 0.030379172 -0.06937309
000060 08 ad ab 3c fd 0a a2 bc 58 b4 8e bb 55 cf 96 3d
       0.020956531 -0.01978063 -0.0043549947 0.07363764
000070 c4 9c 6f bd 2b 98 84 bd 7d 06 34 3c 38 47 b6 3d
       -0.058499113 -0.06474336 0.010987875 0.08900303
000080 14 66 d7 3c b1 37 08 bd 08 60 6f 3c 8f fd f4 3c
       0.026293792 -0.033256236 0.014610298 0.029906062
000090 66 97 03 3d f5 e6 3e 3d e7 0b 88 bd 97 9d 9e 3d
       0.032126807 0.046606977 -0.06642895 0.077449016
0000a0 ae 3a c1 3a 7b 18 46 bc 7d 38 ad 3d 8d 71 9e bd
       0.0014742219 -0.012090798 0.0845804 -0.07736502
0000b0 16 35 6b bc c3 2c a8 bd ca 70 5b 3d 56 9b 6a bd
       -0.014355918 -0.082116626 0.05357436 -0.057277046
0000c0 34 3d 9d 3d e0 34 3b bc e7 de 30 bd 13 79 89 bd
       0.07677689 -0.011426181 -0.043181326 -0.06712546
0000d0 09 f5 dc 3b a9 c3 61 3d 40 aa 81 bd 43 33 a2 bc
       0.0067430777 0.055118237 -0.06331301 -0.019799834
0000e0 c1 94 25 bd 46 cd 12 3c 34 f3 93 bd 4a 07 8e bb
       -0.040425066 0.008960074 -0.07224122 -0.004334365
0000f0 36 a8 78 3d 44 96 98 3d 03 2a 09 3c b1 f4 92 3d
       0.060707293 0.07450536 0.008371833 0.071755774
000100 b3 aa 3a bd f4 fa ce 3c b3 3a 98 bd 51 cd 67 3d
       -0.045572948 0.025266148 -0.07433071 0.05659229
000110 10 a2 86 3d a7 8d ea bb 0a 98 a2 bc f8 20 21 bd
       0.0657388 -0.0071579996 -0.019847888 -0.039338082
000120 3c b2 4d bd 31 e9 36 bd d5 ee 3c 3c a5 8a 18 bd
       -0.050218806 -0.044655982 0.011531551 -0.037241597
000130 26 94 a2 bd e2 54 dd bc 30 27 b3 bb 69 d3 74 3c
       -0.07938413 -0.027018014 -0.005467318 0.014942982
000140 6c c7 be 3c 6a 7b 8d bd 9b 04 82 bd ad 7e 73 3d
       0.023288451 -0.06908305 -0.06348535 0.05944698
000150 d5 5d 97 bd 8d f6 5e 3d 29 f3 0c bd d5 fe 21 3d
       -0.07390944 0.054434348 -0.034411583 0.039549667
000160 68 a4 e9 3d cd 2f 3c bd b3 88 83 bd 46 a8 04 3d
       0.11408311 -0.045944024 -0.06422558 0.03238704
000170 45 5a 19 bd fb dc f1 bc dd f9 d7 bc 68 57 1c 3c
       -0.037439603 -0.029524317 -0.026364261 0.009542324
000180 ed 3b 42 3d d0 16 67 bd 83 8a 5a 3d b4 54 f4 bb
       0.04742043 -0.05641824 0.05335475 -0.0074563865
000190 6b ae d7 bc 2d 09 a4 bd 3d 55 99 bc 60 fe f1 3c
       -0.026328286 -0.08009563 -0.018717403 0.02954024
0001a0 aa 9a 54 3d 80 36 63 3c ad 49 46 3c f0 b1 88 3d
       0.05190531 0.013867974 0.012102527 0.06674564
0001b0 32 8a 8d 3d 52 26 ba 3d 56 27 55 bd b6 f7 0d 3d
       0.06911124 0.0908934 -0.052039467 0.034660064
0001c0 e2 3d a2 3d b1 df 94 3d 6c de 48 3d 15 62 b3 bc
       0.079219595 0.07269228 0.049040243 -0.021897355
0001d0 8c b3 35 bd 26 86 98 bd 1e cd 87 3d c8 a6 51 3d
       -0.044360682 -0.07447462 0.0663092 0.051184446
0001e0 a9 41 f9 3c e1 b5 71 bd 3d 06 d8 3c 5e a1 aa 3d
       0.030426817 -0.059011344 0.026370162 0.083315596
0001f0 d4 bd 56 bd 19 e6 ae 3d 74 db 91 bc 53 4a 80 bd
       -0.052427128 0.085399814 -0.017804839 -0.06264176
000200 79 0b a6 bc f8 73 8f bc ee e1 a8 bd bb 69 70 bd
       -0.020269142 -0.017511353 -0.08246218 -0.058694582
000210 1b 8a d0 ba ce 19 cc 3b a1 4b ab 3d 6e 71 04 bd
       -0.0015910299 0.006228662 0.083640344 -0.032334737
000220 81 58 72 bd 2e 3d 35 bd f6 34 35 3e e1 1f 9b bd
       -0.059166435 -0.0442478 0.17695984 -0.0757444
000230 13 25 94 3d c5 dd b5 3c 4f 6e e4 3b b2 a2 80 3d
       0.07233634 0.022200475 0.0069711576 0.06281032
000240 3a e9 19 3c 90 84 b8 3d 6c 9e 88 3d 56 91 36 bd
       0.009393984 0.09009659 0.066708416 -0.044572197
000250 83 32 5e bd 65 2f e1 3b
       -0.05424739 0.006872105

hidden3.weight f4 [50, 150]
000000 41 e5 87 3c 51 d6 38 3d af 45 a4 3d 5b 7c 4c 3d
       0.016588809 0.045126263 0.080211036 0.049923282
000010 81 c5 88 3d 74 18 53 bb 5c 4b f9 3d 2a a7 ad be
       0.06678296 -0.003221062 0.12172577 -0.339166
000020 63 c5 c4 3d 22 f3 f0 bc 54 b6 9b 3c 5f 1d 5d be
       0.09607961 -0.02941281 0.01900784 -0.21593235
000030 27 d1 b8 3b 1f 70 c9 3d fd 20 20 be 2c 1b a7 bd
       0.0056401673 0.098358385 -0.15637584 -0.081594795
000040 70 09 ac 3d 66 3c 96 bc da 31 06 3d 5f 67 1d be
       0.084002376 -0.018339347 0.032762386 -0.15371464
000050 d3 49 f2 3d 55 6b 8b 3d 44 57 5d 3d 81 06 97 3c
       0.11830487 0.06807581 0.0540383 0.018435718
000060 a8 88 8b 3d 25 50 03 3b 2a 0d 50 3d 63 b7 3d be
       0.068131745 0.0020036784 0.050793804 -0.18526988
000070 14 8a 1b 3d 3d 82 0c 3d 65 05 3e be 69 e1 d2 3d
       0.03797348 0.034303892 -0.18556745 0.102969
000080 d1 b7 fd bb ca 4e 8e 3e f5 e4 38 be 0c 47 70 be
       -0.00774286 0.27794486 -0.1805609 -0.23464602
000090 bb 54 bb bd 7a ba 97 be c9 43 d2 3c a5 05 07 3e
       -0.091470204 -0.29634458 0.025667088 0.13185747
0000a0 2e b7 93 be c7 97 a2 3d 24 a0 44 3d 91 17 8a 3c
       -0.28850693 0.079391055 0.048004285 0.01685694
0000b0 c6 fc 8b bd 39 24 93 bc 64 d9 04 be 13 74 58 3c
       -0.06835322 -0.017961608 -0.12973553 0.013211268
0000c0 3d 8d 19 bd 53 0e 24 bc 02 7b 20 bd f8 84 01 3d
       -0.03748821 -0.010013181 -0.03917981 0.03162095
0000d0 d8 bf 54 3d 45 91 1a be 0e ee 2a 3d bc e7 20 bd
       0.05194077 -0.15094478 0.041730933 -0.0392835
0000e0 9e 9d 9a bd 12 07 f3 3d 98 2a a3 3d dd 8a c4 be
       -0.07549594 0.11866583 0.079671085 -0.38387194
0000f0 72 6c 90 bd 9b 29 fc 3c 85 2c 90 bd f4 02 60 be
       -0.07051934 0.030781558 -0.070397414 -0.21876127
000100 5b 33 08 3d 51 34 ae bd 21 d3 94 3d 70 d5 a2 3d
       0.0332521 -0.08506072 0.07266832 0.07950866
000110 85 7b 66 bd 94 33 7a 3d b2 30 cd bc 5f 0c 1c bd
       -0.05627014 0.061084345 -0.025047634 -0.038097735
000120 75 f9 4f 3d af 10 0c bd fa 77 9f bd 21 b1 dd 3b
       0.05077501 -0.0341956 -0.077865556 0.0067655
000130 43 7f 6a 3d 84 20 f0 3d c1 2d 85 bc a8 01 04 be
       0.057250272 0.11724952 -0.016257169 -0.12891257
000140 4a ef 07 bd b0 99 8a bd db f2 f7 3c 01 a3 94 3d
       -0.03318719 -0.06767595 0.03026717 0.07257653
000150 b6 98 21 3d 99 5b 3a 3c a6 54 9f 3d 57 77 07 3d
       0.039452277 0.011374378 0.07779817 0.033072796
000160 12 c9 16 3d 9c 66 14 bd 23 4f 1e bd 2e f0 8d bd
       0.03681285 -0.03623067 -0.03864969 -0.06930576
000170 de 15 aa bc 51 73 0c bd d7 ee 07 bd c2 6b 99 3d
       -0.02076238 -0.03428966 -0.03318676 0.07491256
000180 57 39 40 3d dd f2 92 bd b1 8d 90 bd 2c b5 9c bd
       0.046929684 -0.07175229 -0.070582755 -0.07651743
000190 28 ff 89 bc ba b2 ca bb c1 75 97 bd b8 03 3b bd
       -0.0168453 -0.0061858566 -0.07395507 -0.045657843
0001a0 14 bb 81 bd 33 fc dd bd d7 78 ee 3c 4c cc 8f bd
       -0.063345104 -0.10839119 0.029110355 -0.070213884
0001b0 4e ed e1 3d 73 1d 79 bd 2d a3 1f bd 01 88 10 be
       0.110315904 -0.0608191 -0.038973976 -0.14114381
0001c0 ec 85 4b 3d ef d8 3d 3d 0d 2b 94 bd 04 73 89 be
       0.049688265 0.046349462 -0.07234774 -0.26845562
0001d0 cc 23 86 bd ac 2b a4 bc 9b bd ad bd 98 32 6c bd
       -0.065497965 -0.020040356 -0.0848343 -0.057665437
0001e0 c3 3f 99 bd 7a e4 cc bb 7f a5 74 ba fa 7f e4 3c
       -0.07482865 -0.0062528225 -0.0009332522 0.027893055
0001f0 6e 8f c2 3d fc 4b d4 3d 3b 36 07 b7 5b 23 93 bc
       0.09500013 0.10366055 -8.059254e-06 -0.017961195
000200 29 14 97 bc c3 f8 47 bd 30 4b 8d bd 61 d7 22 3c
       -0.01844223 -0.048821222 -0.068991065 0.009939046
000210 89 33 42 be e7 90 36 bd 51 9b 71 3d 61 71 9d bd
       -0.18964972 -0.044571783 0.058986012 -0.07687641
000220 e4 80 db bc 2c 34 07 3d 2d 9b 9f 3d 69 e2 60 bd
       -0.026794858 0.03300874 0.07793269 -0.05490342
000230 42 0d 16 be 21 99 7b be c0 67 83 bd 0b 02 0b be
       -0.14653495 -0.24570133 -0.06416273 -0.13574998
000240 1f 36 5d bd 6b 14 8b 3d 58 a8 83 bd 6d b5 55 bd
       -0.054006692 0.06791004 -0.064285934 -0.052174974
000250 91 a1 0f 3d 58 50 8c be a8 50 3c bb bf 66 95 bd
       0.03506619 -0.27405047 -0.0028734598 -0.07294988
000260 d2 64 d1 3d a9 f4 0a 3e 33 0d 2d bd 52 99 4a 3e
       0.10224308 0.13569893 -0.042248916 0.1978505
000270 ca 82 f0 3d 31 a0 22 bd 48 2f 09 3e 4b 13 fa 3c
       0.11743696 -0.03970355 0.13396943 0.030526778
000280 a7 39 5f bd 3c b2 51 be 51 99 7c bc 83 f5 a1 3c
       -0.05449834 -0.20478147 -0.015417413 0.01977039
000290 74 e9 d0 bd 80 42 57 bd f8 89 64 3d 6a 56 94 3d
       -0.10200778 -0.052553654 0.05579564 0.07243045
0002a0 d2 72 e6 3b 90 8e 8b be e2 34 d7 3d e1 e1 64 bc
       0.0070327306 -0.27257204 0.105081335 -0.013969869
0002b0 de 31 4b 3e ab 34 a3 3d b7 6d f3 3b 11 3a 33 bd
       0.19843242 0.0796903 0.0074288505 -0.04375655
0002c0 9d 62 f8 bc 26 e0 73 be 83 7f 2b 3d ff 30 08 3d
       -0.03032046 -0.23815975 0.04186965 0.03324985
0002d0 c6 48 bb bd 0b bc ca 3d 16 73 a0 3b 7d b7 69 3e
       -0.0914474 0.098991476 0.004896532 0.22823901
0002e0 7c 70 6d be 29 55 88 be 7a 27 9f be 4a d9 c1 be
       -0.2318744 -0.26627472 -0.31084806 -0.3786109
0002f0 10 2a 84 3d 11 c3 77 3e 51 c6 a4 be 35 5b 5b bc
       0.06453335 0.24195506 -0.32182553 -0.013388445
000300 f0 bd d6 3c 83 d6 03 3d 22 4a 52 be 89 5e 8a bd
       0.026213616 0.032186996 -0.20536092 -0.067563124
000310 bc 51 f4 bd 01 bc 8a bd 14 85 2c bc 4d d0 1d 3e
       -0.11929652 -0.0677414 -0.010529775 0.15411492
000320 56 b1 a1 bc a8 6c 01 bd 6b 39 10 3e 0a 03 73 be
       -0.01973788 -0.031597763 0.14084403 -0.23731628
000330 82 e1 b6 bc 17 86 95 3d 1c c2 7d be b0 8e 0b 3e
       -0.022324327 0.07300966 -0.24781078 0.1362865
000340 31 0a 45 bc b2 77 71 bd ba 77 de bd 48 55 5c 3d
       -0.012026356 -0.05895204 -0.1086268 0.053792268
000350 c7 43 75 bd 78 16 97 be 47 02 0f 3d 13 b1 54 be
       -0.05987909 -0.2950933 0.03491428 -0.20770673
000360 79 47 1b bd c7 39 fb 3d 74 04 bf bc 9f a2 d2 3c
       -0.03790996 0.122668795 -0.023317553 0.02571231
000370 e7 6b 0f 3d cd 84 30 3c 56 5e d0 bc ea d4 8a 3c
       0.035015013 0.01077385 -0.025435608 0.016947228
000380 76 93 c3 3d 2f 31 2d bd 22 6b 8f bd d3 14 b1 3d
       0.0954961 -0.042283233 -0.07002856 0.0864655
000390 b5 93 6c bd bf 02 fe bd ee cf 9d 3d c6 9b 65 3d
       -0.057758052 -0.124028675 0.07705675 0.05605676
0003a0 70 a1 1e 3b 12 2f 4e 3e 0d f2 5e bd ad dd 42 3e
       0.002420511 0.20135143 -0.054430056 0.19029875
0003b0 cc 30 97 3b a4 ae ad bd 1c ba a3 3d 9d b3 9b 3d
       0.0046139713 -0.08480576 0.07994482 0.07602618
0003c0 21 b4 8d bd ab 34 cc bd 87 4b 9a bd 8e c9 cc 3c
       -0.069191225 -0.09970983 -0.07533937 0.024998453
0003d0 92 c2 61 bb 6c 83 e3 3d f3 4e 67 3e 15 46 7a bd
       -0.0034448248 0.11109051 0.2258871 -0.06110199
0003e0 82 4a 68 3c ec e2 83 bd 53 5d a6 3d 45 ca 71 3d
       0.01417792 -0.06439766 0.08123269 0.05903079
0003f0 3b cf 9c bd c9 58 98 bd ed a9 6c 3d dc e5 52 be
       -0.076567136 -0.074388094 0.05777924 -0.20595497

hidden3.bias f4 [50]
000000 7a b0 27 3d 32 4d fc 3c 96 b9 9d 3d 14 36 2b bd
       0.040939786 0.030798528 0.07701413 -0.04179962
000010 68 5a 58 3d f1 89 b2 3d a0 2a 51 bd ac a5 a7 3d
       0.052820593 0.087177165 -0.05106604 0.08185896
000020 ed 72 c6 3a 05 f4 af bc 51 7b 1a bd 3f b3 0f bd
       0.0015140452 -0.021478662 -0.03771526 -0.03508305
000030 1e 87 10 bd d3 67 be 3d b9 89 50 bd 68 6d 6e 3d
       -0.035285108 0.09297147 -0.050912593 0.058209807
000040 b4 e7 f0 bc 34 1f 3c 3d 07 e5 77 bd a8 e8 92 bd
       -0.02940736 0.045928195 -0.060521152 -0.07173282
000050 87 d5 cd 3d c2 4b 00 bb 2e 48 19 3d 67 22 a3 3d
       0.10050493 -0.0019576405 0.03742235 0.07965546
000060 6e 31 47 3d 8c 47 c8 3b 55 b1 17 3d d2 a1 d8 3c
       0.048631124 0.0061120447 0.03703435 0.02644435
000070 c0 5b 91 bd f9 6a 34 bd c8 f7 73 3d 3d bd 70 3d
       -0.07097578 -0.04404733 0.059562474 0.05877422
000080 29 f4 f2 bc fd 05 2c bd bf ee e1 3d 8e 3b ae bc
       -0.02965744 -0.0419979 0.11031865 -0.021268632
000090 74 0e 34 bd 80 3b b4 bc 74 c8 ca bc 20 8d 52 bb
       -0.043959096 -0.022001028 -0.024753787 -0.0032127574
0000a0 0d 56 9c bd d8 5b 4a bd 4f 6f 04 3d 47 05 09 3d
       -0.076336004 -0.049403995 0.032332715 0.0334523
0000b0 23 8d 35 3d 18 2f ad 3d 3c c9 54 bd 21 07 1b 3d
       0.04432405 0.08456248 -0.051949725 0.037848596
0000c0 2f ea 34 bd f8 ca 8d 3c
       -0.044168647 0.017308697

output.weight f4 [3, 50]
000000 1a d2 bb bd fc de c7 be be e0 92 3d 0d 6d 5e bd
       -0.09170933 -0.3903731 0.071717724 -0.054303218
000010 5d f0 ec be 3a 59 38 3e a8 d0 24 3d 1a ba 8b 3e
       -0.46277133 0.18002787 0.040238053 0.27290422
000020 1d 4b cd be 61 ff 88 3e 35 d9 53 3d 0d 70 e3 bd
       -0.4009637 0.2675734 0.051720817 -0.11105356
000030 23 e6 cc 3d 3e 0d f4 be b3 08 f8 3d 49 5f db be
       0.100048326 -0.47666353 0.12111034 -0.42846134
000040 25 b4 cb 3d 8c 34 a8 3e c0 ca de bd 7c c7 d9 3c
       0.09946469 0.3285259 -0.10878515 0.02658438
000050 0a a1 a5 3e 77 f6 e0 be e6 c5 90 3e 2e 13 9d 3e
       0.32349426 -0.43938038 0.28275985 0.30678695
000060 05 57 8f be 74 1d 8e 3d 0f 27 a5 be 95 24 d7 3e
       -0.27996078 0.069392115 -0.32256362 0.42020097
000070 dc 27 0f bc d1 6a 7d be 8c 0e d4 3d 96 a4 86 3d
       -0.008737531 -0.24747778 0.10354337 0.06574361
000080 4c 1b 9e 3d ac 8a fa bd 78 f6 62 be 54 7c 6e 3d
       0.0772005 -0.12233481 -0.22164333 0.058224037
000090 3e d9 fb bc e1 3c a2 bd 0d af 37 3e bc 35 0b 3d
       -0.030743238 -0.07921768 0.1793787 0.033986792
0000a0 1a eb bb 3d 05 12 cf bd e9 33 a0 be 04 33 c7 be
       0.091757014 -0.10110859 -0.31289604 -0.3890611
0000b0 37 6d f2 be 31 b6 90 3e 81 10 ed bc 6d 20 a2 3e
       -0.4734895 0.28264 -0.028938534 0.31665364
0000c0 8d c3 93 3e 96 e5 ff be fb f0 19 be 00 c6 18 be
       0.2886013 -0.49979848 -0.15033333 -0.14919281
0000d0 41 57 1b be d0 c1 ab 3c 31 4a a7 bc f5 ea a6 bd
       -0.15170003 0.02096644 -0.02042112 -0.08150283
0000e0 f3 ec bd bc 46 0d 26 be 8b db 3b 3e b4 ef 06 3e
       -0.023184275 -0.16216001 0.18345468 0.13177377
0000f0 dd 66 e8 bb 41 84 05 3d 1f 0b b8 3d 7e a4 53 3e
       -0.0070923404 0.03259683 0.08986496 0.20668218
000100 ba 70 a9 bc c2 6d 97 bd 25 a0 c9 3d 5a 5d 20 be
       -0.020683635 -0.073939815 0.09844998 -0.15660611
000110 e1 9d b5 3d 95 ac d2 bd f2 a7 c9 bd 23 87 ad 3d
       0.08868004 -0.10286824 -0.09846486 0.08473041
000120 2d 7b 2c be b9 c5 c3 3c 64 85 87 ba 07 cb 18 3d
       -0.16843863 0.023897992 -0.0010339436 0.037302997
000130 91 4b 15 3e 07 cb c9 3c 21 91 e7 bd 2e c6 90 3e
       0.14579608 0.024632944 -0.11306978 0.282762
000140 d4 65 ec 3d fd 70 99 bd c8 65 01 3e 32 b0 03 3e
       0.1154286 -0.07492254 0.12636483 0.12860182
000150 b7 a4 67 bd fa d5 dc bd e6 24 0a be 42 eb 9c bd
       -0.05655357 -0.10783 -0.13490638 -0.07662059
000160 d6 6a 36 be a2 24 dc 3d 72 b5 89 bd 61 20 c1 bd
       -0.17814192 0.10749175 -0.06724061 -0.09430004
000170 b9 5d 1d 3e e3 ce 14 be 47 21 4b 3e 42 bc 9f bd
       0.15367784 -0.14532046 0.19836913 -0.07799579
000180 72 1c c0 bc 87 64 bd 3d 59 d6 f4 3d f2 dd d3 bb
       -0.023451064 0.0924769 0.11954946 -0.006465667
000190 3a 73 78 3e d5 50 59 3e c8 7c 09 3e cc 33 d7 3d
       0.24262705 0.21222241 0.13426507 0.10507926
0001a0 ad 95 d3 3d 2d 9e 2d be 18 1d 0c be 17 34 c8 be
       0.10331283 -0.1695487 -0.13682973 -0.3910224
0001b0 66 19 66 3e 55 11 9f be 1b 2b c9 bd aa 86 88 3c
       0.22470626 -0.3106791 -0.09822675 0.016665775
0001c0 66 69 9f bd e0 6e 74 3d d6 14 20 3d eb 59 1e 3e
       -0.07783775 0.05967605 0.03908237 0.15463988
0001d0 74 37 23 3d 42 3e 99 be b1 60 58 bc fe e0 66 3d
       0.039847806 -0.2993031 -0.013206647 0.056366913
0001e0 ed 33 b2 be 66 b4 4b 3e 37 82 29 3d 60 43 83 be
       -0.3480524 0.19893035 0.04138395 -0.2563734
0001f0 7a cf 57 3e 8c 80 05 be 50 92 88 3e 86 84 de be
       0.2107524 -0.13037318 0.26674128 -0.43460482
000200 7d d8 e6 3d 8a 3a d2 be f5 f1 01 bf a6 6d 33 bc
       0.112717606 -0.41060287 -0.5075982 -0.010951435
000210 60 fe 0c 3e 53 fd c8 bd bd ac 3c 3e da 34 00 3e
       0.13768911 -0.09813943 0.1842527 0.12520161
000220 c0 0e 93 bc 76 05 a3 3d 21 4e 4e 3c d7 ac ef bc
       -0.01795137 0.07960026 0.01259187 -0.029257221
000230 f3 6e 08 3e 23 89 c0 bc 8d 74 9c 3e 71 4e 2f 3e
       0.13323574 -0.023502892 0.3055767 0.17119767
000240 fb e2 86 3e 15 d1 d0 be 69 06 15 3d 83 ca b8 be
       0.26345047 -0.40784517 0.036383066 -0.36092004
000250 0f f2 ea be 7b d7 04 3e
       -0.458878 0.12972824

output.bias f4 [3]
000000 45 79 bd 3d 66 44 0c be ec 94 2a 3d
       0.09251646 -0.13697967 0.04164593
