outputs/mlp_lbp_2classes.pt (torch, 140524 bytes, 8 tensors)

hidden1.weight f4 [150, 26]
0.22479776 -0.06974001 0.16402102 0.33464676 0.022834765 0.2663469 0.07828642 0.20267265
0.07596704 -0.01333813 0.008650428 -0.05199922 0.042881303 -0.042517267 -0.0038971591 0.052402508
0.07655966 0.09097628 0.22121163 0.029046312 -0.20633368 -0.3531965 -0.3197781 -0.12323873
-0.21974938 -2.8780494e-05 0.22418377 0.12316235 -0.019059429 0.34139222 0.26654497 0.37281898
0.30127174 -0.010374011 -0.060751118 0.0068414337 0.22099733 0.013268755 0.16274275 0.016915854
0.3108691 0.063703574 0.28950176 0.15439741 0.06116881 0.1911646 -0.09495376 -0.03513412
-0.21214458 -0.030395951 -0.269497 -0.095501475 0.22099826 -0.045643937 0.393558 0.39259034
0.17995141 -0.015323326 0.1954171 0.11201375 -0.12710962 0.08291165 0.017813258 0.05275225
-0.18651287 -0.04459336 -0.060549613 0.048248418 -0.15940365 -0.091990456 0.09100248 -0.15020853
-0.11077478 -0.2952464 -0.286677 -0.025517052 -0.13813174 0.06792413 -0.25625688 0.12218216
-0.27975523 -0.3465842 -0.17539243 -0.19240788 -0.028528547 -0.2551522 -0.27463478 0.06330368
-0.06583141 0.073881686 -0.0068421857 -0.23598573 -0.060059685 -0.07785667 -0.2601314 -0.22590514
-0.07748985 -0.031329837 -0.07395069 0.055271562 0.35671628 0.010871133 0.21933638 0.12303731
-0.012856964 -0.15490337 0.3784428 0.23675877 0.32515457 0.17326665 0.16584541 0.2336889
0.21992867 -0.13266794 -0.033478506 0.073389634 0.1019604 0.14168514 -0.1450301 -0.08661584
-0.08560241 0.09981163 0.23053004 -0.16922846 -0.03939854 -0.3492862 -0.4741527 -0.08774886
-0.05244894 0.1663921 -0.12179573 0.0425594 0.1692208 0.12995705 0.1222241 0.13936651
0.12404667 0.050656084 -0.13410816 -0.1646902 -0.089864455 -0.02283692 -0.12020982 0.07174981
0.060695555 -0.044407617 0.07537542 0.06338174 0.11973654 0.13207316 -0.066415265 0.19161049
-0.022672543 -0.0067377654 -0.1851101 -0.12622352 -0.11457173 -0.08388337 0.13943261 -0.06408703
-0.1465539 0.07545566 0.062790416 0.1270226 -0.101484634 0.042520918 -0.0713962 -0.044062335
-0.15628855 -0.089382075 -0.06006208 0.08386619 0.035828345 0.048443906 0.19574453 0.19114017
0.13376045 0.0062450324 -0.13567145 0.15326665 -0.049041472 -0.01585508 -0.16895385 -0.038738545
-0.12649252 0.18021229 -0.16954651 -0.15286914 -0.006659376 -0.106043026 0.070172645 -0.075490125
-0.092113316 0.011107556 0.14196807 -0.13795274 0.09209737 0.12599312 0.19184026 -0.13726774
0.047497343 -0.14501354 0.1674342 -0.07607469 0.11813109 0.005838661 -0.015274044 -0.0062576337
0.03333866 0.092448376 0.031453084 0.059826188 -0.1764113 0.14287795 0.1709866 0.16211073
0.14497349 -0.14152355 -0.072700255 0.17292055 -0.14937353 0.17792071 -0.15424456 -0.13814588
0.095876865 -0.1409073 -0.044930346 0.1426729 0.1553414 0.18547796 -0.039795388 -0.15243338
0.19309808 -0.041777868 -0.21196674 0.02973613 -0.3493887 -0.12998159 -0.10298201 -0.32148558
-0.29701278 -0.13668671 0.019028105 -0.02936286 -0.0659645 0.055068668 -0.16833028 -0.18563595
-0.15345684 0.07866449 0.110036395 -0.17129572 -0.053977042 0.11110528 0.15328383 0.13725798
00000000: 6231 663e dad3 8ebd 20f5 273e d256 ab3e
00000010: f90f bb3c 9f5e 883e a154 a03d 6b89 4f3e
00000020: 9c94 9b3d 2c88 5abc 86ba 0d3c 22fd 54bd
00000030: 4ea4 2f3d 9626 2ebd 7b67 7fbb 03a4 563d
00000040: 50cb 9c3d c651 ba3d 4d85 623e 88f2 ed3c
00000050: 2349 53be 2cd6 b4be f5b9 a3be 9664 fcbd
00000060: fb05 61be a46d f1b7 6e90 653e 8b3c fc3d
00000070: 8522 9cbc f6ca ae3e 9578 883e 21e2 be3e
00000080: 4a40 9a3e c1f7 29bc 2ad6 78bd 1b2e e03b
00000090: 204d 623e 3165 593c 09a6 263e 1e93 8a3c
000000a0: 3c2a 9f3e 0577 823d 9339 943e 5b1a 1e3e
000000b0: 258c 7a3d a7c0 433e 1e77 c2bd cce8 0fbd
000000c0: 6e3c 59be ee00 f9bc 83fb 89be 4796 c3bd
000000d0: 5e4d 623e 23f5 3abd 6f80 c93e 9a01 c93e
000000e0: 2f45 383e b00e 7bbc 6c1b 483e 7767 e53d
000000f0: 0629 02be 95cd a93d 1ced 913c be12 583d
00000100: 3bfd 3ebe 87a7 36bd df02 78bd 22a0 453d
00000110: b63a 23be 7e65 bcbd 825f ba3d 44d0 19be
00000120: e3dd e2bd 892a 97be 54c7 92be 2309 d1bc
00000130: 6872 0dbe ce1b 8b3d 1a34 83be a43a fa3d
00000140: 143c 8fbe 7c73 b1be 139a 33be 9206 45be
00000150: b3b4 e9bc 4fa3 82be ee9c 8cbe 5ca5 813d
00000160: 9ed2 86bd 484f 973d 6a34 e0bb 3ea6 71be
00000170: 2501 76bd 5173 9fbd f12f 85be ad53 67be
00000180: 00b3 9ebd b753 00bd 7673 97bd 6f64 623d
00000190: 84a3 b63e d61c 323c b799 603e fcfa fb3d
000001a0: 04a6 52bc fd9e 1ebe 41c3 c13e e470 723e
000001b0: a97a a63e d06c 313e 61d3 293e 254c 6f3e
000001c0: fb34 613e 1bda 07be c220 09bd 4e4d 963d
000001d0: 9dd0 d03d e915 113e c582 14be a563 b1bd
000001e0: 5150 afbd 0a6a cc3d 1110 6c3e 3a4a 2dbe
000001f0: 5d60 21bd a4d5 b2be 25c4 f2be adb5 b3bd
00000200: b3d4 56bd b162 2a3e 0a70 f9bd c452 2e3d
00000210: 3848 2d3e 7613 053e a150 fa3d 18b6 0e3e
00000220: 2e0c fe3d c17c 4f3d a653 09be 8ca4 28be
00000230: db0a b8bd 7e14 bbbc 9130 f6bd 90f1 923d
00000240: e79b 783d c3e4 35bd 6e5e 9a3d 49ce 813d
00000250: 6e38 f53d 303e 073e ba04 88bd 8a35 443e
00000260: c5bb b9bc 79c8 dcbb 818d 3dbe bd40 01be
00000270: 95a4 eabd 0bcb abbd 6cc7 0e3e 1040 83bd
00000280: 3a12 16be 7f88 9a3d 4398 803d 3612 023e
00000290: 2dd7 cfbd 6a2a 2e3d 2c38 92bd b57a 34bd
000002a0: 1b0a 20be f30d b7bd a803 76bd 09c2 ab3d
000002b0: bec0 123d 1e6d 463d 4171 483e 40ba 433e
000002c0: 80f8 083e 21a3 cc3b 75ed 0abe eff1 1c3e
000002d0: b6df 48bd 83e2 81bc 3d02 2dbe 4fac 1ebd
000002e0: 4187 01be 9289 383e 9a9d 2dbe ba89 1cbe
000002f0: e536 dabb 162d d9bd adb6 8f3d 919a 9abd
00000300: e8a5 bcbd 77fc 353c 1460 113e 7c43 0dbe
00000310: 8c9d bc3d 5704 013e c671 443e ea8f 0cbe
00000320: 938c 423d 6e7e 14be df73 2b3e 0ccd 9bbd
00000330: b7ee f13d 3d52 bf3b fc3f 7abc d60c cdbb
00000340: 1e8e 083d 9355 bd3d f3d4 003d 4e0c 753d
00000350: 2aa5 34be 994e 123e 1c17 2f3e 5b00 263e
00000360: ee73 143e 8deb 10be dfe3 94bd 1612 313e
00000370: 60f5 18be d930 363e 49f2 1dbe 1d76 0dbe
00000380: 175b c43d 014a 10be e208 38bd d818 123e
00000390: d111 1f3e efed 3d3e 7d00 23bd 7f17 1cbe
000003a0: 81bb 453e 451f 2bbd cf0d 59be 2f99 f33c
000003b0: 13e3 b2be e519 05be 3be8 d2bd c299 a4be
000003c0: 0f12 98be 9af7 0bbe d4e0 9b3c 618a f0bc
000003d0: 6518 87bd af8f 613d c65e 2cbe 5a17 3ebe
000003e0: ca23 1dbe d91a a13d c35a e13d 2568 2fbe
000003f0: 0817 5dbd 2a8b e33d 70f6 1c3e 5b8d 0c3e

hidden1.bias f4 [150]
0.15406314 0.058742084 -0.04672655 0.12706046 0.052155707 -0.022879679 0.006582857 -0.09539384
-0.015662156 0.122920565 0.18663596 0.17674324 -0.1430914 -0.0052128322 0.083508365 0.12732217
-0.10375193 -0.15635075 0.10387126 -0.112798 0.1810425 -0.12270456 0.10179484 -0.060409326
-0.16120148 -0.19121422 0.090129286 -0.05980681 -0.12620349 0.18793261 0.13276845 0.12349658
-0.08811368 -0.03845267 0.03550684 -0.039986707 0.11575214 -0.05967387 -0.015754169 -0.02052274
-0.077185415 -0.13446051 -0.022011295 -0.07016465 -0.061974775 -0.09056117 0.08560752 -0.04437037
0.14852129 0.07711613 -0.075569265 0.2031296 -0.061273456 -0.1653905 0.15239361 -0.11170723
0.1094001 0.13930756 -0.062880285 -0.07756981 0.056841694 0.09301028 0.14687048 0.053404264
0.015062699 0.1826535 0.045349386 -0.15907998 -0.056919374 -0.026054086 0.06834788 -0.18820187
-0.19500014 -0.111717775 0.025097797 0.14094163 -0.16337113 0.07664195 0.010239709 0.18362942
-0.109476306 -0.061124556 0.064855054 -0.18680961 0.08929893 -0.08112393 0.048702378 -0.122351445
0.15093784 0.057830933 0.024350958 -0.09501194 -0.14251573 -0.0038322296 -0.13508122 -0.00406805
0.17423706 0.03259624 -0.053956784 -0.07114614 0.07884187 -0.15727358 -0.15708266 -0.016007112
0.11538702 -0.1101888 -0.028648164 -0.09076127 0.12192618 -0.09288436 -0.028968217 0.10209054
-0.088652775 0.18614906 -0.10556018 -0.06726324 0.01010616 -0.09227021 -0.1922897 -0.14869559
-0.176627 0.16714795 0.0010042003 -0.096680745 0.066580676 0.009517341 -0.08722921 0.1378854
-0.12751453 -0.13736512 0.14360839 0.11030356 0.10617758 0.050006066 -0.082383096 -0.18893743
0.0036771214 0.094260894 0.09479812 -0.033763383 -0.079890676 -0.0077384934 0.15255737 -0.010097846
0.19148992 -0.06972431 0.04983878 -0.12572736 0.008550283 0.1570016
00000000: bac2 1d3e 8a9b 703d 5764 3fbd 231c 023e
00000010: 39a1 553d 2a6e bbbc 02b5 d73b d85d c3bd
00000020: ec4d 80bc c7bd fb3d 7f1d 3f3e 2efc 343e
00000030: 8d86 12be 68d0 aabb 6f06 ab3d be60 023e
00000040: e47b d4bd 691a 20be 75ba d43d a302 e7bd
00000050: 3563 393e 874c fbbd d079 d03d c56f 77bd
00000060: 0012 25be a9cd 43be b495 b83d fcf7 74bd
00000070: 7d3b 01be 6871 403e 74f4 073e c6eb fc3d
00000080: f274 b4bd 8c80 1dbd 9f6f 113d 1ac9 23bd
00000090: 750f ed3d 976c 74bd e30e 81bc 4e1f a8bc
000000a0: 6313 9ebd 04b0 09be 0851 b4bc 7cb2 8fbd
000000b0: 43d9 7dbd 2278 b9bd ff52 af3d b5bd 35bd
000000c0: f715 183e 10ef 9d3d 0fc4 9abd 3501 503e
000000d0: e0f9 7abd 215c 29be 120d 1c3e c3c6 e4bd
000000e0: 290d e03d a4a6 0e3e 61c7 80bd ecdc 9ebd
000000f0: d6d2 683d 2c7c be3d 3765 163e 6ebe 5a3d
00000100: 8ac9 763c 8509 3b3e 47c0 393d dde5 22be
00000110: 4a24 69bd 616f d5bc f9f9 8b3d feb7 40be
00000120: 1eae 47be 4acc e4bd e599 cd3c 0153 103e
00000130: c34a 27be 74f6 9c3d 74c4 273c 5a09 3c3e
00000140: 1d35 e0bd be5d 7abd bad2 843d 054b 3fbe
00000150: 5be2 b63d 4e24 a6bd 257c 473d 6593 fabd
00000160: 738f 1a3e 21e0 6c3d a97b c73c 9f95 c2bd
00000170: a5ef 11be 2526 7bbb bb52 0abe 474d 85bb
00000180: 336b 323e a383 053d ca01 5dbd 11b5 91bd
00000190: d977 a13d 530c 21be 47da 20be 5921 83bc
000001a0: 0850 ec3d aaaa e1bd 8eaf eabc 0be1 b9bd
000001b0: 6fb4 f93d 283a bebd c14e edbc d814 d13d
000001c0: 968f b5bd dc9d 3e3e f02f d8bd 4fc1 89bd
000001d0: 4f94 253c 2af8 bcbd 97e7 44be a843 18be
000001e0: b5dd 34be d528 2b3e 5f9f 833a 8e00 c6bd
000001f0: 735b 883d 9fee 1b3c 3aa5 b2bd d531 0d3e
00000200: 2b93 02be 71a9 0cbe 140e 133e d5e6 e13d
00000210: a273 d93d 29d3 4c3d 78b8 a8bd d078 41be
00000220: dcfb 703b db0b c13d 8425 c23d 794b 0abd
00000230: b99d a3bd 3093 fdbb 0038 1c3e 7071 25bc
00000240: ef15 443e 9ecb 8ebd c023 4c3d acbe 00be
00000250: 7c16 0c3c 07c5 203e

hidden2.weight f4 [150, 150]
-0.0704418 0.068786696 0.061811283 0.059697837 -0.036039263 0.055978466 0.0118818125 -0.051381335
0.07813484 -0.08414416 0.06954792 0.021067638 0.053289276 0.025958175 -0.07778789 0.030728143
-0.05868002 -0.03149102 -0.021850273 -0.04493325 -0.016187947 0.0566906 0.03944071 -0.054983392
0.05313864 0.016651966 0.006965017 0.0070616193 -0.0403707 -0.07043731 0.0159832 0.06792191
-0.06703766 0.072630264 0.039799977 0.053670384 0.047131907 0.061700623 0.007739483 -0.039275214
-0.04711531 -0.06631967 0.0038402053 0.010670481 0.015775843 -0.053362675 0.053887643 -0.044478156
-0.07431378 0.077550575 0.019096011 0.06296242 0.005301558 0.07472381 -0.005268533 -0.032476407
0.036806688 0.012690383 -0.031358223 -0.018367564 0.034303658 0.053438358 -0.06647417 -0.058986645
0.05158324 0.055959597 -0.011141714 -0.03022297 0.025423797 0.06344432 -0.05623978 0.019448964
0.04533552 0.022870652 0.076482855 -0.07874787 0.046833355 -0.010243309 -0.04031345 0.016550684
-0.018641997 0.07186643 -0.06032862 0.010889842 -0.03277882 0.04432941 0.05924043 0.05557234
0.02357532 -0.07797697 0.011043183 -0.046054643 0.025473325 0.011433521 -0.06874448 -0.060883574
-0.04396519 -0.07498669 -0.031732347 -0.030868674 0.04308101 0.039116044 -0.061280064 -0.0110628735
0.016676407 -0.020833004 0.019720789 -0.0072027827 -0.074904844 0.06783781 -0.06155421 -0.03894289
0.008720483 0.022219878 0.026501201 0.022138488 -0.068307266 -0.066450305 0.06898777 -0.067866534
-0.024285236 0.045381904 0.059385963 0.055910964 -0.032615922 0.029342504 0.035075787 -0.05878786
-0.05574871 0.006081583 0.06970254 -0.029567253 0.022718992 0.057962563 0.046651244 0.032464962
-0.024976455 0.04458722 -0.08046368 0.005815034 0.0108403 -0.018791921 0.073060706 -0.077103436
-0.054517336 0.06859063 -0.02523451 0.014127608 0.008130181 0.06425015 0.005125453 -0.057963695
-0.06611958 -0.010886784 -0.048760116 0.02870971 -0.005081301 -0.051692743 -0.022120997 -0.0029487251
0.0354102 -0.04370021 0.07911173 -0.0753148 0.092468165 0.008412736 0.03551478 0.027637243
-0.08995973 -0.07339658 0.02055134 -0.01834182 -0.025112435 -0.035475645 -0.05454634 0.035036292
-0.028420176 -0.04094977 0.04299396 0.0396493 -0.018098107 -0.070451416 0.039472688 0.055843942
-0.032911655 0.024755778 -0.04353861 0.07501726 0.06596635 -0.065189816 0.021062704 -0.04197202
-0.022379506 0.0026214279 -0.058877725 -0.0037494395 0.048480097 -0.0057774624 0.044788122 -0.09553508
-0.0006357431 -0.030776005 0.0024368633 -0.026885398 -0.030984085 -0.020363543 -0.06575105 -0.027229898
-0.037468474 0.07915609 -0.025524883 -0.00042549835 -0.015223132 -0.042703185 0.023177937 -0.050441954
0.031077154 -0.033129733 0.044097755 0.037893526 0.07941341 0.07681102 -0.017468423 -0.08093403
-0.02657245 -0.06783782 0.013557504 -0.11699936 -0.013296883 0.07751104 -0.002852966 0.0013986893
0.08865165 -0.04047293 -0.06564358 0.014600739 0.0870757 -0.0068443795 -0.06837839 0.01125166
0.025000224 -0.056641806 -0.036914 -0.033055067 0.04836975 0.024989123 0.08873908 0.09088948
0.020641258 -0.049901195 -0.030772446 -0.021480326 0.0071634306 -0.050155394 -0.081980675 -0.024363551
00000000: ca43 90bd 0ae0 8c3d d42d 7d3d b885 743d
00000010: e89d 13bd ad49 653d efab 423c 3c75 52bd
00000020: 2905 a03d c653 acbd 246f 8e3d 0a96 ac3c
00000030: db45 5a3d 3da6 d43c 424f 9fbd 96b9 fb3c
00000040: 765a 70bd bafc 00bd 58ff b2bc ed0b 38bd
00000050: 969c 84bc 6734 683d 958c 213d 4436 61bd
00000060: e7a7 593d b469 883c cc3a e43b 2865 e73b
00000070: bf5b 25bd 7041 90bd 33ef 823c a41a 8b3d
00000080: 0a4b 89bd 2dbf 943d 4d05 233d 7ad5 5b3d
00000090: 630d 413d cbb9 7c3d 7d9b fd3b 0cdf 20bd
000000a0: fcfb 40bd 9bd2 87bd f4ab 7b3b 3ed3 2e3c
000000b0: 573c 813c d292 5abd 4ab9 5c3d ba2e 36bd
000000c0: d331 98bd d6d2 9e3d 3d6f 9c3c 71f2 803d
000000d0: b1b8 ad3b cc08 993d a8a3 acbb fb05 05bd
000000e0: 9cc2 163d 53eb 4f3c 7b71 00bd 9377 96bc
000000f0: fe81 0c3d 2ee2 5a3d 9c23 88bd fb9b 71bd
00000100: f348 533d e435 653d bc8b 36bc 2996 f7bc
00000110: 9145 d03c 18ef 813d af5b 66bd 6f53 9f3c
00000120: bdb1 393d 3c5b bb3c 0ba3 9c3d 9046 a1bd
00000130: 55d4 3f3d 8dd3 27bc b71f 25bd 4d95 873c
00000140: 1ab7 98bc b52e 933d 251b 77bd 4f6b 323c
00000150: 1543 06bd c192 353d 18a6 723d d29f 633d
00000160: 0821 c13c 64b2 9fbd 77ee 343c cba3 3cbd
00000170: 6fad d03c aa53 3b3c e8c9 8cbd 0e61 79bd
00000180: d814 34bd 9f92 99bd c7f9 01bd 4de0 fcbc
00000190: b775 303d 2538 203d ce00 7bbd 0e41 35bc
000001a0: f69c 883c faa9 aabc 7e8d a13c 5205 ecbb
000001b0: b667 99bd 8dee 8a3d 4420 7cbd 9482 1fbd
000001c0: 5be0 0e3c 7606 b63c 0c19 d93c c65b b53c
000001d0: aee4 8bbd 1917 88bd 7649 8d3d 9cfd 8abd
000001e0: d5f1 c6bc 60e2 393d b23e 733d e502 653d
000001f0: 4698 05bd b15f f03c a1ab 0f3d 8acb 70bd
00000200: c258 64bd 0448 c73b 35c0 8e3d 0637 f2bc
00000210: 2e1d ba3c 276a 6d3d 6015 3f3d fbf9 043d
00000220: 6c9b ccbc 17a1 363d 24ca a4bd 0a8c be3b
00000230: 839b 313c 84f1 99bc daa0 953d 68e8 9dbd
00000240: 924d 5fbd 3f79 8c3d 9ab8 cebc 7c77 673c
00000250: 7334 053c 9595 833d 6bf3 a73b 576b 6dbd
00000260: b469 87bd 7b5e 32bc b0b8 47bd a030 eb3c
00000270: 0b81 a6bb c5bb 53bd 1837 b5bc 663f 41bb
00000280: 490a 113d fefe 32bd 5505 a23d a53e 9abd
00000290: f35f bd3d 92d5 093c f277 113d 8067 e23c
000002a0: cf3c b8bd f250 96bd 495b a83c 9641 96bc
000002b0: 98b8 cdbc e94e 11bd fc6b 5fbd 3782 0f3d
000002c0: 6ed1 e8bc f2ba 27bd 6f1a 303d 4e67 223d
000002d0: 7b42 94bc d548 90bd 1dae 213d 9ebc 643d
000002e0: 5fce 06bd a1cc ca3c 8b55 32bd a6a2 993d
000002f0: 5e19 873d 3d82 85bd b18b ac3c daea 2bbd
00000300: 3a55 b7bc 43cc 2b3b c529 71bd 28b9 75bb
00000310: 1193 463d de50 bdbb c073 373d e5a7 c3bd
00000320: ffa7 26ba f61d fcbc c8b3 1f3b c43e dcbc
00000330: 56d2 fdbc 72d1 a6bc 7da8 86bd 3c11 dfbc
00000340: 8b78 19bd 971c a23d 8f19 d1bc 6c15 dfb9
00000350: 726a 79bc 89e9 2ebd a8df bd3c 399c 4ebd
00000360: 8495 fe3c 0bb3 07bd d99f 343d 3e36 1b3d
00000370: 7fa3 a23d 194f 9d3d f019 8fbc bec0 a5bd
00000380: 77ae d9bc 8eee 8abd 4b20 5e3c 5c9d efbd
00000390: 2bdb 59bc 1cbe 9e3d d4f8 3abb 3a54 b73a
000003a0: ff8e b53d f1c6 25bd 2470 86bd f037 6f3c
000003b0: bf54 b23d d146 e0bb f809 8cbd e258 383c
000003c0: 45cd cc3c 3d01 68bd 2233 17bd c064 07bd
000003d0: 5c1f 463d fdb5 cc3c d6bc b53d 4424 ba3d
000003e0: db17 a93c 3265 4cbd 7f16 fcbc 82f7 afbc
000003f0: 36bb ea3b be6f 4dbd 7ce5 a7bd 1296 c7bc

hidden2.bias f4 [150]
-0.014473203 0.084754825 0.09481646 0.060318317 0.10736498 0.026296943 0.011008543 -0.009327383
0.044647396 -0.020761563 0.101828195 0.009725075 -0.004009014 0.10954931 0.04349242 -0.056460667
-0.047044747 0.012430678 0.01696219 0.0007616402 0.06226719 0.02627343 0.026219182 -0.06937309
0.020956531 -0.01978063 -0.0043549947 0.06594635 -0.058499113 -0.06474336 0.010459402 0.070328265
0.026293792 -0.043557312 0.015118575 0.029419791 0.03917309 0.039830394 -0.06642895 0.072045356
-0.011556906 -0.012090798 0.07682435 -0.07736502 -0.010832235 -0.08224147 0.05516832 -0.057277046
0.07677689 -0.030682765 -0.043181326 -0.06712546 0.028312657 0.04221696 -0.06331301 -0.019799834
-0.05006316 -0.015156476 -0.07222665 -0.007755591 0.058279432 0.069546685 0.008381259 0.08522172
-0.045572948 0.028093956 -0.07433071 0.055976145 0.02175546 -0.0071579996 -0.019847888 -0.039338082
-0.050218806 -0.044655982 -0.029928152 -0.037241597 -0.07938413 -0.023972977 -0.0072858892 0.01578975
0.023810977 -0.04627816 -0.06348535 0.06101783 -0.07390944 0.0622889 -0.034411583 0.03860858
0.1048616 -0.045944024 -0.06422558 0.033350382 -0.037439603 -0.029524317 -0.026364261 -0.015052322
0.051580224 -0.05641824 0.05335475 -0.0074563865 -0.026328286 -0.08009563 -0.016600635 0.028562304
0.04899447 0.018873405 0.012102527 0.067003146 0.07106843 0.08309032 -0.052039467 0.021774057
0.040907443 0.080233775 0.0510287 -0.032066554 -0.044360682 -0.07447462 0.067933604 0.02506762
0.032267716 -0.059011344 0.02269406 0.055120174 -0.06338692 0.11616323 -0.017804839 -0.06264176
-0.009132613 -0.03097327 -0.081584565 -0.05970789 -0.0032588223 0.0045225425 0.056698788 -0.032334737
-0.059166435 -0.042167976 0.1303096 -0.0757444 0.07162375 0.014556757 0.0078072897 0.0892275
0.006252135 0.08355696 0.05964404 -0.044572197 -0.05424739 0.014887696
00000000: 0321 6dbc f093 ad3d 222f c23d 5710 773d
00000010: 2ce2 db3d b06c d73c 2d5d 343c e1d1 18bc
00000020: 30e0 363d 2714 aabc 4d8b d03d ec55 1f3c
00000030: 0c5e 83bb 635b e03d 1c25 323d 4d43 67bd
00000040: feb1 40bd 0baa 4b3c 4af4 8a3c cfa8 473a
00000050: e20b 7f3d 603b d73c 9cc9 d63c 7b13 8ebd
00000060: 08ad ab3c fd0a a2bc 58b4 8ebb e10e 873d
00000070: c49c 6fbd 2b98 84bd e95d 2b3c 4408 903d
00000080: 1466 d73c 2769 32bd e6b3 773c c601 f13c
00000090: f673 203d 3225 233d e70b 88bd 848c 933d
000000a0: 2d59 3dbc 7b18 46bc 1656 9d3d 8d71 9ebd
000000b0: b079 31bc 376e a8bd 2df8 613d 569b 6abd
000000c0: 343d 9d3d 6c5a fbbc e7de 30bd 1379 89bd
000000d0: f2ef e73c b1eb 2c3d 40aa 81bd 4333 a2bc
000000e0: 070f 4dbd de52 78bc 91eb 93bd 9d22 febb
000000f0: 6ab6 6e3d 7e6e 8e3d 8c51 093c ba88 ae3d
00000100: b3aa 3abd 4c25 e63c b33a 98bd 3e47 653d
00000110: 8238 b23c a78d eabb 0a98 a2bc f820 21bd
00000120: 3cb2 4dbd 31e9 36bd e22b f5bc a58a 18bd
00000130: 2694 a2bd fa62 c4bc 78be eebb 8159 813c
00000140: 3d0f c33c 2b8e 3dbd 9b04 82bd d5ed 793d
00000150: d55d 97bd a522 7f3d 29f3 0cbd 0824 1e3d
00000160: aec1 d63d cd2f 3cbd b388 83bd 699a 083d
00000170: 455a 19bd fbdc f1bc ddf9 d7bc 049e 76bc
00000180: c945 533d d016 67bd 838a 5a3d b454 f4bb
00000190: 6bae d7bc 2d09 a4bd 0efe 87bc 7efb e93c
000001a0: 6dae 483d 669c 9a3c ad49 463c f238 893d
000001b0: 538c 913d 422b aa3d 5627 55bd 825f b23c
000001c0: 908e 273d 9b51 a43d 7803 513d 3858 03bd
000001d0: 8cb3 35bd 2686 98bd c620 8b3d 9c5a cd3c
000001e0: 272b 043d e1b5 71bd e5e8 b93c b1c5 613d
000001f0: 00d1 81bd fde6 ed3d 74db 91bc 534a 80bd
00000200: f5a0 15bc a8bb fdbc cf15 a7bd 4390 74bd
00000210: f791 55bb d631 943b fd3c 683d 6e71 04bd
00000220: 8158 72bd 54b8 2cbd e16f 053e e11f 9bbd
00000230: 79af 923d 777f 6e3c 4bd4 ff3b e8bc b63d
00000240: b6de cc3b e91f ab3d 4f4d 743d 5691 36bd
00000250: 8332 5ebd 86eb 733c

hidden3.weight f4 [50, 150]
0.013355098 0.05319719 0.08082166 -0.013903009 0.05173608 -0.14473738 -0.028495256 -0.079292014
0.0068721934 -0.02941281 0.032535695 0.22144611 0.0068922993 0.069672935 -0.21149729 -0.081594795
0.04835902 -0.018339347 0.032762386 0.2576374 -0.11367613 0.06807581 -0.17276335 0.018435718
0.068131745 0.0020036784 0.050793804 -0.2375575 0.03797348 0.034303892 0.16923039 0.27583867
-0.00774286 0.034973558 -0.10772246 0.17362918 0.27379254 -0.16332011 0.025667088 -0.1724463
-0.12208967 0.079391055 0.1908655 0.01685694 0.306931 -0.018389443 0.31348178 0.013211268
-0.03748821 -0.21784194 -0.03917981 0.03162095 0.060906354 -0.1357717 0.041730933 -0.0392835
0.07025515 -0.05190113 0.07998138 -0.2481508 -0.04062004 -0.06966257 -0.07553632 -0.043344628
0.0332521 0.33883116 0.07266832 -0.16751021 -0.112603016 0.061084345 -0.025047634 -0.038097735
0.05077501 -0.0341956 -0.08047986 0.0067655 0.057250272 0.17298293 -0.009895399 0.2560593
-0.03272387 -0.044869777 0.03026717 0.21366958 0.039452277 -0.12741517 0.07779817 0.24575798
0.05472808 -0.03623067 -0.03864969 0.31568685 -0.02076238 -0.03428966 -0.03318676 -0.17467931
-0.1696762 -0.07175229 -0.070582755 -0.07651743 -0.0168453 -0.0061858566 -0.24381891 -0.04313134
-0.06604892 0.225785 0.029110355 0.23484875 0.06703615 0.22502524 -0.038973976 -0.05361376
0.30418086 -0.02676375 -0.2615077 -0.024744032 -0.065497965 -0.020040356 0.30885 -0.22680873
-0.07331188 -0.0062528225 -0.111343026 -0.03525491 -0.01552543 0.08917055 -8.059254e-06 -0.017961195
-0.17844312 -0.076972656 -0.22262494 -0.16160884 0.21704677 -0.037646115 -0.03800082 -0.07687641
-0.026794858 0.03440344 0.07292405 -0.05490342 0.27455816 -0.22343722 0.3569745 -0.063440464
-0.05400158 0.010266658 -0.18840022 -0.052174974 0.03506619 -0.045559816 -0.004051595 -0.07294988
-0.0809523 0.07268398 -0.08106789 0.051749907 0.045803625 -0.013587515 0.06690077 0.030526778
-0.04701638 0.031710263 -0.014771741 -0.03307375 0.057141803 -0.052553654 0.0012276206 0.07243045
0.0070327306 -0.04622614 -0.07237286 -0.013969869 0.029792001 0.0796903 0.0074288505 -0.04375655
-0.03032046 -0.020383904 0.04186965 0.03324985 0.045201756 0.0341737 0.004896532 -0.06054884
-0.053884078 -0.043104485 -0.081283286 -0.06510004 0.06453335 0.03298987 -0.04714545 -0.013388445
0.03348454 0.032186996 -0.049532007 -0.068480805 0.07604064 -0.0677414 -0.010529775 0.07620084
-0.01973788 -0.031597763 0.07162335 -0.06804662 -0.022324327 0.07300966 -0.054938342 0.055931702
-0.011263829 -0.028449753 -0.057568304 -0.044825193 -0.06261574 -0.042964965 0.03491428 -0.022411577
-0.03790996 -0.0634582 -0.051884238 0.02571231 0.035015013 0.01077385 -0.025435608 0.016947228
0.06116451 -0.042283233 -0.07002856 0.0018131946 -0.057758052 0.016063942 0.07747384 0.05605676
0.002420511 0.073072486 -0.054430056 0.011557195 0.0046139713 -0.079022974 0.05828713 0.07602618
-0.069191225 0.072437815 -0.07533937 0.024998453 -0.0034448248 0.035874218 0.050008744 -0.06110199
0.01417792 -0.06439766 0.08123269 0.05903079 -0.08255121 -0.07332739 0.05777924 -0.027065404
00000000: 57cf 5a3c 4ce5 593d d485 a53d 72c9 63bc
00000010: 36e9 533d 0936 14be e26e e9bc da63 a2bd
00000020: 2330 e13b 22f3 f0bc 2644 053d c5c2 623e
00000030: ccd8 e13b afb0 8e3d bf92 58be 2c1b a7bd
00000040: 1c14 463d 663c 96bc da31 063d 0de9 833e
00000050: 08cf e8bd 556b 8b3d e0e8 30be 8106 973c
00000060: a888 8b3d 2550 033b 2a0d 503d 4642 73be
00000070: 148a 1b3d 3d82 0c3d bb4a 2d3e ba3a 8d3e
00000080: d1b7 fdbb 6f40 0f3d 989d dcbd d9cb 313e
00000090: 892e 8c3e 633d 27be c943 d23c c395 30be
000000a0: 260a fabd c797 a23d 3f72 433e 9117 8a3c
000000b0: 0f26 9d3e 75a5 96bc af80 a03e 1374 583c
000000c0: 3d8d 19bd f511 5fbe 027b 20bd f884 013d
000000d0: f178 793d bd07 0bbe 0eee 2a3d bce7 20bd
000000e0: efe1 8f3d 4796 54bd 47cd a33d 3e1b 7ebe
000000f0: 3361 26bd 40ab 8ebd c9b2 9abd 238a 31bd
00000100: 5b33 083d 477b ad3e 21d3 943d cc87 2bbe
00000110: 699c e6bd 9433 7a3d b230 cdbc 5f0c 1cbd
00000120: 75f9 4f3d af10 0cbd a0d2 a4bd 21b1 dd3b
00000130: 437f 6a3d 7022 313e 5020 22bc 341a 833e
00000140: 7709 06bd 5fc9 37bd dbf2 f73c 33cc 5a3e
00000150: b698 213d 1f79 02be a654 9f3d fba7 7b3e
00000160: 8d2a 603d 9c66 14bd 234f 1ebd b5a1 a13e
00000170: de15 aabc 5173 0cbd d7ee 07bd 22df 32be
00000180: 99bf 2dbe ddf2 92bd b18d 90bd 2cb5 9cbd
00000190: 28ff 89bc bab2 cabb aaab 79be 7daa 30bd
000001a0: a844 87bd 2f34 673e d778 ee3c 317c 703e
000001b0: 404a 893d 046d 663e 2da3 1fbd 1a9a 5bbd
000001c0: 98bd 9b3e a73f dbbc 56e4 85be ffb3 cabc
000001d0: cc23 86bd ac2b a4bc 9621 9e3e 8c40 68be
000001e0: 8a24 96bd 7ae4 ccbb d007 e4bd 7467 10bd
000001f0: 605e 7ebc 0d9f b63d 3b36 07b7 5b23 93bc
00000200: cbb9 36be d7a3 9dbd cbf7 63be ca7c 25be
00000210: 8241 5e3e d032 1abd bfa6 1bbd 6171 9dbd
00000220: e480 dbbc 9fea 0c3d 3459 953d 69e2 60bd
00000230: e392 8c3e bacc 64be 5dc5 b63e 13ed 81bd
00000240: c330 5dbd 7c35 283c fdeb 40be 6db5 55bd
00000250: 91a1 0f3d ee9c 3abd 3ec3 84bb bf66 95bd
00000260: 52ca a5bd 57db 943d ec06 a6bd b6f7 533d
00000270: 959c 3b3d 2b9e 5ebc 4503 893d 4b13 fa3c
00000280: 3f94 40bd 9fe2 013d 2c05 72bc 5778 07bd
00000290: 860d 6a3d 8042 57bd 1de8 a03a 6a56 943d
000002a0: d272 e63b 9f57 3dbd 3938 94bd e1e1 64bc
000002b0: 5b0e f43c ab34 a33d b76d f33b 113a 33bd
000002c0: 9d62 f8bc 25fc a6bc 837f 2b3d ff30 083d
000002d0: 7a25 393d b9f9 0b3d 1673 a03b 0f02 78bd
000002e0: 8db5 5cbd 548e 30bd da77 a6bd 2b53 85bd
000002f0: 102a 843d 6320 073d 961b 41bd 355b 5bbc
00000300: 1627 093d 83d6 033d 13e2 4abd aa3f 8cbd
00000310: 32bb 9b3d 01bc 8abd 1485 2cbc 300f 9c3d
00000320: 56b1 a1bc a86c 01bd 43af 923d 075c 8bbd
00000330: 82e1 b6bc 1786 953d 0707 61bd a418 653d
00000340: ec8b 38bc 750f e9bc becc 6bbd 9f9a 37bd
00000350: ae3c 80bd 08fc 2fbd 4702 0f3d 7c98 b7bc
00000360: 7947 1bbd 5ff6 81bd 9184 54bd 9fa2 d23c
00000370: e76b 0f3d cd84 303c 565e d0bc ead4 8a3c
00000380: a387 7a3d 2f31 2dbd 226b 8fbd b7a8 ed3a
00000390: b593 6cbd 8798 833c 9baa 9e3d c69b 653d
000003a0: 70a1 1e3b 07a7 953d 0df2 5ebd 645a 3d3c
000003b0: cc30 973b ccd6 a1bd 7cbe 6e3d 9db3 9b3d
000003c0: 21b4 8dbd 475a 943d 874b 9abd 8ec9 cc3c
000003d0: 92c2 61bb d8f0 123d f8d5 4c3d 1546 7abd
000003e0: 824a 683c ece2 83bd 535d a63d 45ca 713d
000003f0: 9c10 a9bd ac2c 96bd eda9 6c3d 44b8 ddbc

hidden3.bias f4 [50]
0.04320984 -0.0016928707 0.08169584 -0.04179962 0.044055965 0.09777419 -0.05106604 0.051128093
0.007968963 -0.03231053 -0.03367955 -0.03508305 -0.035285108 0.08630492 -0.050912593 0.046730172
-0.02940736 0.052220583 -0.050404657 -0.07173282 0.107141234 -0.011645776 0.017028455 0.06955947
0.042765062 0.008056986 0.028097482 0.0130820805 -0.07097578 -0.07213087 0.057250578 0.068797745
-0.02965744 -0.044761214 0.09119084 -0.02504514 -0.035207402 -0.015549214 -0.04770919 0.022529513
-0.076336004 -0.04634464 0.0038049931 0.00090387824 0.042905204 0.101639956 -0.051949725 0.04276958
-0.03931535 0.013749357
00000000: cdfc 303d 51e3 ddba 2650 a73d 1436 2bbd
00000010: 0774 343d d63d c83d a02a 51bd b16b 513d
00000020: 4190 023c 0c58 04bd 91f3 09bd 3fb3 0fbd
00000030: 1e87 10bd a2c0 b03d b989 50bd 2368 3f3d
00000040: b4e7 f0bc 40e5 553d 1d75 4ebd a8e8 92bd
00000050: dd6c db3d edcd 3ebc 427f 8b3c 3275 8e3d
00000060: 6b2a 2f3d 7301 043c b12c e63c 3956 563c
00000070: c05b 91bd 59b9 93bd 957f 6a3d d5e5 8c3d
00000080: 29f4 f2bc 8957 37bd 43c2 ba3d 772b cdbc
00000090: a335 10bd 21c2 7ebc b66a 43bd d08f b83c
000000a0: 0d56 9cbd e1d3 3dbd 315d 793b 3ef2 6c3a
000000b0: 5ebd 2f3d 9c28 d03d 3cc9 54bd 282f 2f3d
000000c0: 2209 21bd fc44 613c

output.weight f4 [2, 50]
0.324608 -0.124788545 0.3511956 -0.054303218 -0.31630754 0.33588916 0.040238053 0.010130138
-0.21542689 0.08949248 0.054488085 -0.11105356 0.100048326 -0.28845495 0.12111034 -0.3397616
0.09946469 0.3916701 -0.20200208 0.02658438 0.38600442 -0.28738967 0.1300136 -0.13501069
-0.19891393 0.07373772 -0.14873542 0.21915601 -0.008737531 -0.1226294 -0.29376787 0.28091264
0.0772005 -0.11964959 -0.18755639 0.054332137 0.06461925 -0.07136113 0.045538753 -0.17803225
0.091757014 -0.101843074 -0.1892913 -0.1176256 -0.24255098 0.33351812 -0.028938534 -0.13163333
0.3165503 -0.34128654 -0.4139941 -0.1290155 -0.39993095 0.02096644 0.120811366 -0.37094826
-0.023184275 -0.097173266 0.30728906 0.092794605 0.0011465981 0.03259683 0.08986496 0.29789865
-0.020683635 0.11404642 0.09844998 -0.40576836 0.1853577 -0.10286824 -0.34672982 0.23818219
-0.09492602 0.25243738 0.19737905 0.035256043 0.28810817 0.0029835186 -0.11306978 -0.07168248
0.2076207 -0.31058654 0.12636483 0.12591662 0.17550068 -0.10393814 -0.23182829 -0.08486742
-0.113713436 0.3214885 -0.06724061 -0.09358364 0.29705086 -0.12538604 0.30651963 -0.33165598
-0.023451064 0.27059123 -0.14507955 0.1426485
00000000: 0533 a63e 2391 ffbd e9cf b33e 0d6d 5ebd
00000010: 10f3 a1be aaf9 ab3e a8d0 243d e1f8 253c
00000020: de98 5cbe d547 b73d e62e 5f3d 0d70 e3bd
00000030: 23e6 cc3d 5eb0 93be b308 f83d 3cf5 adbe
00000040: 25b4 cb3d fc88 c83e a2d9 4ebe 7cc7 d93c
00000050: 5fa2 c53e bd24 93be 4922 053e 3e40 0abe
00000060: 18b0 4bbe cd03 973d 194e 18be 6f6a 603e
00000070: dc27 0fbc 1f25 fbbd be68 96be c8d3 8f3e
00000080: 4c1b 9e3d d80a f5bd c80e 40be 608b 5e3d
00000090: 1957 843d c925 92bd d886 3a3d 164e 36be
000000a0: 1aeb bb3d 1a93 d0bd 94d5 41be b1e5 f0bd
000000b0: 495f 78be e3c2 aa3e 8110 edbc e3ca 06be
000000c0: e212 a23e 1cbd aebe 09f7 d3be a41c 04be
000000d0: c0c3 ccbe d0c1 ab3c f36b f73d eeec bdbe
000000e0: f3ec bdbc c702 c7bd fe54 9d3e 190b be3d
000000f0: 7349 963a 4184 053d 1f0b b83d 2c86 983e
00000100: ba70 a9bc 2b91 e93d 25a0 c93d dfc0 cfbe
00000110: 69ce 3d3e 95ac d2bd 9286 b1be 08e6 733e
00000120: 9368 c2bd 793f 813e bc1d 4a3e a468 103d
00000130: ea82 933e 2387 433b 2191 e7bd 44ce 92bd
00000140: 859a 543e 3305 9fbe c865 013e 49f0 003e
00000150: 73b6 333e 85dd d4bd 6564 6dbe f8ce adbd
00000160: 97e2 e8bd 249a a43e 72b5 89bd c8a8 bfbd
00000170: 0d17 983e 3365 00be 24f0 9c3e d0ce a9be
00000180: 721c c0bc ef8a 8a3e bc8f 14be 7312 123e

output.bias f4 [2]
0.13933243 0.015809849
00000000: 29ad 0e3e a883 813c
