outputs/mlp_sift_rgb_2classes.onnx (onnx, 135938 bytes, 8 tensors)

hidden1.weight f4 [150, 12]
000000 62 7c 25 3e 58 df 0a be 88 02 a3 bd 9e b4 08 3e
       0.1616073 -0.13561761 -0.07959467 0.1335015
000010 4b e5 96 be b3 ea 31 3e 5e c9 af bd e5 cf 0f 3e
       -0.29471812 0.17374687 -0.085833296 0.14044149
000020 c9 3a 15 3d 5d 30 3e bd 8b 5d b1 3d 7b 82 f5 3a
       0.036433015 -0.04643284 0.0866042 0.0018730903
000030 25 2b d6 3d 31 d2 0f be 46 d7 22 bc b1 a2 1c bd
       0.10457448 -0.14045025 -0.0099390205 -0.038241092
000040 83 2a 2b 3d 24 0f 0c 3c 9a 9e 82 3e 87 a9 f1 3d
       0.04178859 0.008548532 0.25511628 0.11799913
000050 0f 7d d2 bd 1f 3d 55 be 73 6b 38 bd 56 08 ea bd
       -0.10277759 -0.20824097 -0.045024347 -0.11427371
000060 6e ba cc bd 6b 0c 8b 3c 03 41 47 3e 1f 59 25 3e
       -0.09996496 0.016973695 0.19458394 0.16147278
000070 c5 95 8f be ea f8 3c 3e 69 e6 8f 3d d4 6b 8b 3e
       -0.28043953 0.18454328 0.07026369 0.27230704
000080 58 e1 64 3e 4d 4c 8c be c2 2f 98 be 9e 86 29 be
       0.22351587 -0.27401963 -0.29723936 -0.16555259
000090 72 65 89 3e 85 14 82 bd dd cf f9 3d 46 3a 14 be
       0.2683521 -0.0635157 0.1219785 -0.14475355
0000a0 ad a5 8f 3e 98 37 f2 bd 5c 97 6f 3e 29 13 f1 3b
       0.28056088 -0.1182701 0.23397583 0.0073570204
0000b0 a8 e8 33 be f7 ae 2c 3e ca 1d 30 be fe 55 a9 3d
       -0.1756922 0.16863619 -0.17198864 0.08268355
0000c0 f3 55 a6 bd 8a 8b 2c bd 55 f1 94 be 99 96 1e be
       -0.08121862 -0.042125262 -0.29090372 -0.15487136
0000d0 b9 2c 27 3e 4c f4 6d bd e8 4e 8e 3e 39 fe 71 3e
       0.16325654 -0.058094308 0.27794576 0.23632134
0000e0 b7 01 29 bd f8 51 63 be 51 55 3e 3e d5 e5 c2 3d
       -0.0412614 -0.22199237 0.18587233 0.09516493
0000f0 28 7d 3d be 3f 7c 40 3e 20 d6 29 3e 54 0a 88 3e
       -0.18504775 0.18797396 0.16585588 0.2657038
000100 90 18 2e be 6c f3 22 bd 7a 3a a4 bc d7 ca 23 3d
       -0.17001557 -0.039782926 -0.020047415 0.039988365
000110 24 bd 76 be 7f 35 70 be 86 a2 29 3e 9e ae 7b bd
       -0.24095589 -0.23457907 0.16565904 -0.061445825
000120 62 28 25 3e 6a 31 3b 3c 1f 8f a2 3d 44 64 c6 3d
       0.16128686 0.011425355 0.079374544 0.09687093
000130 5f 99 eb 3d 39 15 23 3e 04 a9 8c be c0 e8 24 3e
       0.115038626 0.15926065 -0.274727 0.16104412
000140 5a 65 62 be eb 06 64 be ab c1 87 3c 1d 19 1d bd
       -0.22108975 -0.22268264 0.01657184 -0.038354028
000150 95 67 0f 3e ca 78 3c be d5 46 5e be de 08 8a 3e
       0.14004357 -0.18405452 -0.21706708 0.2695989
000160 b5 ba ac bd 77 37 2d 3e 16 85 05 3e a8 ef 73 be
       -0.08434049 0.1691569 0.1303905 -0.2382189
000170 7d bb 41 bc 43 fc d6 3d 5a fe 1e be 4d eb e0 bd
       -0.011824486 0.10497334 -0.15526715 -0.1098238
000180 a8 09 a2 3d 7f 68 27 3d ad 1e 08 be 01 75 d8 bd
       0.07911998 0.04087114 -0.13292952 -0.10569192
000190 95 ee 80 3e 5b 23 94 bd cc 46 15 3e c6 50 d9 3d
       0.25182024 -0.07233306 0.14577788 0.106111094
0001a0 be 37 5d be b8 17 99 be da 9e 94 3e 4e 74 f8 3b
       -0.21603295 -0.29900908 0.29027444 0.007582224
0001b0 d5 39 47 3e 26 85 69 3d 40 94 b9 3d 54 11 63 3e
       0.19455655 0.057011746 0.090614796 0.22174579
0001c0 b3 55 8e 3e 2d dc 47 be c0 12 40 3d 5f a7 5f 3e
       0.27799758 -0.19517584 0.04689288 0.21841191
0001d0 d1 41 64 3e 8f 52 42 3e 49 f9 47 be a4 2c 51 be
       0.22290732 0.18976806 -0.19528688 -0.20427185
0001e0 ae 40 30 be 34 d7 22 3d 88 87 93 3e f5 d9 62 be
       -0.17212173 0.039756015 0.2881434 -0.22153457
0001f0 ba e8 05 3e f4 41 33 be 02 8a a0 be 90 1c 02 bd
       0.1307706 -0.17505628 -0.31355292 -0.03176552
000200 1d 92 2b 3e 8e be 86 3e a8 b8 27 be 8d 45 af 3d
       0.16754957 0.26317257 -0.16379035 0.08558188
000210 f2 86 84 3e 40 9e 46 3e 34 7a 26 3e ff 02 59 3e
       0.25884205 0.19396305 0.16257554 0.21192549
000220 69 5a 47 3e fe db 8e 3d 5e 9e 58 be 9e f5 80 be
       0.19468082 0.06975554 -0.21154162 -0.2518739
000230 a1 b1 fc bd 8a 51 31 bd 70 85 33 be d1 10 c5 3d
       -0.123385675 -0.043290652 -0.17531371 0.09622348
000240 b5 c8 e3 3d 2e 67 9d bd 8b 8b ee 3d ef fc c6 3d
       0.11122266 -0.076856956 0.116477095 0.09716212
000250 c4 19 3d 3e 5a 0e 4c 3e 8a 1e d9 bd 07 02 95 3e
       0.1846686 0.1992735 -0.10601528 0.2910311
000260 2b 62 8d bc 91 3e c3 3b dd 74 8f be 6d a4 46 be
       -0.017258724 0.005958386 -0.28018847 -0.19398661
000270 6f dd 29 be c6 63 e6 bd 30 f1 7a 3e 69 00 9e bd
       -0.16588376 -0.11249499 0.24506068 -0.07714922
000280 da b3 48 be aa c5 08 3e d0 90 e6 3d f8 3c 5e 3e
       -0.19599858 0.13356653 0.112580895 0.21702945
000290 14 f4 3d be 96 bf 51 3d 63 7b e6 bd c4 39 80 bd
       -0.1855014 0.0512081 -0.11254003 -0.06261018
0002a0 e7 28 85 be 26 ca 11 be b8 2c ba bd 2f 27 e6 3d
       -0.2600777 -0.1423727 -0.09090561 0.112379424
0002b0 ef 6f 4a 3d 95 4d 4d 3d 3f 4b 96 3e 73 ed 90 3e
       0.049423154 0.050122816 0.29354283 0.2830616
0002c0 70 b2 44 3e 17 b2 48 3c 5a 8b 4d be 25 e7 6b 3e
       0.19208694 0.012249491 -0.2007269 0.23037393
0002d0 3d 12 09 bd 43 c3 a1 3c 57 35 86 be e3 1b 28 3b
       -0.03346466 0.019746428 -0.2621257 0.0025651387
0002e0 4d c0 28 be f5 d5 9d 3e 3f f1 36 be b1 72 57 be
       -0.16479607 0.308273 -0.17865466 -0.21039845
0002f0 df 4e a5 3d fd 37 05 be 42 58 f2 3d ba 20 34 bd
       0.08071684 -0.13009639 0.1183324 -0.043976523
000300 ef 21 11 be 95 ca 17 3d 02 40 7c 3e ac 77 35 be
       -0.14173101 0.03705843 0.24633792 -0.17721432
000310 4f 06 d9 3d 26 e6 45 3e 0f db a9 3e 56 65 4c be
       0.105969064 0.19326076 0.3317494 -0.19960532
000320 18 16 8b 3d a4 de 53 be 8a 76 81 3e 32 07 d8 bd
       0.067913234 -0.206904 0.2528575 -0.105482474
000330 01 e0 24 3e af 80 85 ba 42 1d 94 bc 31 75 27 bc
       0.16101076 -0.0010185445 -0.018080357 -0.010220812
000340 99 2d 45 3d ca ad 07 3e 6c 96 4a 3d a8 88 af 3d
       0.04813919 0.13249889 0.04945986 0.08570987
000350 50 ae 86 be c3 b1 58 3e e2 50 86 3e f4 e3 74 3e
       -0.26304865 0.2116156 0.26233584 0.23915082
000360 ce cc 6c 3e 8b 21 4f be 3e ca e3 bd 13 73 80 3e
       0.23125002 -0.2022764 -0.11122559 0.25087795
000370 aa 45 6f be 24 2b 80 3e af 8d 76 be 2b dc 62 be
       -0.23366418 0.25032914 -0.24077486 -0.221543
000380 55 73 15 3e 17 0b 85 be 6a ce 8f bd 59 76 58 3e
       0.14594777 -0.25985023 -0.07021792 0.21138896
000390 0d d7 7d 3e 4d 21 92 3e b0 48 89 bd f6 af 58 be
       0.24789067 0.2854103 -0.06703317 -0.21160874
0003a0 cf d5 a5 3e 9a 2a 78 bd 8f 8f 0d be 7c 3a c8 3d
       0.32389686 -0.060587503 -0.13824295 0.0977678
0003b0 1d 36 38 be b4 07 4c 3e c9 b2 49 3e ff 3c 64 be
       -0.17989393 0.19924814 0.19697107 -0.22288893
0003c0 d8 b8 48 be ac 83 14 bc d8 34 dd 3d 90 3d 71 bc
       -0.19601762 -0.009064596 0.10801095 -0.01472415
0003d0 1c 53 24 be ef 94 2f 3d 55 7e 93 be 4a 11 41 be
       -0.16047329 0.042866644 -0.2880732 -0.18854252
0003e0 98 8d 3c be e3 05 82 3e 68 50 9a 3e b1 a3 0b bd
       -0.18413389 0.25395116 0.3013947 -0.034091655
0003f0 c8 c4 cf 3b ab 84 ed 3d 8f 24 17 3d 15 5f 1f be
       0.006340597 0.1159757 0.0369001 -0.15563615

hidden1.bias f4 [150]
000000 fc c5 99 3e a2 42 26 3e 63 eb 72 be 90 42 6f 3e
       0.30033863 0.16236356 -0.23722605 0.23365235
000010 00 82 49 be f9 8c 33 3e c1 78 25 3d 05 5b 32 3e
       -0.19678497 0.17534246 0.040398363 0.17417534
000020 bd 98 9b 3c 4d 6a 28 3d 44 82 59 bc 59 70 47 3c
       0.01899373 0.041117 -0.013275687 0.012172782
000030 fb 52 26 3e 98 60 37 be 25 86 4e 3e eb 65 32 be
       0.16242592 -0.17907941 0.2016836 -0.17421691
000040 67 90 08 be b3 8f 9e 3d 6d ef 6b 3e 14 9b 21 3e
       -0.13336335 0.07742252 0.23040552 0.15781814
000050 39 b3 b9 bd 62 6e c5 3d 7f 64 18 be cf 24 10 3e
       -0.09067387 0.096401945 -0.14882086 0.14076541
000060 de d3 b8 3d 97 e8 ff 3d 9e df 0f be 91 26 0c 3e
       0.090247855 0.12495535 -0.14050147 0.13686587
000070 9f b3 cf 3e 77 c4 79 be e5 61 64 3e 0e f9 0f be
       0.40566728 -0.24391352 0.22302969 -0.1405985
000080 58 49 22 bd 62 77 aa 3e fc e2 7e be 9d bb 3e bd
       -0.039620727 0.33294207 -0.24891275 -0.04656564
000090 30 48 88 3d a6 4a 68 3e eb 32 d5 bd 8d 25 22 be
       0.06654394 0.22684726 -0.104101025 -0.15834637
0000a0 62 d3 fc 3c 38 8d 86 be fd dc 0a 3e 66 7c de bd
       0.030862514 -0.26279616 0.13560863 -0.10863571
0000b0 c1 9f 3b 3c f4 b7 b5 3e c4 77 75 be 9e 34 12 be
       0.0114516625 0.35491908 -0.23971468 -0.14277884
0000c0 8c 5b 6a be 55 03 6b 3e 78 c8 83 3e 8e 82 84 be
       -0.22886485 0.2295049 0.25738883 -0.25880855
0000d0 af f8 f9 3d 16 53 82 3e b3 82 18 be 0a 0c 75 3e
       0.12205636 0.25454015 -0.14893608 0.23930374
0000e0 fc 3d f4 3d 84 02 53 bd fa 40 92 3e 85 99 50 bd
       0.11925885 -0.05151607 0.28565198 -0.050927658
0000f0 4c 51 1e be 69 a8 82 3e c5 4c c7 be 95 be 49 be
       -0.154607 0.25519112 -0.38925758 -0.19701608
000100 88 1a 2d 3e 61 79 b6 3d 2a 99 da 3c 76 f6 48 be
       0.16904652 0.0890987 0.026684362 -0.19625267
000110 bf 46 22 3e fd 69 36 be 94 bc 02 be 1f 1c 1b be
       0.158473 -0.17813869 -0.1276725 -0.15147446
000120 00 72 80 be d5 2b 45 3e 47 b6 54 be c1 91 aa 3e
       -0.25086975 0.19255002 -0.20772658 0.33314326
000130 d5 f5 9a 3e a4 dd 23 3e a2 33 a0 3e 3b fb 31 be
       0.3026568 0.16002518 0.31289393 -0.17380993
000140 e7 5c 08 3e 44 7d 80 3e 70 64 39 bd 0d be d8 bc
       0.1331669 0.2509557 -0.0452618 -0.02645781
000150 fb f8 54 be bc d1 a5 3d 30 c7 49 be 86 e0 8b be
       -0.20798104 0.08096644 -0.1970489 -0.27319735
000160 8b d6 5d be 0a 3c 85 ba 61 fe 6d bd 9e 02 17 be
       -0.21663873 -0.0010164988 -0.058103923 -0.14747092
000170 4a ab 12 bd ca 41 13 3e f1 97 4c bd 80 f8 27 3e
       -0.035807885 0.14380565 -0.04994959 0.16403389
000180 3d da 96 bd 72 e2 ad bd 8b 88 7d be 62 f1 4a 3e
       -0.073658444 -0.08490457 -0.24759118 0.19818643
000190 d9 84 a0 3d 35 44 2c 3e ff e0 27 3e b5 11 c5 3e
       0.07837839 0.16822894 0.16394423 0.38490072
0001a0 5b bb 3d be 2d 91 22 3e be 1b 80 be 84 4b cc bc
       -0.18528502 0.15875693 -0.25021166 -0.024938352
0001b0 5d 1e 26 be 5c f9 58 3e dd 7a eb bd 60 f3 b4 3e
       -0.1622252 0.21188873 -0.11498044 0.3534193
0001c0 a7 b5 b2 3e fc 1b 99 3e 12 c2 a7 be a2 cf 7a 3e
       0.34904215 0.29904163 -0.3276525 0.24493268
0001d0 7b 91 3b be 44 31 3a be 87 69 53 3e 65 a8 8e 3c
       -0.18317215 -0.18182856 0.20645724 0.017414281
0001e0 b5 34 f3 bd 9b 16 26 be 92 13 06 3e 8c 8f ff bd
       -0.118752874 -0.16219561 0.13093403 -0.12478551
0001f0 1e 38 3d be 94 10 12 3d 59 59 a5 be 40 b8 0c 3e
       -0.18478438 0.03566034 -0.3229473 0.13742161
000200 54 a4 5f be 1b b6 b4 bd 95 37 92 be 85 84 01 be
       -0.2184003 -0.08823796 -0.2855803 -0.12648208
000210 73 9d 40 be a2 0d 38 3e 25 69 b8 3b 91 36 03 3e
       -0.18810062 0.1797395 0.0056277686 0.12813784
000220 86 5e b8 3e 52 97 e4 3d 7a 65 7e 3c 4b 29 50 be
       0.36009616 0.111616746 0.015527124 -0.20328252
000230 7c de 0d be 2f 40 f7 bc be 02 0a be 43 b0 c0 3d
       -0.13854402 -0.030181972 -0.13477609 0.09408619
000240 7d 9d ac bd ff e5 a2 bc 92 08 a8 3d 2b 0c a5 be
       -0.08428476 -0.019885061 0.0820476 -0.32235846
000250 20 42 3d 3e 04 e6 19 be
       0.18482256 -0.1502915

hidden2.weight f4 [150, 150]
000000 99 67 a4 bd aa 0c 08 bd db af ce bd 21 37 47 3c
       -0.08027572 -0.033215202 -0.100921355 0.01215914
000010 93 94 e9 3b 38 88 0e bb 4c a5 d9 bc 76 15 10 3e
       0.007128307 -0.0021748673 -0.026568078 0.14070687
000020 2f 37 03 3e a3 8f 8c 3d 53 82 e5 3c b1 05 4e 3d
       0.1281402 0.06863334 0.028016245 0.050298396
000030 07 eb c9 bd ca 7f 41 be 48 6b 1e 3d 38 93 1f bc
       -0.09859281 -0.18896404 0.03867653 -0.0097396895
000040 82 71 d7 3c d5 3b 54 3d 16 51 15 3d 28 f4 2f 3d
       0.026299242 0.051814873 0.036454283 0.042957455
000050 26 4b bb bc 58 cb f0 bc a8 cc 92 3c a4 e1 6c 3d
       -0.022862982 -0.029393837 0.017919853 0.057832375
000060 8f 8b 50 3d 2a 2b df bc 3b a3 9c bc ec 30 cd 3d
       0.050914343 -0.027242262 -0.019120803 0.10019097
000070 83 1d ab bc 76 df 06 bd a3 6f 3b bd 1a 5b 96 3a
       -0.020888096 -0.032927953 -0.045760762 0.0011471242
000080 5b 71 11 3d 38 ed 84 bd cc eb 1c bd 21 68 aa bd
       0.035508495 -0.064905584 -0.03831081 -0.08320642
000090 7a c5 8a 3d 33 e8 a9 3d f5 d5 d5 3d 6a eb a2 3d
       0.06775947 0.082962416 0.104412 0.07955058
0000a0 63 e6 9a bc 57 c0 14 3d 08 ca a6 3d 78 27 3e bc
       -0.018908685 0.036316242 0.08144003 -0.01160609
0000b0 df b9 58 bd eb 5c 4b 3c 45 2f 0c bc 08 a5 f6 3c
       -0.052911635 0.01241229 -0.008556192 0.03010799
0000c0 70 07 37 bd 88 9f 2c bd b6 38 86 bc c6 a2 44 3b
       -0.044684827 -0.04214433 -0.016384464 0.0030004247
0000d0 89 28 33 3d 19 8b 52 3d 9d 42 6a bc ad c9 e7 3d
       0.04373983 0.051402185 -0.014298108 0.113177635
0000e0 2b aa 70 bd 58 d5 b3 3b 4c 07 42 bd a2 23 17 bd
       -0.058756035 0.005488079 -0.04737024 -0.036899216
0000f0 1b 3a aa 3d ec 78 06 bd 7c 78 9b 3c d7 8b 93 bd
       0.08311864 -0.032830164 0.01897835 -0.07204407
000100 8b a6 2c bc 25 6f c9 bc 05 a3 7a 3b 95 43 37 bd
       -0.010537754 -0.02458913 0.003824414 -0.044742186
000110 99 0a 7b 3c 9e bc 91 bd 1b a1 92 3c a6 0f 51 bd
       0.015322351 -0.07116054 0.017899087 -0.051040314
000120 25 5b 05 bd 05 9a de 3d 0d 4a 20 3b 07 e8 28 bd
       -0.032557625 0.10869221 0.00244582 -0.041236904
000130 86 d7 45 bd 0f ab 49 bd 1c 30 82 bd 20 cf b3 bc
       -0.048301242 -0.0492354 -0.063568324 -0.02194935
000140 61 93 5e 3d ef 28 f5 3d 7d 00 ae bb aa 0b 00 bd
       0.05433977 0.11970698 -0.005310117 -0.031261124
000150 c2 f2 5f 3d f8 a5 0f 3d 0a 91 ab bc 92 e6 59 3d
       0.05467487 0.03507039 -0.020943183 0.053198405
000160 7d 59 a8 3d 6e 4f 94 bb 43 2f 8a bd 59 1f e5 bd
       0.082201935 -0.0045260703 -0.06747296 -0.1118762
000170 31 17 88 bd f0 a4 4b bd 3d 80 9b 3c 18 b2 2d bd
       -0.066450484 -0.049717844 0.018982047 -0.04240617
000180 58 67 bb bc 3c fd 8f bd 3d 06 2e bd 8f 9b 3f 3d
       -0.022876427 -0.070307225 -0.042486418 0.04677921
000190 84 44 ee 3d ed e1 ce 3d 34 fe 58 3d 19 84 07 bb
       0.11634162 0.10101686 0.052976802 -0.0020678102
0001a0 5f bd b2 3d ba 7b 31 bd 24 8a fc 3c 98 d0 1f 3d
       0.08727526 -0.043330885 0.03082759 0.03901729
0001b0 5f 13 bb 3c 91 f7 d1 3c 98 ab 07 be 2a ee 8c 3d
       0.022836385 0.025630744 -0.13249052 0.06881364
0001c0 dc bd 1e bc 08 d9 64 3d c6 92 4c bd 98 2e ce 3d
       -0.009688821 0.05587104 -0.04994466 0.10067481
0001d0 61 a1 94 3d a3 5b 26 3c 85 b3 3f bd 83 f5 81 bd
       0.07257343 0.010153684 -0.046802063 -0.06345656
0001e0 1b 6f a6 3d ef 74 b8 3c 5f 1b 3e bd 64 96 90 3d
       0.081266604 0.022516696 -0.04641282 0.07059935
0001f0 3d 22 47 bd 76 1a b2 3c f8 36 46 3d 3b ad 99 3d
       -0.048616637 0.021741133 0.048392266 0.07503744
000200 8d 15 34 bd 1f 93 5f 3c 43 a2 8b bd 2e 00 06 3d
       -0.043965865 0.013645916 -0.06818058 0.032715015
000210 9e 8b 82 ba 03 09 7f 3d 09 5c 31 bd 68 35 b4 3d
       -0.0009959822 0.062264454 -0.043300662 0.08799249
000220 11 e4 7d 3d 92 88 00 bd 1c c9 85 bd de 73 01 be
       0.06198508 -0.031380244 -0.06532499 -0.12641856
000230 af 3c a2 bd f0 4c 44 bd ff a7 94 bd a0 43 6e 3c
       -0.07921731 -0.047924936 -0.07258605 0.01454249
000240 31 13 8c bc c5 ba 45 bb e1 cc 87 3d 12 10 16 bc
       -0.017098995 -0.0030171138 0.066308744 -0.009159105
000250 24 a8 81 bd 47 74 ea bc 38 62 ec bb 30 3b 91 bd
       -0.063308984 -0.028619898 -0.007213857 -0.07091367
000260 c2 bf 8f 3d 3f af af 3d 71 a0 a7 bd 99 b0 3c 3b
       0.07018997 0.085783474 -0.08184899 0.0028791784
000270 ff 43 6c bc 38 a7 33 bd ec a4 00 3d a5 24 a7 bb
       -0.014420508 -0.043860644 0.03140728 -0.005100804
000280 da 1b 88 bd 93 75 8f bd eb 5e 43 3d 5b bd 3d bc
       -0.06645937 -0.070048474 0.047697943 -0.01158079
000290 27 66 8d ba cc 29 06 bd 5a e5 bd 3d 8f c7 3e 3c
       -0.001078789 -0.032754704 0.09272261 0.011644258
0002a0 8b 30 9d 3c 0d 35 a0 bd bc 3b 21 3e 54 c3 1e 3d
       0.019188186 -0.07822619 0.15745443 0.0387605
0002b0 70 d3 24 3d 2b 76 54 3d f2 87 84 3d 7c e2 04 bd
       0.040240705 0.051870506 0.06471242 -0.032442555
0002c0 f6 af 87 3c f6 05 30 bb d4 bb d0 3d 5c 15 69 bd
       0.016563397 -0.0026859022 0.10192075 -0.056905136
0002d0 e4 03 bd bd 58 78 20 bd 35 7a 31 3c b0 44 ee 3c
       -0.09229258 -0.03917727 0.010832359 0.029085487
0002e0 dd 9a 5e bd 78 b8 f0 bd 53 4b aa 39 21 8a 98 bd
       -0.054346908 -0.117539346 0.00032481048 -0.07448221
0002f0 d0 d1 e4 3d 0a 55 ef bd 8a 64 9b bc b8 e1 04 3d
       0.11172831 -0.11686142 -0.01896884 0.032441825
000300 fd a7 f4 3d 5d 5e d6 3b ab 12 a1 bd 58 48 aa 3d
       0.11946104 0.0065420107 -0.07864889 0.0831458
000310 60 7c 18 3b 06 81 98 3d 76 45 05 3d fe 29 0d 3d
       0.0023267493 0.07446484 0.032536946 0.034463875
000320 5f 57 46 3d c6 f4 9a bc 45 3c 34 bd 9e 14 9d 3c
       0.048423167 -0.018915545 -0.04400279 0.01917487
000330 f3 44 23 3e 77 a0 fb 3d be 9f 18 3d d8 d1 9c 3d
       0.15944271 0.122864656 0.037261717 0.07657212
000340 a1 a8 97 3d 7b b5 6f bd 4d 5e 19 bd ab 8f e4 3c
       0.0740521 -0.058522683 -0.037443448 0.027900537
000350 4f cc 34 bd bb 7d a4 3d 57 55 f2 3d a5 b0 ef 3d
       -0.044140156 0.08031794 0.118326835 0.11703614
000360 5a 14 55 3b cd 7d 29 3d 06 a5 84 bd 79 e5 fb bd
       0.0032513351 0.04137974 -0.06476788 -0.12299628
000370 2e 45 3f 3c 1e c2 cb 3d 6c 1b 28 bd f5 7a 29 bd
       0.011674209 0.09949134 -0.041041777 -0.041377027
000380 68 d0 97 3c 51 b0 b8 3c 5b 8e 1d bc e1 73 43 3d
       0.018531993 0.022545012 -0.00961646 0.047717933
000390 f5 2b cf bc 74 19 9e 3d d9 f8 44 bd 2e bd e6 bc
       -0.025289515 0.077196985 -0.048088882 -0.02816638
0003a0 27 75 9d 3c 04 54 a1 3d 9f 87 4a bd 6c d3 9c bc
       0.019220902 0.07877353 -0.049445745 -0.019143783
0003b0 f2 b7 4e 3c 40 a6 69 bc 01 cb e1 3b 49 ed fe bd
       0.012617098 -0.0142608285 0.006890655 -0.12447602
0003c0 4a 32 cf 3c bd 5f ac 3d d4 ed 88 bd 01 20 aa bd
       0.025292534 0.08416698 -0.06685987 -0.083068855
0003d0 9d 25 85 bd 88 9d aa 3d 6f 6b a2 3d 9e dd 3a 3d
       -0.06501315 0.08330828 0.079306476 0.045621507
0003e0 ba fb 93 3d 53 75 72 3c f1 4f 08 bd 12 73 ae bd
       0.072257474 0.01479848 -0.033279363 -0.08518042
0003f0 f6 5f 5b 3d 57 1d b3 bc 7c 0c 9b 3d 02 c5 56 bd
       0.053558312 -0.021864576 0.075707406 -0.052433975

hidden2.bias f4 [150]
000000 57 3e 7b 3d 12 f7 4c 3c eb 12 0e 3e 16 6e 59 3c
       0.06133875 0.012510078 0.13874404 0.013270875
000010 04 1e 4c bd 75 8c bf 3c ef 0d 62 bd 52 2e 33 3e
       -0.049833313 0.023382405 -0.05518907 0.17498139
000020 2c 1d 23 bd 5d c9 23 3d dc 82 dc 3d 9f 8b 0e 3e
       -0.039822742 0.039986957 0.10767147 0.13920449
000030 ae bf 28 3e 0c a0 bd bd 0e 11 43 3e 6e 12 a0 bd
       0.1647937 -0.09259042 0.19049475 -0.07816015
000040 10 6d 73 3c 65 02 d8 3d 5e 45 b6 bd 25 8e 36 3e
       0.0148575455 0.10547332 -0.088999495 0.17827661
000050 c6 0e fd bd 52 1f 0f 3d 26 72 bf bc 2c 8a 03 3d
       -0.123563334 0.03494198 -0.02336986 0.032114193
000060 89 29 bd 3d dc 12 ba bc 77 df d8 b9 cd 8c a7 3c
       0.09236438 -0.022714071 -0.00041365225 0.020452881
000070 93 18 1f bd b4 73 9a bb 25 3e da 3d 12 72 43 bd
       -0.038841795 -0.0047135 0.106563844 -0.047716208
000080 35 8a bc bc bc 04 d2 bc 86 bc f3 3c e7 69 2b 3e
       -0.023015121 -0.025637023 0.02975298 0.16739617
000090 74 0b 9e 3d 05 03 cf bc 2e 68 28 3c f2 6c 43 3d
       0.07717028 -0.025269995 0.010278745 0.04771132
0000a0 72 00 91 bd 7f 9f 1b 3e bd bd 8b bd 53 2b 8e 3c
       -0.07080163 0.15197562 -0.06823299 0.017354643
0000b0 52 ca 79 bd 80 14 59 3e 31 50 0e 3d b7 85 4f bd
       -0.060983963 0.21199226 0.034744445 -0.05066463
0000c0 7b ce 30 3e 28 40 c8 bc 42 10 1e 3e 24 fe 0c 3e
       0.17266266 -0.024444655 0.1543589 0.13768822
0000d0 a5 19 7c 3d 86 05 d6 3d 89 26 e1 3d 63 5c 4b bd
       0.061547894 0.10450272 0.10993678 -0.049648654
0000e0 de 37 68 bc 2a ad 99 bd f3 7b ed bc b4 95 cf 3d
       -0.014173476 -0.075037315 -0.028989768 0.101359755
0000f0 ba ba af bb e1 ea 81 3d 96 b1 da bd 46 07 45 3e
       -0.0053628357 0.06343628 -0.10678403 0.19241056
000100 da 11 b2 3d 21 05 1c 3e 4c b4 02 3d 44 0b 2e 3d
       0.08694811 0.15236332 0.031910226 0.042491212
000110 af 70 f1 3c d9 91 c7 3d 9a 87 00 3e 45 d9 ad bd
       0.029472677 0.09744615 0.12551728 -0.084887065
000120 a3 0e 9c 3d c5 f5 1d 3d 94 25 66 3d d9 70 bb bd
       0.07619979 0.038564462 0.05618818 -0.09152383
000130 3a a4 aa 3c 7f 65 15 3e ad b7 99 bd 77 38 38 bc
       0.020830262 0.14589499 -0.075057365 -0.011243931
000140 13 f9 27 3e c8 df b4 3d 1b 25 d7 3d 06 23 36 3d
       0.16403608 0.088317454 0.10505124 0.044466995
000150 5b 09 de bc 5e 0f 1b bd af 52 42 3d de 3c 6c bd
       -0.02710407 -0.037856452 0.047442134 -0.057675235
000160 c6 0b b8 3d fc 55 56 3d b8 e6 fe 3c 61 66 0d 3d
       0.089866206 0.052328095 0.031115875 0.034521464
000170 bb b0 2a 3e 1c a6 9b bd 47 6a 0b 3d a5 c1 fb 3c
       0.1666898 -0.07600042 0.0340369 0.030731985
000180 94 86 85 bc b2 14 1c 3d 5c e4 63 3d 44 93 eb 3d
       -0.016299523 0.038105674 0.055637702 0.11502698
000190 c1 88 8e bd 87 ac 09 3e 8a fa 16 3e e3 21 ee bd
       -0.069596775 0.1344472 0.1474401 -0.11627557
0001a0 a3 24 63 bd 5c cc 47 3d a8 22 bf 3c d1 89 01 3c
       -0.05545486 0.048778877 0.023331955 0.007906393
0001b0 42 99 83 bd 77 7c 39 3e f1 95 38 3c af b5 90 3c
       -0.06425716 0.18113886 0.011266218 0.017664758
0001c0 74 7c f6 3d d7 b9 5b bd 1b c6 01 3d ea 96 21 bd
       0.12035456 -0.053644028 0.03168307 -0.039450563
0001d0 cf d3 28 3e 8c 73 69 bd 35 13 d8 3d 2e 23 03 bd
       0.16487049 -0.05699496 0.105505385 -0.03201597
0001e0 61 74 60 bc 8c b8 d7 3d d0 a0 ad 3b 40 46 3e 3e
       -0.013699622 0.105332464 0.0052987114 0.18581486
0001f0 99 de d7 3c f2 4a 9d 3b 5b 6e 38 bd 47 cb 36 3d
       0.02635126 0.004800194 -0.04502712 0.044627454
000200 74 26 27 3c a4 33 f5 bd fc 51 cf bd a0 39 b5 bd
       0.010202039 -0.1197274 -0.10123059 -0.08848882
000210 ce a3 80 3d f7 b7 4c bc 53 a6 6c bd 22 69 14 3e
       0.06281243 -0.0124950325 -0.057775807 0.1449323
000220 3b 42 20 3d 6f ee e1 bd 27 64 40 3d 79 ce 50 bc
       0.039125662 -0.11031806 0.046970513 -0.012744539
000230 35 3a cc bb 33 4f 85 3c 18 da a7 3b 5d 7c 7c bd
       -0.0062325248 0.016273117 0.0051224343 -0.06164204
000240 f2 f2 cf 3d 09 2b 08 be 21 38 c5 3c 4a e1 1f 3d
       0.1015376 -0.13297667 0.024074616 0.03903321
000250 e6 8e 19 3e 5a a8 2e bd
       0.14995918 -0.04264102

hidden3.weight f4 [50, 150]
000000 df f2 95 bd 78 e5 82 3a 6f 5e 20 3e 82 93 91 bd
       -0.073217146 0.00099866 0.15661024 -0.07108213
000010 76 96 34 3d 7e 4d 71 be fa 8b 28 3d 09 57 b5 3d
       0.044088803 -0.23564717 0.041149117 0.08854491
000020 f2 87 6c bd 65 c7 ab bc d6 6f 27 3e 88 4e 8f 3e
       -0.057746835 -0.020969102 0.16351256 0.27989602
000030 04 bb 38 3e e1 90 14 bc 12 8c 67 3d 44 9b 86 bd
       0.18040091 -0.009067745 0.056530066 -0.06572583
000040 4e f1 30 3d 7a 85 41 bd 2a 65 ac bd 3f d5 52 3e
       0.043198876 -0.047246434 -0.08417733 0.2058916
000050 73 29 ed bd 9f 82 27 bd 4a ae 62 ba d9 cc 10 3c
       -0.115801714 -0.040896054 -0.0008647187 0.008837902
000060 17 36 27 3e ca 6d 02 bd 31 03 08 bc 04 3b 15 bd
       0.16329227 -0.031842984 -0.008301542 -0.036433235
000070 ba 57 78 bd 1b 3d 33 3d e6 60 17 3e a3 b9 e7 bd
       -0.060630538 0.043759447 0.14783058 -0.11314704
000080 c9 3c 66 bd 5d 68 16 3c fb 96 12 3d ec 4c f5 3d
       -0.056210313 0.009180156 0.035788517 0.11977562
000090 12 1a c4 3d e7 66 8b bd 07 f0 e6 3a 71 4b 25 3d
       0.09575285 -0.068067364 0.0017619141 0.04035515
0000a0 1c c7 1e 3d 85 6f c1 3d 42 e5 36 3c d4 e8 89 bd
       0.038764104 0.09445099 0.011163058 -0.067338616
0000b0 31 38 0e bc 58 2e de 3d e1 f6 c9 bc 92 ce b5 3c
       -0.008680389 0.10848683 -0.024653854 0.022193227
0000c0 27 27 22 3e e3 12 a0 3c 5a 9a 59 bd a2 69 7c 3d
       0.15835248 0.019540256 -0.053125717 0.061624177
0000d0 a2 aa 75 3d 40 76 85 3d e5 f8 dc 3d d7 d9 89 bd
       0.05997718 0.06516695 0.1078966 -0.06731003
0000e0 2e 5b 09 bd 74 9d ff bd 44 9b 79 bd d6 e0 0f 3e
       -0.03353422 -0.12481204 -0.06093909 0.14050612
0000f0 55 48 02 ba 8b 6c c3 bc d2 19 d6 3c 38 2e 97 3d
       -0.0004969885 -0.023855468 0.026135359 0.073818624
000100 6b a6 e9 3c 54 17 bc 3d c3 fa 4e bd 1b b6 7b bc
       0.028521737 0.09184137 -0.050532114 -0.015363242
000110 7a 68 68 3d 40 3e a9 bc 2b 4a 50 3e 76 73 dc bc
       0.05674026 -0.020659566 0.20340793 -0.026910525
000120 8e 86 7c bd 0e ed a1 3d a5 48 8e 3d 6a 7b 6e bd
       -0.06165176 0.07906543 0.069474496 -0.058223166
000130 85 44 42 bd 5c a2 0d 3e 60 58 ed bc 0c 1f cd bd
       -0.047428627 0.13831466 -0.028972805 -0.10015687
000140 b4 0b 45 3e 8e e9 9d 3c 17 fb 34 3c 3a 43 98 3d
       0.19242746 0.019276407 0.011046193 0.074346974
000150 15 a3 1a 3d 99 b3 cf 3c eb 66 7c 3c 48 d2 18 3d
       0.037753183 0.025354194 0.015405397 0.037309915
000160 e3 1b 27 3d 48 9e 47 be 5d 38 b9 3d f1 be 93 3c
       0.04079808 -0.19493973 0.090439536 0.018035384
000170 41 40 91 3d b4 92 1c bc 47 42 92 3d 75 9c 98 3c
       0.070923336 -0.009556461 0.07141548 0.018629292
000180 f4 e3 81 3c 2d ee 49 bd e2 74 3f bd ce 34 bc 3d
       0.015855767 -0.049299408 -0.046742328 0.09189759
000190 cc e5 62 bd 03 96 48 3d a3 a7 73 3d 47 6c 2d 3d
       -0.055394933 0.048971187 0.059486043 0.04233959
0001a0 30 55 8a bc 62 a5 67 bd 17 91 24 bd eb 62 6d bc
       -0.016886324 -0.056554206 -0.04017743 -0.014488916
0001b0 d4 70 f3 3b 8c 63 2f 3e 58 a1 35 3d d5 f6 30 3d
       0.0074292216 0.17127818 0.044343323 0.043204147
0001c0 1f 00 95 3d bf 2e 3f 3d 0d 69 94 bd fe 3d 9c bc
       0.07275414 0.04667544 -0.07246599 -0.019072529
0001d0 b9 c1 97 3d 2f 30 1f 3e b0 85 0f bd aa 71 4d 3d
       0.074099965 0.15545724 -0.035039604 0.050157227
0001e0 08 92 36 3d 88 e2 82 3d e0 a5 b8 bc 94 e9 ae 3d
       0.04457286 0.06390864 -0.022540033 0.08540645
0001f0 7f 21 8b bd 24 55 33 3d f8 7a c3 ba 8f f3 53 bd
       -0.06793498 0.04378237 -0.0014913967 -0.051745947
000200 ad e2 1e bc 47 46 48 bd 86 8b 0c 3c c4 41 06 bc
       -0.009697598 -0.048895147 0.008578187 -0.008194391
000210 b9 a0 39 bd 26 72 4c bd 90 96 a1 bc 6b ff 83 3d
       -0.045319293 -0.049913548 -0.019725114 0.064452015
000220 5f f7 a2 bc fb 1b 36 3b 01 f7 e6 3c 9e 47 36 3d
       -0.019893346 0.0027787674 0.028193953 0.044501893
000230 64 c2 25 bd d0 17 43 bd cd a1 2b 3c be 0a 34 3d
       -0.04046859 -0.04763013 0.010475588 0.043955557
000240 23 98 9c 3c c1 99 48 3d 94 30 aa 3d 2c 58 85 3c
       0.019115513 0.048974756 0.08310047 0.016277395
000250 4d f4 0c 3d 2d dc 0e 3c cd 0b 80 3c ce 7d d2 3d
       0.03441267 0.008719486 0.015630627 0.102779016
000260 39 55 8f 3d ab 27 22 3b 7b bd 6c bd 2e 68 ce bd
       0.06998677 0.0024742882 -0.05779789 -0.100784644
000270 3e 2f 03 3d 75 ce 31 3d 1a 18 73 bd c6 83 ab bc
       0.032027476 0.043409783 -0.059349157 -0.020936858
000280 9c 75 97 3d d0 55 9d 3e 11 14 fa 3d be 0b 5d bc
       0.07395479 0.30729532 0.122108586 -0.013491569
000290 ed 6e 4c 3c bd 04 86 3c d7 10 31 bd ff c5 b8 3b
       0.012477619 0.016359681 -0.04322895 0.0056388373
0002a0 35 f4 7f bd f0 b8 92 3e a8 22 be 3c 62 cf 5f 3d
       -0.062488753 0.2865672 0.023209885 0.054641135
0002b0 65 d2 f3 bc d3 e0 4a bd 4b 1f 70 3e 24 b7 de bc
       -0.02976341 -0.049530815 0.23449437 -0.027186938
0002c0 34 c5 87 bd 69 c8 a7 3d 6d 9c 43 3d 0c fe 17 bc
       -0.066294104 0.08192522 0.0477566 -0.009276878
0002d0 85 07 de 3d d3 3a de bc 1d 7c 0d bd 06 e1 73 bd
       0.10841278 -0.027127659 -0.03454219 -0.05954077
0002e0 4c 7c a1 3b ec 85 36 3e 68 40 4a 3d 06 85 99 bd
       0.0049281474 0.17824525 0.04937783 -0.07496075
0002f0 df a5 a8 3d 0c ae a2 3d db 14 02 3c f0 3f 10 3e
       0.082347624 0.07943353 0.007939543 0.1408689
000300 8b be 19 3d 3b 0d 58 bd 64 b7 b2 3c 6e e8 d8 3d
       0.03753523 -0.052746993 0.021815963 0.105912074
000310 44 34 05 3d 02 44 19 3d 9d db c8 3c a9 86 75 bc
       0.032520548 0.037418373 0.024518782 -0.014985719
000320 7d f5 73 3d c5 1d 18 3e 7e 0d 10 bd e0 1a 40 3e
       0.059560288 0.14855106 -0.035169117 0.18760252
000330 b2 9b ce bb 68 ec 05 bd 2f 5d 94 3d 99 8b 24 be
       -0.0063051814 -0.032696158 0.07244336 -0.16068877
000340 e5 2c 16 bd 3b 9d e0 3d 69 e0 82 bc bc 67 7b bc
       -0.03666391 0.10967489 -0.015976148 -0.015344556
000350 49 5f b5 bd 6e 6f cd 3d fd 2d 2d 3e 4f 42 bd bc
       -0.08856065 0.10031019 0.16912074 -0.023102907
000360 80 36 99 3d d1 b0 87 3d ad e7 0c 3e 9e 48 06 3d
       0.07481098 0.06625522 0.13760252 0.032784097
000370 61 0c 5d 3e 54 90 1c be 03 fb 79 3c c9 66 1e 3d
       0.21586753 -0.15289432 0.0152576 0.038672242
000380 e6 5d 1a 3d 49 33 20 3d df d3 4a bc 8d 32 54 3e
       0.037687205 0.03911141 -0.012379616 0.20722409
000390 2f 6c 8d bd c7 96 ef bc 01 20 3b 3e b1 8d ab 3d
       -0.069054 -0.0292467 0.18273927 0.08376635
0003a0 0d b0 a7 3c e1 9c a8 bc 71 8d f9 bb e3 8f 87 bc
       0.02046969 -0.020582618 -0.007615738 -0.016548103
0003b0 5e 32 04 bc 56 fb e4 bd 91 ff 8a bd b5 c0 7a bc
       -0.008068649 -0.11180751 -0.06787027 -0.015304734
0003c0 74 d6 68 3e cb be fd 3c e0 49 61 3d 62 f8 a2 bd
       0.22738057 0.030974766 0.055002093 -0.079575315
0003d0 97 84 c1 3d 67 98 af 3c cf 03 ba 3c 52 32 ac 3c
       0.09449118 0.021434976 0.022706894 0.021020088
0003e0 85 aa 85 bd 32 7d b0 3d 60 04 4a bd 81 0f 52 3b
       -0.06526665 0.08617629 -0.04932058 0.0032052698
0003f0 21 34 4f bd f8 93 3a bd ae 45 5f bd a5 9e 84 bd
       -0.050586823 -0.04555127 -0.05450981 -0.064755715

hidden3.bias f4 [50]
000000 67 b6 11 3e 3f 95 e1 3d 2a 14 ca 3d f1 43 e5 3d
       0.14229737 0.110147946 0.09867127 0.111945994
000010 b4 dc 23 3d 1f af 93 3d 0a c6 5f bd 8d 55 c3 3d
       0.0400054 0.07211136 -0.054632224 0.09537802
000020 1d 2d 36 bd 40 57 06 3e 7f 59 90 bd 07 b8 92 3d
       -0.044476617 0.1311922 -0.0704832 0.07164007
000030 d6 a5 ca 3d 5c 42 f4 3c c5 7d c2 bd 36 bd 19 bd
       0.09894912 0.029816799 -0.09496645 -0.03753396
000040 2b 32 19 3c 59 af f2 3c c3 7d 5b bd b1 74 66 3c
       0.00935034 0.029624628 -0.053586733 0.014065907
000050 b0 19 1c 3c e0 f5 fa bc 8f 4b 39 3d 09 d1 3a bd
       0.009527609 -0.03063482 0.045238074 -0.045609508
000060 84 9e 4f 3d 28 bc 6c 3c 5f b2 99 bd 5e 19 be bb
       0.05068828 0.014449157 -0.07504725 -0.005801364
000070 9b 68 3d 3e 6a d3 7d bd 8c eb 15 3e d1 e6 af 3d
       0.18496935 -0.0619692 0.14640635 0.085889466
000080 a9 e2 81 bd 48 04 92 3d b7 1d 39 bd 67 5e d7 3d
       -0.0634206 0.07129723 -0.045194354 0.10516053
000090 f2 07 61 3d cb 94 c1 3c ed 5c 1e 3c be a8 56 bd
       0.054939218 0.02363052 0.00966571 -0.05240702
0000a0 ab ac 9c 3d d6 2e 0d 3e 7b e5 37 3e 44 60 df 3d
       0.07650121 0.13787398 0.17958634 0.10907033
0000b0 49 7a 23 3e e9 b2 41 bc ad 24 60 3d ee f1 37 bd
       0.15964617 -0.011822441 0.054722477 -0.044908457
0000c0 2b 74 93 bb 87 ec 58 3b
       -0.0044999323 0.0033099966

output.weight f4 [2, 50]
000000 71 8b 26 3e b2 3c 10 bd d2 8b 38 3e 47 51 42 3e
       0.1626413 -0.035214134 0.18022087 0.18976317
000010 11 41 fd bd 7d 94 b9 3d 7f 0f a8 3c af a3 1a 3e
       -0.12365926 0.09061525 0.020515202 0.15101503
000020 0d fc 0d be 59 33 70 3e 79 06 1a be 7e f2 45 be
       -0.13865681 0.23457088 -0.15041532 -0.19330785
000030 35 64 e6 3d 2c 55 1a be 41 66 22 3e f7 98 81 bd
       0.11249582 -0.15071553 0.1585932 -0.06328004
000040 a0 3e 80 3d 45 9e 31 bd ed 3d 39 be 9d 79 3d be
       0.06261945 -0.04336383 -0.18090029 -0.18503423
000050 f1 9a 82 3e 88 ae d4 3d 3d 55 4a be 5c 5b 04 be
       0.25508836 0.10384852 -0.19759078 -0.12925476
000060 54 51 b1 3e 40 16 5c 3e 58 ed 8e bd cc fe 8a 3d
       0.3463236 0.21492863 -0.069788635 0.0678688
000070 46 60 c8 3e 60 84 24 be 83 8a 33 3e b2 5e a3 3e
       0.3913595 -0.16066122 0.17533307 0.31908184
000080 93 8f ac 3d 48 c3 43 3e af 7a 15 3e 6c 8a 98 3e
       0.08425822 0.19117463 0.14597581 0.29793108
000090 0d cc fa bc 10 0a 92 bd d4 08 0b be c0 b1 21 3c
       -0.030614877 -0.071308255 -0.13577586 0.009869039
0000a0 39 e4 4f 3e 44 d2 82 3e 23 a9 54 3e e9 5d 3a 3e
       0.20301904 0.25551045 0.20767646 0.18199886
0000b0 32 6e fa 3d 58 ae 44 3e a0 37 09 3e 38 e7 10 be
       0.12228049 0.19207132 0.13400126 -0.14150703
0000c0 8a d0 85 be bd 1a fc bd 1b 34 41 be fe 28 33 be
       -0.26135665 -0.123097874 -0.18867533 -0.17496106
0000d0 58 d7 dd bd 00 1f a6 bd 25 ca eb 3d 4e 6d c6 bd
       -0.10832089 -0.081113815 0.115131654 -0.09688817
0000e0 0c 54 34 3e 72 10 f1 bd 04 97 ec bc 5b 93 80 be
       0.17610186 -0.11770715 -0.028880604 -0.25112423
0000f0 3d 46 5a 3d 27 d6 4d 3e 66 c8 59 bd 56 c2 21 3e
       0.05328964 0.20101224 -0.05316963 0.1579679
000100 91 4e 63 be d2 a4 ea 3d 6b 60 5d bd 02 f1 da 3d
       -0.2219794 0.11457218 -0.05404703 0.106905
000110 ca 2a 79 3d 39 f2 8d bc 10 3b 0a bd 64 5b 4b 3d
       0.060831822 -0.017327415 -0.033747733 0.049647704
000120 8c ff 90 3e 2b 95 b5 bc a0 68 20 be 6c 35 be bc
       0.28319967 -0.022165855 -0.15664911 -0.023218833
000130 9a 87 46 3d ef 9c 49 be 05 de 20 be d1 b3 ec bc
       0.048469163 -0.19688772 -0.15709694 -0.028894337
000140 2e f8 5d be 52 3b e7 be 2b c0 c6 3d ff 26 96 be
       -0.21676704 -0.45162445 0.09704622 -0.29326627
000150 a3 25 8f bd bf 09 8d be d8 e8 90 3d 05 ea 09 3d
       -0.069896005 -0.27546498 0.070756614 0.033670444
000160 c2 42 4e 3e ea e3 a9 bc 3e 0b 77 ba 9c 80 31 bd
       0.20142654 -0.02073856 -0.00094239775 -0.043335542
000170 d7 19 06 be 8a 81 bc bd ff cb 77 be 79 44 14 be
       -0.13095795 -0.09204395 -0.24198912 -0.14479245
000180 66 c5 9c be 5b 82 0c 3e 2a ae 7e 3e bb 43 81 3c
       -0.30619353 0.13721602 0.24871126 0.015779367

output.bias f4 [2]
000000 d2 1f c6 bd 81 a0 22 be
       -0.09674038 -0.1588154
